deep_emotion-450-128-0.005.pt (torch, 274842 bytes, 24 tensors)

conv1.weight f4 [10, 1, 3, 3]
-0.9827953 0.33605394 1.9053812 -2.3877368 -1.5863508 1.0100412 -1.7628446 -2.2153444
-1.5867403 0.9219878 -0.034167517 2.4484184 2.1488357 0.5500053 0.95727426 -0.35605934
-2.932258 -3.0189228 1.1794448 0.6540394 1.3650887 1.9162989 0.7968747 0.25531596
0.9726205 1.8387817 -0.032625254 -0.18344858 -1.2381186 -2.0629983 0.75193614 -0.10243873
1.7630794 1.3685712 0.85847795 2.1525004 -0.11911026 0.21392873 0.19864972 0.118617885
-0.33289957 -0.151728 -0.045489877 0.046419874 0.044672914 -1.0986643 -0.7170751 0.8704507
-1.0195278 -1.0022174 -0.11445175 -0.7365844 -1.655945 -0.38452646 1.728964 0.25484058
-1.2358747 0.58462495 -1.125598 -0.0732229 -1.070162 -2.731862 0.7723417 1.192917
2.0474508 2.1024945 1.5342215 1.3179994 1.1830512 1.2335633 1.7818136 1.0082108
-1.067547 -0.6273037 0.58573884 -1.7526896 -1.4817936 -0.328388 -0.19031435 -0.4209276
0.08191291 0.9278365 2.4159749 2.15921 -4.324157 -1.6871256 0.08199192 0.86781126
1.4977684 -1.8508018
00000000: 7998 7bbf 430f ac3e 88e3 f33f aed0 18c0
00000010: 8b0d cbbf 0849 813f e4a4 e1bf 34c8 0dc0
00000020: 4e1a cbbf 6407 6c3f 3df3 0bbd e3b2 1c40
00000030: 8686 0940 26cd 0c3f ed0f 753f 694d b6be
00000040: 1daa 3bc0 0836 41c0 0cf8 963f 206f 273f
00000050: 3abb ae3f 4849 f53f fbff 4b3f c6b8 823e
00000060: a8fd 783f 335d eb3f 0fa2 05bd f2d9 3bbe
00000070: ac7a 9ebf 2a08 04c0 e37e 403f 66cb d1bd
00000080: 96ac e13f 572d af3f 36c5 5b3f 91c2 0940
00000090: 14f0 f3bd 2210 5b3e d56a 4b3e efed f23d
000000a0: d071 aabe 965e 1bbe 9853 3abd c422 3e3d
000000b0: f2fa 363d 08a1 8cbf 3c92 37bf dbd5 5e3f
000000c0: e37f 82bf a948 80bf ae65 eabd cc90 3cbf
000000d0: 01f6 d3bf a7e0 c4be b14e dd3f 777a 823e
000000e0: 2431 9ebf fba9 153f 9813 90bf e3f5 95bd
000000f0: 12fb 88bf d4d6 2ec0 30b8 453f 81b1 983f
00000100: 6f09 0340 458f 0640 5f61 c43f 34b4 a83f
00000110: 396e 973f 67e5 9d3f 7812 e43f 0d0d 813f
00000120: 61a5 88bf fa96 20bf fbf2 153f 2258 e0bf
00000130: 6aab bdbf 7922 a8be c4e1 42be d383 d7be
00000140: f5c1 a73d b186 6d3f 559f 1a40 7f30 0a40
00000150: 7f5f 8ac0 bbf3 d7bf 61eb a73d e128 5e3f
00000160: e0b6 bf3f 13e7 ecbf

conv1.bias f4 [10]
-0.030841893 -1.8307004 -0.33636782 0.038216017 -0.728346 1.3993739 0.36444163 -0.06327543
0.35972652 -1.978817
00000000: 23a8 fcbc 6454 eabf 6738 acbe 6688 1c3d
00000010: e274 3abf af1e b33f 1898 ba3e 8c96 81bd
00000020: 132e b83e e049 fdbf

conv2.weight f4 [10, 10, 3, 3]
-2.1136262 1.2951854 3.1873305 2.038361 -0.33983165 -1.0617192 0.5240099 -3.4300964
-3.4427593 -1.2194679 -0.84357005 -2.4651685 -0.45604438 -0.11626878 -2.2767658 -0.6390723
0.43634692 1.9691416 1.3666822 0.5244554 0.14445145 1.6731014 1.1843526 0.34273592
0.7151935 0.68742305 0.38531294 -0.29874155 0.5130755 -0.001373053 1.5438089 1.2973515
0.019192047 -1.1316426 -0.31230232 -0.9320267 -0.12213346 -0.053796843 -0.16180673 -0.019142278
0.23414332 0.25001624 0.065842256 -0.051920388 -0.22306418 -1.090817 -0.6225996 0.81106436
-1.3678224 -0.92365944 -0.60072714 0.06551269 -3.1449468 -1.5165039 -2.2314074 -0.9241321
-0.02366791 0.3203042 2.4748783 -0.17068696 0.42767137 -1.0351272 -2.4179816 1.5616392
1.0637357 0.8561377 2.0658574 1.4529864 0.7178879 1.2257247 1.0091745 0.7088651
-2.3163762 -1.4487709 -0.18561627 -0.30921647 -1.553418 1.1912351 2.5387075 -3.117649
-1.099262 -2.099449 1.0136395 3.7126088 -0.47208914 0.412634 1.0287206 -2.2234197
-1.2412002 -0.32395655 -0.11311844 -0.053476386 -0.054402478 0.027757248 -0.06290798 -0.27251613
-0.1285102 -0.18721771 -0.19354454 -0.09696511 -0.07196249 0.052131552 -0.07065576 -0.14489263
-0.101843655 -0.017601892 0.035810106 -0.06141403 -0.24599376 -0.037639644 -0.21608603 -0.059596002
-0.2942726 -0.19669804 0.04976951 -0.07752748 -0.28378785 -0.12144853 -0.077461354 -0.06684201
-0.099443294 -0.054932028 -0.03064194 0.030364709 -0.017606284 -0.15849063 -0.06611943 -0.0017406319
-0.04882481 -0.056222744 -0.0076374514 0.010251406 0.027060933 0.10033057 -0.17586899 -0.028176434
0.08703094 0.062426854 -0.12081804 -0.12867393 -0.03990086 -0.01593285 -0.110816166 -0.17860332
-0.04659691 -0.024749579 -0.00094664446 -0.019408416 -0.13964851 -0.047160923 -0.15058029 -0.087243095
-0.10405352 -0.38573164 -0.0940357 -0.16752194 -0.1819334 -0.16377816 -0.16934332 0.038394406
-0.02751229 -0.22190045 0.055613857 0.016933998 -0.06483373 0.07859048 -0.032664463 0.05456283
-0.03294952 -0.10793808 -0.08684025 0.0023502747 -0.08370238 0.066332154 -0.21585241 -0.21194386
-0.19408482 -0.14574538 -0.08173865 -0.023502583 -1.1938351 4.4390745 -0.87809384 0.6413784
2.3897564 2.4101655 -1.3572372 -2.8076007 -3.4233117 -0.69608426 1.0591695 -0.84724754
0.21489726 3.1300013 0.47780773 -3.8783948 0.028408227 3.118887 0.15938585 0.8169552
-0.21586277 0.45884696 1.2669355 0.033221163 0.29073995 0.88353384 -0.05136982 0.4439488
0.17142947 0.33930308 0.87356406 0.5329505 -0.16710564 -0.21174972 -0.5176227 -1.8936856
-0.110288925 -0.08455865 -0.11863526 0.04561107 0.5211959 0.21730414 -0.078971475 -0.24259147
-0.1522234 0.15113546 0.10698217 -0.39448416 -0.7213636 0.5845366 -1.3629407 -1.5790975
-7.10668 -2.1336336 -0.30854943 -1.0699121 -0.18100251 0.14388222 -0.23201866 0.33393496
-2.7235453 -6.0619087 -3.333127 0.7783628 1.1786075 0.2962322 1.3293775 1.560871
0.081184275 1.0668912 1.1525753 -0.292819 -2.2909474 -4.1416497 -3.9479537 -0.9564876
00000000: a745 07c0 a3c8 a53f 39fd 4b40 8274 0240
00000010: 6afe adbe 6ae6 87bf 8325 063f b386 5bc0
00000020: 2b56 5cc0 8617 9cbf 35f4 57bf 52c5 1dc0
00000030: a67e e9be 531e eebd 88b6 11c0 3e9a 23bf
00000040: dd68 df3e d50c fc3f 71ef ae3f b642 063f
00000050: 15eb 133e 3028 d63f de98 973f 157b af3e
00000060: ec16 373f f5fa 2f3f bd47 c53e a7f4 98be
00000070: ea58 033f 03f8 b3ba 889b c53f 9d0f a63f
00000080: a438 9d3c aad9 90bf 17e6 9fbe 4d99 6ebf
00000090: 1c21 fabd 145a 5cbd aab0 25be 44d0 9cbc
000000a0: 44c3 6f3e 2102 803e 4ed8 863d 79aa 54bd
000000b0: f06a 64be e49f 8bbf b062 1fbf eaa1 4f3f
000000c0: ce14 afbf f274 6cbf 41c9 19bf 842b 863d
000000d0: cf46 49c0 cd1c c2bf 61cf 0ec0 ec93 6cbf
000000e0: 34e3 c1bc e9fe a33e 6864 1e40 90c8 2ebe
000000f0: bef7 da3e 0c7f 84bf 36c0 1ac0 cbe3 c73f
00000100: 7e28 883f d72b 5b3f 0237 0440 75fb b93f
00000110: 80c7 373f 8ce4 9c3f a12c 813f 2f78 353f
00000120: 823f 14c0 5371 b9bf 3112 3ebe 9f51 9ebe
00000130: 67d6 c6bf 647a 983f 2f7a 2240 9087 47c0
00000140: 9eb4 8cbf 5f5d 06c0 f0be 813f 629b 6d40
00000150: abb5 f1be c344 d33e 1ead 833f 824c 0ec0
00000160: a6df 9ebf a2dd a5be a4aa e7bd 0e0a 5bbd
00000170: 22d5 5ebd 2b63 e33c e6d5 80bd 3c87 8bbe
00000180: 2e98 03be 00b6 3fbe 8a30 46be a595 c6bd
00000190: 1261 93bd e587 553d f8b3 90bd bc5e 14be
000001a0: 6893 d0bd d831 90bc 9ead 123d 478d 7bbd
000001b0: cae5 7bbe 072c 1abd a845 5dbe f01a 74bd
000001c0: e6aa 96be 366b 49be 1ddb 4b3d bac6 9ebd
000001d0: a44c 91be 02ba f8bd 0fa4 9ebd 77e4 88bd
000001e0: eda8 cbbd 6800 61bd ce04 fbbc 69bf f83c
000001f0: 0e3b 90bc 5e4b 22be a069 87bd ea25 e4ba
00000200: 86fc 47bd d249 66bd 9643 fabb 83f5 273c
00000210: e4ae dd3c 1d7a cd3d 0017 34be 44d2 e6bc
00000220: 473d b23d 4db3 7f3d 736f f7bd 19c3 03be
00000230: 166f 23bd 9c85 82bc 96f3 e2bd cae3 36be
00000240: 67dc 3ebd a1bf cabc 3c28 78ba 66fe 9ebc
00000250: 0500 0fbe d02b 41bd b831 1abe 82ac b2bd
00000260: 031a d5bd 9e7e c5be ca95 c0bd df8a 2bbe
00000270: c04c 3abe 76b5 27be 5668 2dbe 7443 1d3d
00000280: 7461 e1bc df39 63be 5bcb 633d 2bb9 8a3c
00000290: 8cc7 84bd 0cf4 a03d 2ccb 05bd 467d 5f3d
000002a0: 13f6 06bd a40e ddbd 4dd9 b1bd 1107 1a3b
000002b0: 276c abbd 27d9 873d 6a08 5dbe d007 59be
000002c0: 2cbe 46be 473e 15be 9866 a7bd 7d88 c0bc
000002d0: 97cf 98bf e60c 8e40 c2ca 60bf 6031 243f
000002e0: c5f1 1840 2740 1a40 f3b9 adbf bbaf 33c0
000002f0: 8a17 5bc0 9432 32bf de92 873f 37e5 58bf
00000300: 070e 5c3e f151 4840 37a3 f43e 9f37 78c0
00000310: 5fb8 e83c d89b 4740 0b36 233e fa23 513f
00000320: 210b 5dbe fded ea3e f12a a23f ea12 083d
00000330: dedb 943e 462f 623f 2969 52bd 424d e33e
00000340: 358b 2f3e 22b9 ad3e e5a1 5f3f 726f 083f
00000350: be1d 2bbe ebd4 58be ec82 04bf 4a64 f2bf
00000360: 29df e1bd 162d adbd 0bf7 f2bd acd2 3a3d
00000370: 186d 053f fa84 5e3e ccbb a1bd e669 78be
00000380: 73e0 1bbe 41c3 1a3e 7819 db3d d4f9 c9be
00000390: 49ab 38bf 31a4 153f d774 aebf de1f cabf
000003a0: ec69 e3c0 748d 08c0 31fa 9dbe e1f2 88bf
000003b0: b958 39be dc55 133e 4d96 6dbe 86f9 aa3e
000003c0: 914e 2ec0 28fb c1c0 f451 55c0 c942 473f
000003d0: 9cdc 963f bfab 973e 0b29 aa3f 9fca c73f
000003e0: f143 a63d e48f 883f 9687 933f 5fec 95be
000003f0: e29e 12c0 6588 84c0 46ab 7cc0 5fdc 74bf

conv2.bias f4 [10]
1.1993191 -0.11285109 1.8759285 -0.13969542 0.5709376 1.4665703 1.7977259 0.9652064
-0.35121223 -0.06256441
00000000: 4a83 993f 791e e7bd 6d1e f03f 510c 0fbe
00000010: f728 123f 93b8 bb3f e21b e63f c417 773f
00000020: 17d2 b3be c521 80bd

conv3.weight f4 [10, 10, 3, 3]
0.45725247 0.5647719 0.4395974 0.6595585 2.3892043 0.8847764 0.97748363 1.2512696
0.49182644 0.030705776 0.27924246 0.16656686 -0.26935086 -0.20960702 -0.0066207782 -0.4377681
-0.12913135 -0.1770717 -0.1650634 -0.123521216 0.2851307 1.1902189 2.235694 0.08924084
0.60525167 1.1575317 -0.41566512 0.122316726 0.21785322 0.09011162 0.09473991 0.014957039
0.12356367 0.072150216 0.06796423 0.1672412 2.157349 -0.9529128 -1.9496746 -0.61085016
-3.0304506 -0.1790322 -0.8513861 -0.100787364 0.5837134 -0.5935203 -1.1689621 -0.18852545
1.9677502 1.9372513 -0.1366544 0.18697004 1.1513246 -0.30569616 1.7626429 -1.6639055
-0.9105397 -0.004438842 -3.4109604 -0.55354846 0.7760293 -1.0887873 -1.2538428 0.74215966
0.2183829 1.1373259 0.5991225 -2.949056 0.63139653 -0.17232874 0.4764518 0.010085369
-0.0075155627 0.14824496 -0.13862813 0.23986861 0.096626595 0.11790767 0.40192842 0.17964016
0.2309676 -0.9547119 1.4809442 0.9168209 -0.34819162 1.7684824 1.0157875 0.87294096
-1.3160155 0.60777074 0.06070026 -0.023794008 0.023039326 -0.0066625094 -0.022933017 0.047075633
-0.10122769 0.030803012 -0.08225419 -0.11151131 -0.0051902896 0.009502807 -0.03535789 0.0046284315
0.016934417 0.053327262 -0.10910005 0.0225344 -0.15314823 -0.19291937 -0.049200907 -0.07463308
-0.1548634 -0.060558654 -0.077821635 -0.080874085 -0.13948573 0.049394492 -0.051234454 -0.12667052
0.021329006 -0.023985734 -0.04289414 0.027682519 0.08309088 -0.07546695 0.0074424795 0.029539973
-0.042756513 0.007952516 -0.10209091 -0.048544075 -0.10095509 -0.03840836 -0.057420157 -0.08765833
-0.050759044 0.0054873894 0.030865557 0.027480664 -0.085371815 -0.08835347 -0.04302616 0.032132294
-0.13653323 -0.14398713 -0.08972706 -0.15871109 0.029023973 -0.1019656 -0.0010725219 0.05681617
-0.023346454 -0.11826515 -0.06979994 -0.04233593 -0.041947868 -0.17498007 -0.09303155 -0.06474615
-0.11343229 -0.042530287 -0.11222056 -0.04009605 -0.0250354 -0.0049628406 -0.06525188 -0.04941458
0.025977135 -0.018986847 0.029935619 -0.037732136 -0.006348128 -0.023103572 -0.044764582 -0.06430837
0.055481587 -0.015430776 -0.026677664 -0.15778407 -0.38694116 -2.4510338 -2.019153 1.0009227
0.77910936 -0.72327185 1.9557939 2.1126976 1.0628384 -0.03558002 0.10473043 0.027714023
0.15755056 0.06845734 -0.032683514 0.123490565 0.11585381 0.0067075933 -2.0027518 -2.5455587
-2.0089042 0.55470145 1.4785511 -0.5931827 1.7396495 2.3344486 0.19184494 0.0112499595
0.016573632 -0.07582949 0.11160835 0.005371847 -0.15002672 0.04503798 -0.042557713 -0.08578488
-0.539442 0.29045543 0.92473626 -0.09576827 -0.30325648 0.26442635 0.22867054 -1.4470801
-0.6479783 -1.5696201 -2.515176 -1.2502183 -0.5207964 -0.009448269 -2.263464 1.4149039
3.117224 0.81377727 -0.31344923 0.46485272 0.13535722 0.4865729 0.8324595 1.1174113
-0.18581192 -0.41117677 -0.006370008 0.10355201 0.9929699 1.2359654 -0.033229582 -0.17347552
1.0307441 -0.44598982 -1.1225944 -0.7813589 0.24643889 0.04519622 -0.042120162 0.16313611
00000000: ff1c ea3e e494 103f e912 e13e d3d8 283f
00000010: b9e8 1840 b580 623f 5e3c 7a3f 9a29 a03f
00000020: add0 fb3e ae8a fb3c def8 8e3e 8190 2a3e
00000030: 5be8 89be 39a3 56be 1df3 d8bb 2423 e0be
00000040: 023b 04be 4952 35be 6106 29be b1f8 fcbd
00000050: a7fc 913e 1859 983f 9c15 0f40 e7c3 b63d
00000060: c6f1 1a3f 002a 943f 0fd2 d4be 3181 fa3d
00000070: ea14 5f3e 718c b83d ff06 c23d 5e0e 753c
00000080: f30e fd3d 7ec3 933d d530 8b3d 4741 2b3e
00000090: 0212 0a40 18f2 73bf f08e f9bf ad60 1cbf
000000a0: e7f2 41c0 3854 37be 70f4 59bf 9b69 cebd
000000b0: 3e6e 153f f2f0 17bf 8da0 95bf d10c 41be
000000c0: 3ddf fb3f daf7 f73f 22ef 0bbe 1375 3f3e
000000d0: 9b5e 933f 3584 9cbe 489e e13f dbfa d4bf
000000e0: 2119 69bf b573 91bb 2d4d 5ac0 5ab5 0dbf
000000f0: dba9 463f 625d 8bbf ec7d a0bf 2dfe 3d3f
00000100: c49f 5f3e e593 913f 1860 193f 55bd 3cc0
00000110: 34a3 213f f276 30be 7ef1 f33e 1b3d 253c
00000120: 1c45 f6bb 87cd 173e 88f4 0dbe 1ea0 753e
00000130: 2ae4 c53d 9479 f13d 90c9 cd3e 97f3 373e
00000140: c582 6c3e 0068 74bf 948f bd3f c6b4 6a3f
00000150: 2c46 b2be a25d e23f 5305 823f 0f79 5f3f
00000160: 3273 a8bf dd96 1b3f d6a0 783d a7eb c2bc
00000170: f8bc bc3c 2e51 dabb 06de bbbc 61d2 403d
00000180: 7750 cfbd 9956 fc3c e374 a8bd 0b60 e4bd
00000190: 4e13 aabb a9b1 1b3c 6fd3 10bd 19aa 973b
000001a0: 0cba 8a3c b06d 5a3d d96f dfbd 109a b83c
000001b0: e4d2 1cbe a88c 45be e486 49bd 3ad9 98bd
000001c0: 8394 1ebe 5a0c 78bd f360 9fbd 50a1 a5bd
000001d0: 59d5 0ebe e151 4a3d 38db 51bd ebb5 01be
000001e0: 2bba ae3c bb7d c4bc c4b1 2fbd 73c6 e23c
000001f0: 8d2b aa3d 6b8e 9abd 0be0 f33b d0fd f13c
00000200: 7421 2fbd 454b 023c 0a15 d1bd 27d6 46bd
00000210: 8bc1 cebd 1652 1dbd 6631 6bbd 3686 b3bd
00000220: b7e8 4fbd 8fcf b33b c4d9 fc3c 211f e13c
00000230: 6bd7 aebd aaf2 b4bd 333c 30bd 279d 033d
00000240: 5ecf 0bbe 5d71 13be d2c2 b7bd 2985 22be
00000250: afc3 ed3c 57d3 d0bd dd93 8cba 13b8 683d
00000260: 1041 bfbc 0035 f2bd 45f3 8ebd 7168 2dbd
00000270: 87d1 2bbd fa2d 33be 5387 bebd a199 84bd
00000280: 304f e8bd 3d34 2ebd e5d3 e5bd c13b 24bd
00000290: 0a17 cdbc 539f a2bb c7a2 85bd f166 4abd
000002a0: 00ce d43c 4e8a 9bbc 8b3b f53c 038d 1abd
000002b0: f503 d0bb b443 bdbc 115b 37bd 1bb4 83bd
000002c0: a940 633d 5ed1 7cbc 1e8b dabc 2692 21be
000002d0: 271d c6be bddd 1cc0 ce39 01c0 3c1e 803f
000002e0: b673 473f 5828 39bf 7457 fa3f 7036 0740
000002f0: 170b 883f 5bbc 11bd e87c d63d 8508 e33c
00000300: ef54 213e 5d33 8c3d 26df 05bd 9fe8 fc3d
00000310: c344 ed3d 5fcb db3b 162d 00c0 6fea 22c0
00000320: e391 00c0 ea00 0e3f 2a41 bd3f d2da 17bf
00000330: d6ac de3f 9b67 1540 0073 443e c051 383c
00000340: 6dc5 873c 7e4c 9bbd eb92 e43d 5206 b03b
00000350: 9ba0 19be bf79 383d ff50 2ebd fcaf afbd
00000360: df18 0abf 93b6 943e 84bb 6c3f 2822 c4bd
00000370: 6f44 9bbe e462 873e 9c28 6a3e ec39 b9bf
00000380: e8e1 25bf 50e9 c8bf a5f8 20c0 2707 a0bf
00000390: ea52 05bf eacc 1abc 98dc 10c0 921b b53f
000003a0: 9980 4740 b553 503f 6b7c a0be 2d01 ee3e
000003b0: 159b 0a3e 1520 f93e 111c 553f 5507 8f3f
000003c0: 7b45 3ebe c385 d2be 80bb d0bb 1413 d43d
000003d0: 4633 7e3f 1d34 9e3f be1b 08bd 91a3 31be
000003e0: 6cef 833f c758 e4be 2cb1 8fbf 2307 48bf
000003f0: 7a5a 7c3e ac1f 393d 3186 2cbd 270d 273e

conv3.bias f4 [10]
2.6672664 -0.01201986 1.9409755 -0.6412713 -0.061723817 2.2675657 1.1372383 -0.29190114
0.041496262 -0.12372125
00000000: 7eb4 2a40 f2ee 44bc e371 f83f 5b2a 24bf
00000010: 1dd2 7cbd cc1f 1140 0691 913f 1174 95be
00000020: fcf7 293d 9161 fdbd

conv4.weight f4 [10, 10, 3, 3]
1.0075259 -1.0952916 -2.3573627 0.6000493 -0.13787046 -0.6142393 1.283657 1.9851468
0.9973623 0.04270099 -0.038252056 -0.011462068 -0.07173761 -0.008970118 0.0109519325 0.020896254
-0.1113755 0.05551479 0.13208765 1.3595861 -1.4048017 -0.2307717 2.8543541 0.024341062
-0.73859286 1.4591458 -1.5741451 -1.4978054 -0.3226613 0.31826004 -1.7273554 0.06467199
-0.65645474 0.38055098 -1.1988977 -0.784275 -0.11327998 -0.14618751 -0.139449 -0.13249533
-0.099876985 -0.02745247 -0.071100324 -0.13450016 -0.053819165 -0.027741626 -0.70855665 -0.55341065
-0.49176294 -0.6788173 -0.48805705 -0.0818538 -0.2691771 0.39530742 -1.7640071 -2.2263916
-2.5615485 0.14692703 -0.63438374 -0.9103548 0.51829004 -0.10483625 -0.9388618 -0.31637606
-0.08573754 -0.16216123 -0.17078254 0.050740927 0.038266744 -0.14183815 0.027557053 0.22224048
-0.1354126 -0.023276456 0.013043474 -0.09858591 0.09554563 -0.034663815 -0.10442195 0.008978816
-0.052520756 0.0690863 0.0016438975 -0.03119109 0.08453936 -0.0779535 0.07001367 0.07663338
0.09271089 0.060712527 -0.31777376 -2.7170014 0.31453374 -1.2676144 -1.7298157 0.4139802
-1.3361723 -0.30786714 0.84235495 -0.11640936 -0.027568653 -0.04409044 0.025035322 0.08258193
-0.026571333 0.01193199 -0.10508739 -0.022840295 0.18320589 1.8783299 1.701897 -0.032614414
-1.4768654 -0.92162174 0.34977028 0.19021432 -3.1040518 1.663209 0.57936424 -0.85735565
-2.459801 -1.4661765 1.4145932 -0.21578985 0.0596816 -1.0601729 -0.13839473 0.004286112
-0.03237645 -0.1104108 -0.13243474 0.0031567023 -0.024738597 -0.015912168 0.082994096 -0.2870063
-1.6413119 -1.9664383 -0.09757492 1.6941996 -0.8381189 -1.7491233 -1.3764212 -0.9617165
-1.7162598 -2.1660388 1.6044512 -0.3376872 0.194618 0.49699467 0.24776828 -1.9249047
-1.0459108 -0.23248978 -0.23538747 -0.13585924 -0.080308 -0.14564128 -0.34916076 -0.11986841
-0.26816237 -0.26865312 -0.13784264 -0.055565923 0.077550925 -0.10662349 -0.09003158 -0.042428616
-0.11007674 -0.113938525 -0.034542453 -0.08235268 -0.087440506 0.09616501 0.022463368 0.014539255
-0.11234415 0.020959921 -0.00928002 0.0068992595 0.9943859 -1.3814409 -0.5902286 -0.42145136
-2.3345542 -1.0587238 1.061435 -0.4594928 -1.8212646 0.036406517 0.06554531 -0.119994506
-0.0768351 -0.15738936 -0.077484444 -0.13522233 0.0067199958 -0.07268514 -2.5116699 -2.671505
-2.5218508 -0.29249054 -1.6774309 -0.870178 1.4249024 0.41381603 0.3158904 1.6950613
-2.1008275 -0.4407065 -2.705248 -1.2085856 0.892923 0.69369125 -0.8494857 2.4585128
-0.14414117 -0.012145792 0.19095013 -0.07641985 0.09804476 0.03716022 0.048346348 -0.025356686
0.105244085 -1.157068 -1.7115461 0.46119577 -0.9938531 -0.45968366 -2.4149172 -0.70834666
-0.62260425 -1.5525376 0.07593249 -0.1548669 0.21647707 -0.4550608 -1.9432384 -1.2753334
-1.3560368 -0.037555296 -0.46339327 -0.06896915 -0.09831392 0.063261375 0.04270308 -0.021815315
0.20476209 0.080729954 0.041333262 0.44765446 0.05770621 0.053863235 0.0054457225 0.09079484
00000000: 9cf6 803f 8432 8cbf 08df 16c0 d59c 193f
00000010: ea2d 0dbe c93e 1dbf df4e a43f 4a19 fe3f
00000020: 2353 7f3f 3ce7 2e3d 30ae 1cbd 66cb 3bbc
00000030: 2beb 92bd 67f7 12bc bc6f 333c 9f2e ab3c
00000040: d718 e4bd 7a63 633d fc41 073e eb06 ae3f
00000050: 8bd0 b3bf 6b4f 6cbe bdad 3640 e866 c73c
00000060: 6c14 3dbf 4ac5 ba3f 967d c9bf 16b8 bfbf
00000070: dd33 a5be fbf2 a23e fb19 ddbf c072 843d
00000080: 6b0d 28bf 94d7 c23e 7b75 99bf 3fc6 48bf
00000090: 56ff e7bd 2eb2 15be b8cb 0ebe dbac 07be
000000a0: 4e8c ccbd 01e4 e0bc 0c9d 91bd 69ba 09be
000000b0: 7c71 5cbd 6842 e3bc f863 35bf 52ac 0dbf
000000c0: 5ac8 fbbe f8c6 2dbf 9de2 f9be f7a2 a7bd
000000d0: 95d1 89be bc65 ca3e fcca e1bf 337d 0ec0
000000e0: 69f0 23c0 0a74 163e f966 22bf 030d 69bf
000000f0: a8ae 043f 63b4 d6bd 3f59 70bf 0bfc a1be
00000100: 2a97 afbd 980d 26be 9ee1 2ebe b8d5 4f3d
00000110: 97bd 1c3d 053e 11be 54bf e13c 0293 633e
00000120: 9aa9 0abe 44ae bebc 4cb4 553c 69e7 c9bd
00000130: 6dad c33d a5fb 0dbd 2ddb d5bd e21b 133c
00000140: 0120 57bd 1e7d 8d3d 0c78 d73a 7584 ffbc
00000150: f922 ad3d 16a6 9fbd 5463 8f3d f6f1 9c3d
00000160: 35df bd3d b3ad 783d 3eb3 a2be 5ae3 2dc0
00000170: 910a a13e 3041 a2bf 9a6a ddbf 36f5 d33e
00000180: b207 abbf c3a0 9dbe 93a4 573f 0868 eebd
00000190: a8d7 e1bc 2d98 34bd e016 cd3c b720 a93d
000001a0: 20ac d9bc 657e 433c 0f38 d7bd 921b bbbc
000001b0: 539a 3b3e 1d6d f03f c3d7 d93f b196 05bd
000001c0: ed09 bdbf 67ef 6bbf 1715 b33e 8bc7 423e
000001d0: c9a8 46c0 08e4 d43f 3751 143f a97b 5bbf
000001e0: 616d 1dc0 acab bbbf 6411 b53f 04f8 5cbe
000001f0: b274 743d bfb3 87bf 59b7 0dbe 8372 8c3b
00000200: 2b9d 04bd 0f1f e2bd f99c 07be ade0 4e3b
00000210: 99a8 cabc 3c5a 82bc cff8 a93d 7df2 92be
00000220: 8216 d2bf 40b4 fbbf 5cd5 c7bd 88db d83f
00000230: f68e 56bf 46e3 dfbf 922e b0bf 0d33 76bf
00000240: 67ae dbbf 61a0 0ac0 a85e cd3f 56e5 acbe
00000250: f149 473e 1676 fe3e f8b6 7d3e 4763 f6bf
00000260: 68e0 85bf cd11 6ebe 6a09 71be af1e 0bbe
00000270: 8578 a4bd fd22 15be 33c5 b2be 927d f5bd
00000280: 944c 89be e78c 89be 9f26 0dbe 1899 63bd
00000290: 05d3 9e3d 6b5d dabd 7a62 b8bd a1c9 2dbd
000002a0: ea6f e1bd 9a58 e9bd 637c 0dbd 86a8 a8bd
000002b0: 0214 b3bd 29f2 c43d 1905 b83c 0e36 6e3c
000002c0: b114 e6bd 24b4 ab3c 3a0b 18bc 2f13 e23b
000002d0: 1390 7e3f 0ed3 b0bf 3919 17bf 79c8 d7be
000002e0: 5669 15c0 4384 87bf 1add 873f a442 ebbe
000002f0: 331f e9bf 001f 153d 9f3c 863d aebf f5bd
00000300: b95b 9dbd ad2a 21be 2ab0 9ebd b977 0abe
00000310: 6933 dc3b f2db 94bd 33bf 20c0 f0f9 2ac0
00000320: 0166 21c0 52c1 95be 0eb6 d6bf fcc3 5ebf
00000330: 3463 b63f b2df d33e 63bc a13e c5f7 d83f
00000340: f573 06c0 48a4 e1be c922 2dc0 efb2 9abf
00000350: 9a96 643f c095 313f e577 59bf 4658 1d40
00000360: be99 13be 25ff 46bc 6e88 433e 0382 9cbd
00000370: b1cb c83d 5135 183d d206 463d d3b8 cfbc
00000380: 368a d73d ce1a 94bf f113 dbbf da21 ec3e
00000390: 286d 7ebf a85b ebbe 018e 1ac0 3556 35bf
000003a0: fe62 1fbf 8db9 c6bf 7e82 9b3d 6e95 1ebe
000003b0: 2aac 5d3e bbfd e8be 09bc f8bf 203e a3bf
000003c0: 9d92 adbf 95d3 19bd e241 edbe b33f 8dbd
000003d0: cf58 c9bd 2e8f 813d 6de9 2e3d 08b6 b2bc
000003e0: 27ad 513e bf55 a53d 114d 293d f732 e53e
000003f0: 595d 6c3d b29f 5c3d 0872 b23b a5f2 b93d

conv4.bias f4 [10]
-0.0430077 0.10782351 -0.12962453 0.05910928 0.10917657 -0.012676744 -0.016762463 -0.08369196
0.008176868 -0.056206837
00000000: d828 30bd 93d2 dc3d 4bbc 04be 931c 723d
00000010: f797 df3d 1eb2 4fbc 6f51 89bc b166 abbd
00000020: 45f8 053c 2439 66bd

norm.weight f4 [10]
0.40802783 0.5310372 0.6247693 0.5393935 0.26560858 0.40720323 0.54424906 0.43564087
0.41368744 0.5941928
00000000: 06e9 d03e 0ef2 073f e1f0 1f3f b115 0a3f
00000010: d9fd 873e f17c d03e e853 0b3f 520c df3e
00000020: d7ce d33e 051d 183f

norm.bias f4 [10]
-0.6764054 -0.8175468 -0.90044343 -0.7022119 -0.4729618 -0.7154579 -0.6857039 -0.721366
-0.468268 -0.818193
00000000: e728 2dbf bf4a 51bf 7683 66bf 29c4 33bf
00000010: 0d28 f2be 4028 37bf 4a8a 2fbf 71ab 38bf
00000020: d3c0 efbe 1975 51bf

norm.running_mean f4 [10]
-2524.857 -7399.6597 -9185.477 -5979.0454 4671.0674 -5988.2104 -6340.0757 -5759.9873
-5935.987 -6050.988
00000000: b6cd 1dc5 473d e7c5 e885 0fc6 5dd8 bac5
00000010: 8af8 9145 af21 bbc5 9b20 c6c5 e6ff b3c5
00000020: e57f b9c5 e717 bdc5

norm.running_var f4 [10]
3.5008036e+07 1.3866913e+07 2.2336886e+07 1.9141176e+07 2.2810592e+07 1.0565323e+07 3.124981e+07 1.427201e+07
1.6138828e+07 1.1797512e+07
00000000: 898b 054c a197 534b bb6a aa4b 1c09 924b
00000010: f007 ae4b cb36 214b c96a ee4b 0ac6 594b
00000020: 4c42 764b 0804 344b

fc1.weight f4 [50, 810]
-1.9141114 1.8795226 1.3615563 0.71605426 -0.05319225 -0.4675633 -0.84979457 0.72430825
0.42721477 -1.3961145 0.09614977 -1.4051391 0.27390388 0.8199879 0.42696467 0.23619175
-1.2870418 -0.7519922 0.28945097 0.48011637 -0.20079553 -5.2965784 -2.7474992 0.35357666
0.07466959 0.09129217 -1.0811598 0.5179609 0.029858045 -0.17649697 -1.0535051 -0.51712155
-0.25565386 -0.7073179 -0.18690993 0.49349147 0.35705185 -0.92874336 -0.6271227 -1.2058263
-0.22743769 0.23664524 -0.61522144 -1.1846217 0.66792184 0.75834364 -0.049799778 -0.3888937
0.20257328 0.947678 1.0988874 -2.1074142 -3.0714588 0.19807087 0.5969497 0.9800683
-0.2842514 0.7524818 1.1706115 1.6504923 -0.49395025 3.0975373 2.4284735 0.02612874
1.010264 1.1811185 0.4027019 -0.54597354 0.27678514 2.7850604 0.9223788 2.2797716
0.33273965 0.12519522 0.47974014 -0.36074015 0.7295353 -0.41703522 2.3172207 1.8934692
0.78026307 1.0610241 -0.6434707 0.3428192 -1.0702325 0.25581926 0.8452635 0.8839173
-1.4077476 0.44360408 0.29564047 0.046910934 0.47153294 0.82750225 2.1436055 -1.7672083
0.1334531 0.016011557 0.8505913 0.2272753 -0.11599468 0.21851969 0.23200077 -0.08382775
-2.3229969 -1.3062936 0.0139747085 0.3305722 -1.7908807 -0.41440594 1.1631817 -0.044498388
-2.3715029 -3.0861735 -0.27148756 -0.82995474 0.8706839 -0.9914272 -1.2422427 -2.8303795
-1.7141185 -1.6081213 -1.009257 0.43900442 -0.59442025 0.28556582 -1.6160595 -0.4542477
-1.886512 -2.0254211 -3.043767 -1.1783915 0.063262954 -0.9047645 -0.26090562 -1.603119
-0.5156215 1.330819 -0.40908834 1.662139 1.4212836 -1.4778897 -0.12834996 -0.8807806
0.19699663 -1.5247134 0.20578842 1.293037 1.1127698 1.0967427 0.03316601 -0.07454996
-1.6683317 -1.260461 1.7311074 0.7834472 -2.2742484 -0.503252 0.18832244 0.35233954
-0.5593242 -1.2556056 0.6097519 0.30194575 1.196356 0.6130703 1.274998 2.196268
0.2835483 -0.45605946 0.3137744 -0.54117715 0.53259856 0.20650598 -0.24496222 -1.3779047
0.3312226 0.7537423 -3.9147992 -2.6419582 -0.44611332 0.28926063 0.1169382 0.5926644
-0.54076415 -0.6875007 -1.1650368 -0.19264635 -0.30170584 -3.156459 -0.23808298 0.9028139
1.3168056 -0.5081942 -0.232839 -0.38595223 0.14318483 -0.5239495 -1.5689678 -0.5979342
-0.9983392 -2.3373961 -5.0695047 -0.2159258 -0.61115766 1.0998746 0.44257382 -1.4264582
0.5180118 -0.5624954 -0.17383103 0.91313297 -0.7025811 0.111246 0.6859838 2.136596
1.4597205 0.40360644 -0.21582179 1.1277137 0.9311331 0.3483005 -2.7202868 -1.7139984
0.52596873 1.4583718 0.04845834 -0.1962646 0.99472195 1.1012329 -0.40333724 -0.8641516
0.9388664 0.018383443 1.3383439 0.18625747 0.44117492 0.94716007 0.04221147 0.32670987
-0.00045665275 -0.5797376 0.45015034 1.3215425 0.6761679 -0.44403845 1.1771046 0.50982153
-1.4206842 -3.061487 -4.455096 -1.8243567 -0.569385 2.486413 0.30960038 -0.57756734
00000000: 9a01 f5bf 3294 f03f 7a47 ae3f 554f 373f
00000010: 1ee0 59bd 7564 efbe 238c 59bf 446c 393f
00000020: e5bb da3e e1b3 b2bf 2cea c43d 99db b3bf
00000030: 213d 8c3e baea 513f 1d9b da3e 40dc 713e
00000040: c9bd a4bf 9082 40bf eb32 943e d0d1 f53e
00000050: 589d 4dbe 927d a9c0 07d7 2fc0 0008 b53e
00000060: 5fec 983d 64f7 ba3d 7263 8abf 1699 043f
00000070: dc98 f43c 9fbb 34be 41d9 86bf 1462 04bf
00000080: 10e5 82be c912 35bf 5165 3fbe eaaa fc3e
00000090: 80cf b63e 20c2 6dbf 1d8b 20bf 8458 9abf
000000a0: 6de5 68be 2153 723e 277f 1dbf afa1 97bf
000000b0: edfc 2a3f cf22 423f dafa 4bbd 131d c7be
000000c0: 5f6f 4f3e 079b 723f 58a8 8c3f e0df 06c0
000000d0: c892 44c0 17d3 4a3e b2d1 183f c2e5 7a3f
000000e0: 6689 91be a6a2 403f 99d6 953f 5543 d33f
000000f0: 0ce7 fcbe 0d3e 4640 1c6c 1b40 f00b d63c
00000100: 5550 813f e42e 973f f22e ce3e ecc4 0bbf
00000110: c8b6 8d3e 6e3e 3240 0421 6c3f c7e7 1140
00000120: da5c aa3e 2d33 003e 80a0 f53e efb2 b8be
00000130: d3c2 3a3f a485 d5be 584d 1440 335d f23f
00000140: 52bf 473f a3cf 873f 7fba 24bf 0086 af3e
00000150: 61fd 88bf befa 823e 3063 583f 6748 623f
00000160: 1331 b4bf 1320 e33e 305e 973e ae25 403d
00000170: c46c f13e 30d7 533f d530 0940 e233 e2bf
00000180: eea7 083e ab2a 833c 5ac0 593f dbba 683e
00000190: 9e8e edbd a0c3 5f3e 9c91 6d3e e2ad abbd
000001a0: fbab 14c0 a134 a7bf 2df6 643c c240 a93e
000001b0: 943b e5bf 042d d4be 23e3 943f f143 36bd
000001c0: b4c6 17c0 de83 45c0 6b00 8bbe ea77 54bf
000001d0: 24e5 5e3f 2cce 7dbf cf01 9fbf f024 35c0
000001e0: 3c68 dbbf ebd6 cdbf 552f 81bf 30c5 e03e
000001f0: ed2b 18bf af35 923e 0adb cebf 2893 e8be
00000200: 3a79 f1bf 80a0 01c0 14cd 42c0 88d5 96bf
00000210: 0290 813d a59e 67bf 6c95 85be 0133 cdbf
00000220: c5ff 03bf 4758 aa3f 0774 d1be f9c0 d43f
00000230: 9fec b53f 7d2b bdbf 2c6e 03be d67a 61bf
00000240: 7cb9 493e cf29 c3bf 33ba 523e 3d82 a53f
00000250: 3e6f 8e3f 1162 8c3f 15d9 073d a6ad 98bd
00000260: e58b d5bf c956 a1bf ed94 dd3f ff8f 483f
00000270: 498d 11c0 20d5 00bf 99d7 403e d965 b43e
00000280: df2f 0fbf afb7 a0bf b318 1c3f a298 9a3e
00000290: 3222 993f 2df2 1c3f 2233 a33f a88f 0c40
000002a0: 3e2d 913e a080 e9be 0aa7 a03e 968a 0abf
000002b0: 6158 083f 4e76 533e 60d7 7abe 2e5f b0bf
000002c0: 0296 a93e 41f5 403f 128c 7ac0 d815 29c0
000002d0: f768 e4be f819 943e 4c7d ef3d dbb8 173f
000002e0: 856f 0abf 0c00 30bf ed1f 95bf 1645 45be
000002f0: 3079 9abe 6d03 4ac0 06cc 73be d01e 673f
00000300: 168d a83f 0419 02bf 596d 6ebe 889b c5be
00000310: 0b9f 123e 8e21 06bf f0d3 c8bf 3712 19bf
00000320: 2893 7fbf e697 15c0 6239 a2c0 a71b 5dbe
00000330: d474 1cbf b1c8 8c3f 0999 e23e 2f96 b6bf
00000340: 6c9c 043f b3ff 0fbf c300 32be 15c3 693f
00000350: 5bdc 33bf f1d4 e33d a29c 2f3f fdbd 0840
00000360: 1fd8 ba3f 81a5 ce3e 6300 5dbe ec58 903f
00000370: bd5e 6e3f 7154 b23e 2e19 2ec0 4d64 dbbf
00000380: e3a5 063f edab ba3f 417c 463d 96f9 48be
00000390: 19a6 7e3f 33f5 8c3f 3882 cebe 0a39 5dbf
000003a0: 8c59 703f e098 963c da4e ab3f 47ba 3e3e
000003b0: aee1 e13e 1579 723f efe5 2c3d 8446 a73e
000003c0: e56a efb9 af69 14bf 1b7a e63e 4e28 a93f
000003d0: 5719 2d3f 0259 e3be 5dab 963f aa83 023f
000003e0: fbd8 b5bf 67ef 43c0 2590 8ec0 8584 e9bf
000003f0: 37c3 11bf 6421 1f40 f183 9e3e 74db 13bf

fc1.bias f4 [50]
0.36893278 -0.35674387 -0.30279863 -0.801409 1.0681772 -0.24242324 -0.15166976 -0.37468177
-0.5634854 0.8313921 0.46350843 0.9195367 0.56917125 0.10335212 0.09702553 -0.72651327
0.51558644 -0.62312615 0.34602007 -0.047999747 0.3405044 0.43310544 -0.35278308 0.13206698
-0.188107 -0.26549953 -0.25365242 0.59169924 0.14563383 -0.5741829 0.46081698 0.88169664
0.3956845 0.32789576 0.61339116 -0.6501568 0.7565653 0.37413508 -0.6919995 -0.35492224
0.6986837 -0.2832942 -0.29731116 -0.14144546 0.8621047 0.48691046 0.34432104 0.11171119
0.7685332 0.4034365
00000000: c2e4 bc3e 22a7 b6be 6c08 9bbe 2429 4dbf
00000010: 08ba 883f cc3d 78be 514f 1bbe 4ad6 bfbe
00000020: 9440 10bf 1dd6 543f fa50 ed3e c266 6b3f
00000030: 35b5 113f 47aa d33d 52b5 c63d c6fc 39bf
00000040: 79fd 033f 3285 1fbf 8b29 b13e 629b 44bd
00000050: 9856 ae3e ffbf dd3e fc9f b4be 913c 073e
00000060: 1f9f 40be 8eef 87be bbde 81be 9a79 173f
00000070: 0921 153e a7fd 12bf 34f0 eb3e dfb6 613f
00000080: 2997 ca3e f4e1 a73e 3407 1d3f ad70 26bf
00000090: 43ae 413f a28e bf3e e126 31bf 5eb8 b5be
000000a0: efdc 323f f00b 91be 2b39 98be 14d7 10be
000000b0: e5b2 5c3f 544c f93e d94a b03e d6c8 e43d
000000c0: 97be 443f 3b8f ce3e

fc2.weight f4 [7, 50]
-0.4941522 -0.1458954 -1.1912055 0.3538648 0.07359903 -0.047038496 -0.17745759 -0.40577403
-0.15695082 0.12252449 0.103774205 0.21520226 -0.2573654 0.23849127 -0.31659424 -0.097554095
0.13715336 -0.37631533 0.010926438 -0.23894958 0.25543097 -0.23414615 -0.1347786 -0.2706223
-0.098074265 -0.5242496 -0.120383345 -0.024820302 0.83894765 -0.0404611 -0.13916476 -0.21132587
-1.1386889 -0.3588229 -0.17717515 -0.4300463 0.6205296 -0.14933102 -0.5804285 -0.1533075
-0.09159258 -0.06973598 -0.33612055 -0.04685268 -0.6510954 -0.17513214 0.057090312 -0.25589502
-0.155974 -0.42428982 -0.3409541 -0.26634938 -1.5141509 -0.53466225 0.5105367 -0.09521637
0.099150784 -0.21957691 -0.26714972 -0.55432606 -0.45158958 -0.90690833 -0.6308974 -0.07981371
-0.5585608 -0.6893176 -0.6100328 -0.30654567 -0.5581573 -0.5184877 0.12920423 0.029643964
0.05464067 0.6525144 -0.027709035 -0.20022914 -0.061102424 0.1569658 -1.0895653 -0.07290874
-0.29944777 -0.70675546 -1.5820234 -0.29762572 -0.9208075 -0.5706517 -0.8114046 -0.32850677
-1.0703175 -0.35226828 0.868559 -0.17166464 -0.51271164 0.07096862 1.3046509 -0.47818062
0.14395386 0.37867513 -0.23250915 -0.26455992 0.43156508 -0.3587072 1.043243 -0.2323864
-0.11023465 0.054524068 -0.021202562 -0.33699748 0.05998624 -0.06574568 0.10035015 -0.2726839
-0.29128182 -0.13119048 -0.49954912 -0.53564286 -0.2726801 -0.2696944 0.074281305 -0.34913245
0.28316975 -0.42904264 -0.047567002 -0.29203603 -0.10560365 -0.51634806 -0.20046994 -0.37392533
-0.52694726 0.04617636 -0.16603339 -0.25244167 -1.0837814 -0.07895504 0.45461187 -0.17336528
-0.2866021 0.32938176 -0.6340014 0.5119855 -0.32594016 -0.035398427 -0.2607288 0.051486414
-0.3233134 -0.07193123 -0.35094002 -0.4906467 0.43749666 -0.5019237 -0.38519618 -0.19677743
-1.1223129 -0.28713328 0.1068237 -0.025990127 -0.12465118 0.26885468 -0.02305853 -0.048934788
-0.53083104 -0.42094943 0.08917412 0.058715146 -0.1013129 -0.037544254 -0.39124277 0.0779178
0.20444615 -0.21639526 -0.11141213 -0.3014495 0.11884757 -0.18400715 -0.016975261 -0.46159658
0.10817828 0.38037968 -0.5082325 -0.026133979 0.16917014 -0.5843739 -1.3838456 -0.047800582
-0.32589066 -0.08979557 -0.343806 0.18652792 -0.49184918 -0.17769656 -0.086295255 0.094863646
-0.17729335 -0.030452898 0.4533617 -0.17705679 -0.65854025 -0.15193859 0.03304158 0.33368695
-0.19617572 0.24151419 -0.6323746 -0.38018656 0.09158505 0.17362477 -0.05169047 -0.4373472
0.07194274 0.2352612 -0.11850231 0.3703148 -0.29775682 -0.08368469 -0.43460143 -0.14961872
-0.19072308 -0.4043169 -0.0048760236 0.08546528 -0.24186829 -0.06276557 -0.07086263 0.43858412
-0.021385968 -0.12184218 -0.10057658 -0.23961394 -0.6467825 -0.15507495 0.3960592 -0.30128458
-0.23564063 0.4937005 0.12752435 -0.27776736 -0.40524286 0.03554834 -0.8191668 -0.2348588
-0.41684473 -0.0738502 -0.021091582 0.001884703 -0.72784346 -0.07149796 -0.6703871 0.29561284
-0.4474875 -0.100671224 -0.208565 -0.26485425 -1.0198625 -0.43650478 -0.22541776 -0.16514108
00000000: 8401 fdbe 9b65 15be 6c79 98bf c42d b53e
00000010: 17bb 963d 70ab 40bd 71b7 35be 9dc1 cfbe
00000020: b7b7 20be 1fee fa3d 9287 d43d fb5d 5c3e
00000030: 66c5 83be 0e37 743e a418 a2be 71ca c7bd
00000040: ee71 0c3e 67ac c0be cd04 333c 33af 74be
00000050: d9c7 823e 02c4 6fbe 6703 0abe 028f 8abe
00000060: 29db c8bd 3935 06bf 8b8b f6bd f253 cbbc
00000070: 46c5 563f 8aba 25bd 3581 0ebe cf65 58be
00000080: 8fc0 91bf a3b7 b7be 676d 35be 072f dcbe
00000090: 07db 1e3f 3bea 18be f696 14bf a4fc 1cbe
000000a0: e494 bbbd bdd1 8ebd fe17 acbe 99e8 3fbd
000000b0: 30ae 26bf d755 33be 88d7 693d ac04 83be
000000c0: a6b7 1fbe 843c d9be 8991 aebe f25e 88be
000000d0: b2cf c1bf a0df 08bf 88b2 023f cd00 c3bd
000000e0: 910f cb3d c5d8 60be d9c7 88be 50e8 0dbf
000000f0: c036 e7be 252b 68bf 7e82 21bf 5f75 a3bd
00000100: d7fd 0ebf 1e77 30bf 1c2b 1cbf 8ef3 9cbe
00000110: 66e3 0ebf 9cbb 04bf 1d4e 043e e6d7 f23c
00000120: e5ce 5f3d 2f0b 273f 0ffe e2bc de08 4dbe
00000130: 8946 7abd a5bb 203e e076 8bbf 2d51 95bd
00000140: 3851 99be eded 34bf be7f cabf 6662 98be
00000150: 0aba 6bbf 3b16 12bf 36b8 4fbf 0a32 a8be
00000160: 2a00 89bf 825c b4be e259 5e3f dbc8 2fbe
00000170: 1241 03bf ff57 913d cdfe a63f 17d4 f4be
00000180: a468 133e b5e1 c13e e116 6ebe 6674 87be
00000190: 19f6 dc3e 78a8 b7be fd88 853f b3f6 6dbe
000001a0: b4c2 e1bd a154 5f3d ffb0 adbc ef8a acbe
000001b0: 22b4 753d aca5 86bd 6184 cd3d 399d 8bbe
000001c0: e422 95be cc56 06be e7c4 ffbe e41f 09bf
000001d0: ba9c 8bbe 6215 8abe cc20 983d 7dc1 b2be
000001e0: a0fb 903e 7aab dbbe 9ed5 42bd bf85 95be
000001f0: ba46 d8bd 632f 04bf fe47 4dbe 2473 bfbe
00000200: 04e6 06bf 6c23 3d3d a804 2abe 0940 81be
00000210: 59b9 8abf 2eb3 a1bd e3c2 e83e ab86 31be
00000220: 83bd 92be baa4 a83e ea4d 22bf 7b11 033f
00000230: a1e1 a6be f1fd 10bd 3f7e 85be 6be3 523d
00000240: 5589 a5be ae50 93bd 69ae b3be 0b36 fbbe
00000250: 90ff df3e 127e 00bf 6f38 c5be 0680 49be
00000260: f3a7 8fbf 2203 93be 62c6 da3d 3fe9 d4bc
00000270: 1e49 ffbd 52a7 893e 3ee5 bcbc d86f 48bd
00000280: 8be4 07bf af86 d7be eca0 b63d 4b7f 703d
00000290: 237d cfbd 01c8 19bd f950 c8be 5e93 9f3d
000002a0: 555a 513e b896 5dbe 0b2c e4bd 9757 9abe
000002b0: 5b66 f33d 5f6c 3cbe b40f 8bbc 6356 ecbe
000002c0: 938c dd3d 20c1 c23e 861b 02bf ed16 d6bc
000002d0: f03a 2d3e 8799 15bf da21 b1bf 8bca 43bd
000002e0: 24db a6be bde6 b7bd 5707 b0be 2d01 3f3e
000002f0: a8d3 fbbe 16f6 35be 91bb b0bd df47 c23d
00000300: 638c 35be 5b78 f9bc 061f e83e 604e 35be
00000310: 1896 28bf ca95 1bbe 9c56 073d 04d9 aa3e
00000320: 4ae2 48be 7f4f 773e 4de3 21bf d0a7 c2be
00000330: f190 bb3d b1ca 313e 63b9 53bd f9eb dfbe
00000340: b756 933d 50e8 703e 57b1 f2bd e799 bd3e
00000350: 9573 98be e162 abbd 1484 debe a635 19be
00000360: e94c 43be a002 cfbe 0dc7 9fbb 6c08 af3d
00000370: 52ac 77be 3c8b 80bd 6d20 91bd 198e e03e
00000380: a031 afbc 6588 f9bd 18fb cdbd 5b5d 75be
00000390: 8a93 25bf f8cb 1ebe 45c8 ca3e f941 9abe
000003a0: c74b 71be 50c6 fc3e be95 023e 8637 8ebe
000003b0: fe7b cfbe 239b 113d eab4 51bf d37e 70be
000003c0: ac6c d5be c63e 97bd 41c8 acbc 2308 f73a
000003d0: f353 3abf 866d 92bd 7d9e 2bbf 915a 973e
000003e0: 151d e5be b72c cebd 1092 55be fa9a 87be
000003f0: db8a 82bf 8e7d dfbe ead3 66be be1a 29be

fc2.bias f4 [7]
-0.133479 -1.2540448 0.3745138 0.47030723 0.03419655 -0.13771029 0.13901488
00000000: b8ae 08be 8a84 a0bf 46c0 bf3e 1ccc f03e
00000010: ae11 0c3d ed03 0dbe eb59 0e3e

localization.0.weight f4 [8, 1, 7, 7]
0.066480555 -0.12674363 -0.1320062 0.10545968 -0.11864368 0.033946995 0.07550649 0.004832969
0.02982297 0.14229517 0.047958694 -0.11344415 -0.042622466 0.10209809 -0.069540195 -0.06474967
-0.11993765 -0.1333357 0.0055195508 0.06092883 -0.06149852 0.1052835 -0.08842959 0.043474846
-0.11712196 0.06372458 -0.059920248 0.016217053 0.06835432 0.065846875 0.11233313 -0.12771872
-0.08729031 -0.101588994 -0.025207877 0.10306395 0.09263792 0.07613012 0.06668034 -0.17021352
-0.16295002 -0.04681141 0.06816879 0.016162798 0.08911066 0.030615292 -0.059721604 -0.1253561
0.07499418 -0.074912675 0.032562014 0.030572288 0.011047088 0.060598135 -0.012413493 0.084094234
-0.016247055 0.0824194 -0.048040695 0.052221883 -0.08558085 0.029362211 -0.018533682 -0.13976358
0.06530219 -0.1165771 0.08266796 -0.17410542 -0.07967054 0.08152256 0.021233514 -0.13461687
0.015073242 -0.06493791 -0.14548884 -0.054413896 -0.12346039 -0.14619201 -0.038081877 -0.08757701
-0.15741512 -0.03069791 -0.009802007 -0.15473312 -0.1479673 0.09152866 0.064818874 0.051061213
0.04869076 0.09851377 -0.050920904 0.005948691 -0.035197344 0.064090356 0.07841836 0.10003087
0.047209825 0.076698825 -0.061258607 0.012570526 -0.08927156 -0.004770449 0.096854195 -0.06379442
-0.027977223 0.123385906 0.105619915 -0.015856313 -0.070640646 -0.118957944 -0.029967228 0.114471965
-0.06926656 -0.06140127 0.15409952 0.06781272 -0.07323215 -0.0040726345 -0.09345287 0.1497554
0.0397624 0.14426652 0.11583271 -0.002988075 -0.01801421 -0.08196398 0.123633124 0.10535381
0.11328538 -0.109329395 0.14076956 0.076173805 0.097943135 -0.13237475 -0.0165356 0.063787505
-0.05937554 0.08757227 -0.11885859 -0.04699824 -0.10700604 -0.0796792 0.10032328 -0.086363986
-0.031549774 0.07651512 -0.040151868 0.09109916 -0.033047386 -0.08965764 0.035825804 -0.06450394
-0.04213793 0.04843156 0.011418276 0.04259009 0.06535404 -0.038281698 -0.04414272 -0.07227681
0.07650397 -0.0037735975 -0.08011518 -0.07934131 0.06155875 -0.044874147 -0.14421219 -0.006008965
0.037686754 0.14296351 -0.06949356 -0.08690985 -0.13883705 -0.088580295 0.007005179 -0.03387642
0.010024905 -0.017172124 -0.1400262 0.11756893 0.10324525 0.078575864 -0.02049111 -0.054611508
0.11347879 0.12159901 -0.028971713 0.01705618 0.08715409 0.09280946 0.13192882 0.009297626
0.07082585 0.032620244 -0.05139847 0.05416938 0.0026952717 -0.10158106 0.086656585 0.121629626
-0.06605965 0.042705767 0.13664931 0.0328394 -0.11927248 0.038858462 0.029517641 -0.074880034
0.039555456 -0.05795277 0.1537569 -0.10579642 0.08906162 0.08819374 0.050790463 -0.009884332
-0.07819284 -0.1417894 0.08571835 0.023621898 -0.03902666 0.14237323 0.09838892 0.11487062
-0.1023711 0.12518647 -0.13442488 0.063581884 -0.030658824 0.009668894 -0.015894506 0.13158521
0.15369512 0.0876005 -0.04300321 0.012136241 0.05934496 0.13324085 0.08350649 -0.010878978
0.029616741 -0.058542114 -0.091636635 -0.033865657 -0.040011086 -0.04504335 -0.02330863 0.10764216
-0.028455881 0.010468524 0.13923456 -0.103650644 -0.1108905 -0.05870239 -0.090973385 -0.107557535
00000000: f526 883d 15c9 01be a22c 07be 3ffb d73d
00000010: 75fb f2bd 010c 0b3d 26a3 9a3d e25d 9e3b
00000020: 4d4f f43c d3b5 113e 5670 443d 6855 e8bd
00000030: e594 2ebd ce18 d13d 176b 8ebd 7a9b 84bd
00000040: dfa1 f5bd 2789 08be 59dd b43b 8290 793d
00000050: dfe5 7bbd e09e d73d 931a b5bd ae12 323d
00000060: a3dd efbd 0882 823d ef6e 75bd a0d9 843c
00000070: 5afd 8b3d bada 863d e90e e63d b2c8 02be
00000080: 43c5 b2bd e40d d0bd c080 cebc 3113 d33d
00000090: f3b8 bd3d 1cea 9b3d b48f 883d 744c 2ebe
000000a0: 5fdc 26be 52bd 3fbd 149c 8b3d d867 843c
000000b0: a67f b63d eccc fa3c a49e 74bd 595d 00be
000000c0: 8c96 993d d16b 99bd bf5f 053d bc72 fa3c
000000d0: d8fe 343c c035 783d f761 4bbc 9939 ac3d
000000e0: 8b18 85bc 81cb a83d 52c6 44bd 9de6 553d
000000f0: 0345 afbd 0589 f03c f3d3 97bc 2f1e 0fbe
00000100: 28bd 853d f9bf eebd d24d a93d b148 32be
00000110: 4f2a a3bd 4df5 a63d e8f1 ad3c 01d9 09be
00000120: c2f5 763c 2bfe 84bd 07fb 14be 1be1 5ebd
00000130: cdd8 fcbd 5cb3 15be befb 1bbd 935b b3bd
00000140: 6e31 21be 2f7a fbbc 9998 20bc 5c72 1ebe
00000150: bd84 17be 6173 bb3d c2bf 843d 9025 513d
00000160: f66f 473d 96c1 c93d 7092 50bd 3ded c23b
00000170: 172b 10bd ce41 833d ce99 a03d fcdc cc3d
00000180: 175f 413d 4614 9d3d 4eea 7abd 9cf4 4d3c
00000190: 02d4 b6bd 6d51 9cbb 7e5b c63d a6a6 82bd
000001a0: 7d30 e5bc c0b1 fc3d 414f d83d 19e5 81bc
000001b0: 0bac 90bd 39a0 f3bd d57d f5bc 4770 ea3d
000001c0: a0db 8dbd e67f 7bbd 44cc 1d3e 65e1 8a3d
000001d0: bdfa 95bd bc73 85bb 3864 bfbd 7b59 193e
000001e0: e6dd 223d 9aba 133e b339 ed3d 94d3 43bb
000001f0: 8992 93bc bbdc a7bd 5d33 fd3d bdc3 d73d
00000200: 2a02 e83d 17e8 dfbd e525 103e 0301 9c3d
00000210: 6996 c83d 3f8d 07be ab75 87bc 06a3 823d
00000220: c433 73bd 1759 b33d 226c f3bd 3a81 40bd
00000230: fc25 dbbd d92e a3bd 4b76 cd3d 9adf b0bd
00000240: 563a 01bd f6b3 9c3d 4976 24bd 3292 ba3d
00000250: b25c 07bd 6d9e b7bd 14be 123d a41a 84bd
00000260: d298 2cbd 2c60 463d b813 3b3c f272 2e3d
00000270: 57d8 853d 45cd 1cbd ffce 34bd dd05 94bd
00000280: 1dae 9c3d 764e 77bb 6d13 a4bd b27d a2bd
00000290: 0725 7c3d f4cd 37bd 5cac 13be dae6 c4bb
000002a0: 6d5d 1a3d 0765 123e a452 8ebd cbfd b1bd
000002b0: 4d2b 0ebe 9669 b5bd b38b e53b 00c2 0abd
000002c0: 803f 243c 8eac 8cbc 0763 0fbe fbc7 f03d
000002d0: 3f72 d33d 62ec a03d f9dc a7bc 51b0 5fbd
000002e0: 9167 e83d e708 f93d 1656 edbc 67b9 8b3c
000002f0: d87d b23d e312 be3d 5918 073e 1255 183c
00000300: 250d 913d ce9c 053d 3487 52bd b6e0 5d3d
00000310: 28a3 303b bb09 d0bd 0279 b13d f418 f93d
00000320: 484a 87bd 3eec 2e3d cced 0b3e 9b82 063d
00000330: 2145 f4bd 0d2a 1f3d fbce f13c b45a 99bd
00000340: e704 223d e25f 6dbd 7372 1d3e cbab d8bd
00000350: f065 b63d eb9e b43d a909 503d e5f1 21bc
00000360: 9123 a0bd 3e31 11be 1a8d af3d b682 c13c
00000370: 6bda 1fbd 4aca 113e 2180 c93d 4a41 eb3d
00000380: f0a7 d1bd e230 003e ada6 09be 3837 823d
00000390: 3728 fbbc 486a 1e3c 3235 82bc 46be 063e
000003a0: 4162 1d3e e467 b33d 2224 30bd 16d7 463c
000003b0: b313 733d 4a70 083e 7305 ab3d be3d 32bc
000003c0: cf9e f23c dbc9 6fbd fdab bbbd b7b6 0abd
000003d0: aae2 23bd 607f 38bd bdf1 bebc 7e73 dc3d
000003e0: 4f1c e9bc 2c84 2b3c 8193 0e3e ca46 d4bd
000003f0: 8f1a e3bd eb71 70bd 4150 babd 2047 dcbd

localization.0.bias f4 [8]
0.029864922 -0.03790713 0.09273538 -0.10096498 0.01844508 -0.121766426 0.012608617 -0.035337757
00000000: 48a7 f43c 8244 1bbd 0cec bd3d bac6 cebd
00000010: 231a 973c ad60 f9bd 5f94 4e3c 53be 10bd

localization.3.weight f4 [10, 8, 5, 5]
-0.018170124 -0.06326526 -0.037534624 -0.0951389 0.011616473 -0.05439779 -0.06347067 -0.0787771
0.0048573557 -0.055794932 -0.07583198 -0.018908601 -0.003162973 -0.09188135 -0.0028665368 0.018323937
-0.037962686 0.006126099 -0.07602264 -0.00015927205 0.025190048 -0.03703218 -0.029600797 -0.019729527
-0.007187928 0.046504907 -0.0158354 -0.07364826 0.037242737 -0.024176555 0.03976199 -0.051895007
0.03836801 0.006379571 -0.02584835 -0.08786267 -0.011976784 -0.0126968855 0.0027361612 -0.038218956
0.011598535 -0.0981522 0.01346092 -0.015525298 -0.06751378 -0.031061197 -0.00083157787 0.017235965
0.029066907 -0.06692283 0.0040778155 -0.04842887 0.0153359305 -0.08476838 0.04422815 -0.05630236
0.0038708549 0.030325316 -0.024477372 0.000313854 0.014950051 0.004956037 -0.0018281987 -0.071431145
-0.06391565 0.03853341 -0.082878985 -0.07002115 -0.052313462 -0.043499637 0.005971954 0.03163635
-0.0848851 -0.04666702 -0.07146303 -0.09104419 -0.07137672 -0.035559654 -0.09812638 -0.10695108
-0.0034434947 0.033054467 0.028668107 -0.0070857354 -0.04308276 -0.073621936 -5.8176873e-05 -0.0039679883
-0.039414946 -0.0074929153 -0.097497925 -0.019013384 -0.06867311 -0.048851524 0.018594692 0.014012549
0.010122862 0.007895291 -0.09903418 -0.0010144035 0.018419502 0.038991068 -0.035309203 -0.030632602
-0.08944891 -0.06382472 0.014923462 0.0045733773 0.009592258 -0.036304176 -0.06272784 0.03547825
-0.050765406 -0.0696742 -0.006870153 -0.03705666 -0.038851544 -0.06911095 -0.04560161 -0.0037152085
-0.07866502 0.006410362 -0.053605076 -0.043729074 0.0055739717 -0.070486315 0.015566645 -0.09149751
-0.022638468 0.0060277954 -0.07073119 -0.00585521 0.0033912354 -0.056550525 -0.03334075 -0.069808856
-0.027463242 -0.05535175 -0.044658285 -0.08220956 -0.06492929 -0.04095479 -0.035310887 -0.009628304
-0.0056487015 0.004524232 -0.025847398 -0.0012506444 -0.034168947 0.024772333 -0.068613276 -0.02248599
-0.023569716 -0.04496745 -0.070524074 -0.07336473 -0.04793598 -0.08492831 -0.0296868 0.00052697427
-0.009729376 -0.021571703 -0.041524094 -0.016369406 -0.07920392 0.010127357 0.010121762 0.024220794
-0.065641835 0.018391341 -0.0559478 -0.1051623 -0.080112495 -0.033877894 0.009178458 -0.016496755
-0.048840743 -0.031587213 -0.04857939 -0.038958915 -0.09742456 -0.06241823 -0.06647871 -0.07541962
-0.08375521 -0.050222386 0.012519421 -0.07476878 -0.04323635 -0.016168574 -0.02695265 0.012036702
-0.033860542 -0.049371436 -0.04961102 -0.06159676 -0.020412084 -0.043581244 -0.039030194 -0.061831098
-0.09827242 0.024667757 -0.005473575 0.052066825 -0.018403765 -0.011558727 -0.08353214 0.016092142
0.037386402 0.021432668 -0.003980164 0.00034314892 -0.06972876 -0.056056906 -0.0398538 -0.021648481
-0.06239429 -0.061084583 -0.023084959 -0.027850987 -0.050861217 -0.028576462 -0.029339895 -0.041900326
-0.015191343 -0.033789165 0.0027822233 0.024825696 0.028972186 -0.04637957 0.053552628 0.014526589
-0.044130918 -0.03876456 0.020392954 0.035728965 -0.05645364 0.02855138 -0.05966476 -0.020712422
-0.050267406 -0.018760521 0.03370022 -0.06561348 -0.034724303 0.039006714 0.0589412 -0.042740606
-0.08710701 0.009787987 -0.052841835 1.8875524e-05 0.061520636 0.019774241 0.023036825 -0.039662383
00000000: 83d9 94bc 3791 81bd e8bd 19bd 2fd8 c2bd
00000010: 0553 3e3c 38d0 5ebd e9fc 81bd e355 a1bd
00000020: 742a 9f3b 3a89 64bd cc4d 9bbd 36e6 9abc
00000030: e249 4fbb 4a2c bcbd 82dc 3bbb 151c 963c
00000040: c37e 1bbd 71bd c83b c2b1 9bbd 4402 27b9
00000050: 5c5b ce3c 0eaf 17bd 5f7d f2bc d19f a1bc
00000060: b688 ebbb ee7b 3e3d 3eb9 81bc e6d4 96bd
00000070: d78b 183d e90d c6bc 78dd 223d dc8f 54bd
00000080: c627 1d3d b80b d13b ebbf d3bc 58f1 b3bd
00000090: 463a 44bc 9906 50bc 2b51 333b 7b8b 1cbd
000000a0: c807 3e3c 0504 c9bd 318b 5c3c d25d 7ebc
000000b0: aa44 8abd 0d74 febc 3ffe 59ba 7032 8d3c
000000c0: b91d ee3c d60e 89bd 329f 853b 5a5d 46bd
000000d0: 8e43 7b3c 0b9b adbd 9428 353d 4e9d 66bd
000000e0: 2bae 7d3b cc6c f83c c584 c8bc c58c a439
000000f0: 0ff1 743c 4066 a23b 2ba0 efba 7e4a 92bd
00000100: 35e6 82bd 35d5 1d3d 75bc a9bd 4067 8fbd
00000110: a446 56bd ad2c 32bd 62b0 c33b 1e95 013d
00000120: 3dd8 adbd eb25 3fbd 365b 92bd 6075 babd
00000130: f52d 92bd 00a7 11bd 7cf6 c8bd 2b09 dbbd
00000140: 41ac 61bb 1f64 073d 61d9 ea3c 752f e8bb
00000150: 8c77 30bd 19c7 96bd f102 74b8 e605 82bb
00000160: 9171 21bd 2187 f5bb feac c7bd f5c1 9bbc
00000170: 7da4 8cbd 8918 48bd e553 983c e494 653c
00000180: 5cda 253c 405b 013c 6fd2 cabd bcf5 84ba
00000190: 7fe4 963c 19b5 1f3d 62a0 10bd 39f1 fabc
000001a0: fd30 b7bd 89b6 82bd 8981 743c 45dc 953b
000001b0: d928 1d3c b0b3 14bd 7477 80bd a451 113d
000001c0: 63ef 4fbd 59b1 8ebd 051f e1bb b9c8 17bd
000001d0: cc22 1fbd 0b8a 8dbd c1c8 3abd db7a 73bb
000001e0: 201b a1bd 040e d23b ff90 5bbd 421d 33bd
000001f0: dda5 b63b 215b 90bd 3e0b 7f3c 0c63 bbbd
00000200: 4f74 b9bc d084 c53b 84db 90bd 10dd bfbb
00000210: 7d3f 5e3b 86a1 67bd 4f90 08bd f2f7 8ebd
00000220: 98fa e0bc 84b8 62bd 9beb 36bd 7c5d a8bd
00000230: a6f9 84bd 36c0 27bd 26a2 10bd 09c0 1dbc
00000240: be18 b9bb 0240 943b ecbd d3bc aaec a3ba
00000250: bdf4 0bbd 59ef ca3c 1e85 8cbd 8a34 b8bc
00000260: 4715 c1bc ca2f 38bd ed6e 90bd 3f40 96bd
00000270: 8558 44bd e5ee adbd bb31 f3bc a524 0a3a
00000280: f667 1fbc 24b7 b0bc 2b15 2abd 2219 86bc
00000290: aa35 a2bd 37ed 253c bfd5 253c b06a c63c
000002a0: 3a6f 86bd 70a9 963c 8529 65bd 555f d7bd
000002b0: 0512 a4bd 8cc3 0abd 3e61 163c 3424 87bc
000002c0: 3b0d 48bd 9861 01bd 2ffb 46bd 6293 1fbd
000002d0: 8786 c7bd 42aa 7fbd fd25 88bd 9a75 9abd
000002e0: da87 abbd fdb5 4dbd 421e 4d3c 6020 99bd
000002f0: 9918 31bd f573 84bc cecb dcbc 9635 453c
00000300: 5ab1 0abd b439 4abd ed34 4bbd e24c 7cbd
00000310: 3e37 a7bc 3f82 32bd 20de 1fbd 9b42 7dbd
00000320: 0d43 c9bd 0914 ca3c ad5b b3bb 0644 553d
00000330: 7ec3 96bc d160 3dbc e612 abbd abd3 833c
00000340: 7c22 193d 9093 af3c 096c 82bb abe8 b339
00000350: f4cd 8ebd ed9b 65bd bd3d 23bd 2858 b1bc
00000360: 2891 7fbd d433 7abd ab1c bdbc c127 e4bc
00000370: da53 50bd 2f19 eabc 385a f0bc ad9f 2bbd
00000380: 1ce5 78bc 8266 0abd f655 363b 425f cb3c
00000390: 1457 ed3c 81f8 3dbd 005a 5b3d ee00 6e3c
000003a0: 9fc2 34bd 96c7 1ebd 200f a73c 8958 123d
000003b0: ef3b 67bd 95e4 e93c 0963 74bd 19ad a9bc
000003c0: 32e5 4dbd aaaf 99bc 3e09 0a3d 5c60 86bd
000003d0: 123b 0ebd 81c5 1f3d 546c 713d c610 2fbd
000003e0: 2965 b2bd cb5d 203c ae70 58bd e156 9e37
000003f0: 10fd 7b3d 97fd a13c b9b7 bc3c 0675 22bd

localization.3.bias f4 [10]
-0.08655118 -0.07875079 -0.112712674 -0.04874916 -0.038013913 -0.066494435 -0.008587376 -0.009728555
-0.048555125 -0.074602894
00000000: bf41 b1bd 1848 a1bd e7d5 e6bd 33ad 47bd
00000010: 7ab4 1bbd 3c2e 88bd 11b2 0cbc 8464 1fbc
00000020: bde1 46bd 67c9 98bd
