deep_emotion-2500-128-0.005.pt (torch, 274842 bytes, 24 tensors)

conv1.weight f4 [10, 1, 3, 3]
00000000: 702c abbf 5226 0f3d 48d5 9940 ed6c 30c0
00000010: 6583 2440 5d11 bc40 8378 fb3f 9e5d 3840
00000020: f046 6a3f 2716 9e3f 3e4e 8540 4ac6 0140
00000030: 576b 70c0 18d7 ff3f ede7 7440 4478 bec0
00000040: 61d7 d7bf da55 1740 1271 d23e 8af1 25c0
00000050: dc1e aebe 0f25 19c0 843c 85bf 772c 1fc0
00000060: 9f32 143f efd7 b43f 5e37 70c0 04a5 5540
00000070: 6297 5b40 a156 b53e ab14 1140 699f 1040
00000080: 3cf5 4cbf e312 2840 3aa9 1840 32ea 953f
00000090: 0852 38c0 ea72 a3be 3dae 8940 f3f0 e5c0
000000a0: 2444 033f b34f 1a3f 3025 1ec0 2f19 2d3e
000000b0: bb03 57c0 2b6a 7d40 5c29 b43f 789d dac0
000000c0: 81ec fbbf 15bb 5440 88f7 d63f f2f5 8840
000000d0: d363 b4bf d37a 8e40 193e 04c0 4173 4ec0
000000e0: c557 dbbf 339b ccbe 504d 46c0 d3f4 673f
000000f0: 2c2e 3ebf 4cce 1ec0 1af5 d03f 5abb c0c0
00000100: 0e7f 7ac0 a110 a240 1d1f f4bf 9cdc 27c0
00000110: f1fe 89be f718 ed40 e210 b13f e609 1b40
00000120: a139 1cc0 4b37 4bc0 3ca6 c9c0 88e7 eabe
00000130: da14 2c40 f6af 933f faf2 14c0 0a00 9ac0
00000140: 612a f440 5ce2 4640 f398 1840 2b2d 0441
00000150: 4b30 953f 60e6 c3c0 c3fb 82be bc5e 5ac0
00000160: 7955 9dc0 e3a3 ed3f
-1.3372936 0.034948654 4.8072853 -2.7566483 2.5705197 5.8771195 1.9646152 2.880714
0.9151449 1.235051 4.165801 2.0277276 -3.7565515 1.9987516 3.8266556 -5.952181
-1.6862603 2.364615 0.4110189 -2.5928674 -0.3400792 -2.3928869 -1.0409093 -2.487089
0.5788974 1.4128398 -3.7533793 3.3381968 3.4311147 0.35417655 2.2668865 2.2597296
-0.800617 2.6261528 2.3853288 1.1712096 -2.8800068 -0.3192361 4.3025193 -7.1856627
0.5127585 0.6027786 -2.4710197 0.16904138 -3.3596027 3.959605 1.4075122 -6.8317223
-1.968155 3.3239186 1.679429 4.2800226 -1.4092964 4.452493 -2.0662901 -3.2257845
-1.713616 -0.39962158 -3.0984688 0.9060795 -0.742892 -2.4813414 1.6324799 -6.02287
-3.9140048 5.06453 -1.9071995 -2.62284 -0.26952317 7.4092975 1.3833277 2.4224792
-2.4410174 -3.1752498 -6.3015423 -0.4587977 2.6887727 1.1538074 -2.32733 -4.812505
7.630173 3.1075659 2.3843353 8.261027 1.1655363 -6.121872 -0.25582704 -3.4120321
-4.9166837 1.8565639

conv1.bias f4 [10]
00000000: abf6 dbbf 5f01 dfbf 2568 1d40 0118 8bbe
00000010: 26fe d2bf c326 7fbf bf55 1640 baa4 0ebf
00000020: 0e2b 19bf 89e6 9dc0
-1.7184652 -1.7422293 2.4594815 -0.2716675 -1.648381 -0.9966852 2.3489835 -0.557201
-0.5983132 -4.9343915

conv2.weight f4 [10, 10, 3, 3]
00000000: 77f3 62bd 3b71 cfbd 2c8c 78bd 089e 5b3c
00000010: 8011 c9bd 600e b43c b771 8ebd 1073 c9bd
00000020: 5a02 0fbd 8cc3 4fbd d152 77bd 8225 a9bd
00000030: db46 d8bd ca68 adbd 962c a2bd cf53 b7bd
00000040: fb35 6abd 5187 91bb 1b78 703d 7dd7 03be
00000050: 9116 ec3c 40d5 2abd f7c7 233d 7394 013d
00000060: 2bc6 21bd c14a 18be 1c97 05be 9afa eabc
00000070: 5638 9cbd 0a6d 3fbd 5792 993d d194 b6bd
00000080: e513 1bbd 7858 bf3c 0d12 6cbd 8856 483d
00000090: 95c4 7ebd c2ee 0dbd 77d7 8ebd 17c0 55bd
000000a0: 579d 9bbd 52f8 7ebc a485 b9bd 285b 4dbb
000000b0: 6906 863d 235d e6bc 5800 833c 57e4 dbbd
000000c0: 0f33 f0bd e15d 803d ad4d b0bc 7fce d4bd
000000d0: c1de 5cbd 2f65 e2bd ce19 d2bd e199 c6bd
000000e0: 33b9 423c 598d c5bd b600 453d 8072 183c
000000f0: 35e2 a4bd de2e da3c 40a8 91bd 7d20 013c
00000100: 444d bfbb 4705 773d 16db 5bbd 1771 76bd
00000110: 57db adbd 048a 28bd 13cb 95bd 1eec 0abe
00000120: 82d2 a5bd 3c36 95bd ceab 2d3d 2ebe 463d
00000130: 4341 0bbe 545e abbc 4a6d 8b3d 591f e5bd
00000140: 9867 bbbb 889d 28bd bd9d f4bd b680 a9bd
00000150: 7980 e73c 1c25 9cbd 1b54 d8ba 4005 8f3d
00000160: 2c9a 96bc bfc5 213c 022e 92be 72a3 d0bd
00000170: 15b4 5bbe d9ec 44be 22a5 71be e81e f6bd
00000180: cd64 e0be 43ae 9ebe 25da c7be 9988 e1be
00000190: 73ce 2cbe f987 fcbd 352e b3be b3f6 95be
000001a0: 84a7 89be fac8 ddbe 161c c3be 1950 fbbe
000001b0: da49 e1be fc19 30bf 40a2 57bf 65f6 edbe
000001c0: 24f6 15bf 32c7 d5be d9de b5be 639e a6be
000001d0: e9b2 5ebe 3d1c bbbe a23b 49be 7176 39be
000001e0: 4c8c 8fbe ef43 3fbe dd0b e7bd 391a 0ebf
000001f0: 5460 b0be b34a 06bf 8956 86bd d112 613e
00000200: 1c95 fbbe f15e 36be ba40 0e3e 1272 46be
00000210: 2399 98be 031e 4abe 72d8 12bf 6da1 96bd
00000220: 66d8 98bd 7cbd 78be 418d 3abe 33f2 93be
00000230: fdc4 9cbe c4d4 c4be 29ad bebe 8c5e 1dbf
00000240: c528 b0be 87cf a7be 55f1 0dbf 3edf d9be
00000250: 1aa6 cebe fcba aebe 8bb9 95be 5640 1bbf
00000260: 0068 06bf 256e 5e3d c7c8 1f3e b49f c33c
00000270: 47d2 653e a78a 87bc 6ed7 6bbd 4bce acbe
00000280: 86be 113d ce43 0bbe 3850 ee3d bd57 b43c
00000290: eff9 80bd 70b2 9a3c c706 9cbe 9d96 95be
000002a0: 6dd5 b8ba b7d9 753d f8c7 40be 1c18 45be
000002b0: 8544 8f3e 687f 8a3d 969f b0be 4bd0 cabe
000002c0: 01a3 9cbe b6bf d2be 64a8 28bf 3ea0 b4be
000002d0: e4d1 cdbd aac8 f0bd 9088 25be 86d6 56be
000002e0: cfaf 0ebe 3a0b 14bd 260f 5ebe 666e fabd
000002f0: 1007 26be e224 6abd 1437 35be 6b52 0cbe
00000300: c3ee fcbc d120 88bc 6827 07be 17b2 96bd
00000310: d331 f5bc 823f 99bd d972 e1bd faa3 a33d
00000320: 0312 ebbc 920d c5bc f38e e33c 3750 bbbc
00000330: 11ac 1cbe da1b fabd ce58 56be dd4a cd3d
00000340: a3a8 0bbe 4dad 00be 6b07 05be f501 d1bd
00000350: 3491 5cbc 11f3 8fbe 1fdf 57be 7607 56be
00000360: c68e 83bd ba51 673c 8027 2b3d 4c0b 99bd
00000370: 3867 c1bd d883 943c a99e 57bd 1fa2 a0bb
00000380: 8552 eabd a681 113d 3cc1 3abe 0a85 01bd
00000390: c5e7 1dbe 3c04 a73c 80ed 86bc 7cad 14be
000003a0: a125 0ebe 7b10 5cbd 324a 32be e0d1 dbbd
000003b0: 0ba2 53bc f31b fcbd 11fc e9bc 0c81 eabd
000003c0: df7e 46be cea5 51be a0a7 98be a008 c0bc
000003d0: e033 093d 30dc 6cbc b0a7 08be a3fa b5bd
000003e0: 4cac c83c c6f0 0bbe f289 8dbd fcc0 2e3c
000003f0: ce4c c3bd e062 843c 9912 95bd ff96 9cbd
-0.055407967 -0.10129019 -0.060680553 0.013404377 -0.09817791 0.02197951 -0.06955283 -0.098363996
-0.034914352 -0.050723597 -0.060381714 -0.08259107 -0.105603896 -0.084672526 -0.0791866 -0.08951532
-0.057180386 -0.00444118 0.05870829 -0.12875171 0.028819354 -0.041707277 0.039985623 0.031635713
-0.03949563 -0.14872266 -0.13045925 -0.02868395 -0.07627933 -0.046734847 0.07498615 -0.08915103
-0.03786077 0.023357615 -0.057634402 0.048910648 -0.062199194 -0.034651525 -0.069746904 -0.052185144
-0.075983696 -0.015562134 -0.09058693 -0.003133485 0.065441914 -0.028120583 0.015991375 -0.10736912
-0.11728489 0.06267906 -0.021521414 -0.103909485 -0.053923372 -0.110544555 -0.10258828 -0.09697319
0.011884975 -0.096461006 0.04809638 0.009304643 -0.08050958 0.026633676 -0.07112169 0.007881281
-0.005838068 0.060307767 -0.053675734 -0.060166445 -0.084891014 -0.041147247 -0.07314124 -0.13566634
-0.08096792 -0.07285735 0.042400174 0.048521213 -0.13599114 -0.020919003 0.068079546 -0.1118762
-0.0057191364 -0.04116586 -0.11944149 -0.08276503 0.028259503 -0.076242656 -0.0016504558 0.06983423
-0.018384062 0.0098738065 -0.28550726 -0.10187425 -0.21455415 -0.19230975 -0.2359815 -0.12017614
-0.43826905 -0.30992326 -0.3903362 -0.44049528 -0.16875629 -0.12330622 -0.3499619 -0.2928978
-0.26885617 -0.43317395 -0.38107365 -0.49084547 -0.44001657 -0.6878965 -0.8423195 -0.46477047
-0.58578706 -0.41753536 -0.35521582 -0.32542714 -0.21747936 -0.36544982 -0.19651654 -0.18111588
-0.28036726 -0.18678258 -0.112815596 -0.5550876 -0.34448493 -0.5245773 -0.06559474 0.21979834
-0.491372 -0.17809655 0.13891879 -0.19379452 -0.29804334 -0.19738011 -0.5736152 -0.07355008
-0.0746315 -0.24291033 -0.18217947 -0.2889572 -0.3061904 -0.38443577 -0.37241486 -0.6147239
-0.34406105 -0.32775518 -0.5544637 -0.42553133 -0.403611 -0.34127033 -0.2924312 -0.60645044
-0.5250244 0.05430426 0.15603934 0.023879863 0.22443496 -0.016545607 -0.057578497 -0.3375114
0.035582088 -0.13600084 0.11636394 0.022014493 -0.06297671 0.018883914 -0.3047392 -0.2921647
-0.0014101692 0.060022082 -0.18826282 -0.19247478 0.27981964 0.06762582 -0.34496754 -0.3961204
-0.30593112 -0.4116189 -0.65881944 -0.35278505 -0.10049799 -0.11757024 -0.16165376 -0.20980272
-0.13934253 -0.03614352 -0.21685466 -0.12228088 -0.16213632 -0.05716408 -0.17696792 -0.13703315
-0.03087557 -0.01661721 -0.13198626 -0.07358187 -0.029930985 -0.07482816 -0.110082336 0.079902604
-0.028695112 -0.024054322 0.027778124 -0.022865398 -0.15300013 -0.122123435 -0.20932314 0.10024045
-0.13638549 -0.12566109 -0.12991111 -0.102054514 -0.0134623535 -0.28115132 -0.21081208 -0.20901284
-0.06423716 0.014118606 0.041785717 -0.07472858 -0.094435155 0.018129274 -0.052641544 -0.004902139
-0.114415206 0.035524033 -0.18237776 -0.031621017 -0.15420444 0.020387761 -0.01647067 -0.14519304
-0.13881542 -0.053726654 -0.17411116 -0.1073339 -0.012917052 -0.123100184 -0.028562577 -0.11450395
-0.19384335 -0.20473406 -0.29815388 -0.023441613 0.033496737 -0.014456794 -0.13345218 -0.08885696
0.02449622 -0.13666067 -0.069110766 0.010666128 -0.09536134 0.016160429 -0.07278938 -0.07645988

conv2.bias f4 [10]
00000000: c450 2ebd 313b 9cbe d47d 50be 7a97 5bbe
00000010: 5afa 2e3b 23ab 4a40 9278 7d40 a947 7ec0
00000020: 337e 5e40 934a a2ba
-0.042557493 -0.3051391 -0.203605 -0.21444502 0.0026699514 3.1666954 3.960484 -3.9731238
3.4764526 -0.0012381844

conv3.weight f4 [10, 10, 3, 3]
00000000: ae58 b9bc 2834 c43b fcfb 76ba 1e7e 1cbc
00000010: 4e91 cbbd 6e68 1bbc 057c 323d a4d2 14bd
00000020: 904c e0bc 138a 563d 5522 dbbd 78fa 51bd
00000030: a96f 7e3e c5cb 983e 45f8 a03e 8977 2fbe
00000040: eb99 d53d d9ce 9e3d 37d9 86bd 7a39 8b3d
00000050: 5d2a 35be c81f ad3d 4f4e af3e a955 cd3d
00000060: c5f7 623c cb16 dabd c1f3 22be a55c 623f
00000070: 78d5 c5bf 2faa cb3f 8374 1a40 f53f 77c0
00000080: 7cdc 2d3f 1d21 e2bf 0cab fb3f 17a8 8c3e
00000090: 1b67 14bd a85b b53d 07c9 6bbd e773 08bd
000000a0: c557 203e 2b08 76bc 11f3 b43d 913e 313c
000000b0: 8060 27be 2f18 f1be 50e6 df3f 5c96 04c0
000000c0: e142 8740 304e 7f3f 95c1 b0be 9768 dabe
000000d0: 136f 133f 6d98 34c0 ad30 1e40 af2a b43f
000000e0: 1152 b9bf 32fa 5240 1700 0f40 430a f53f
000000f0: 82d6 73c0 984d c43f a1bb 4f3e 835f e4bf
00000100: 2f91 53c0 c3eb 1840 0e6a 11c0 949b 5c40
00000110: 9ca8 7040 f2c3 cd3f f38c ab40 3ad2 dcbd
00000120: 8a85 11c0 c4be c9bf f954 5f3f 7f2a 8abf
00000130: 42dd 57bf 59cc 20c0 1d6c e63f dcfa 3fc0
00000140: a896 7b3f a7d3 8640 6e6a 3ec0 d2a9 d7be
00000150: 856e c9bf ca72 4540 6521 2a40 0b44 df3f
00000160: ebc4 37bd 6b4a b9be d758 da3d 539a d73d
00000170: f3ba 173d 207f e03d 28f1 0cbc d577 df3c
00000180: f056 80bc 5a91 283c b341 f33d 8b93 08be
00000190: ae5c f43c c7a0 a8bd 640a 0cbe cb0f 5b3d
000001a0: e6b1 7f3c b3eb cebd 95a8 06be 269f 8fbc
000001b0: 1fb2 9d3a 6542 be3c 4a49 e73c 2aa9 27bd
000001c0: 4f9f a33b 1c5e 8bbd d21c 67bd f3b9 ecbd
000001d0: d7d2 b8bd 615b a33c 66c8 32bc 3b84 b7bd
000001e0: 5276 2fbe e045 a8bd 0447 19be 4eb1 85be
000001f0: 1fa7 5bbe 7852 cabd 1e84 503d 1cbc 67bd
00000200: fc5b 943d 0b01 983d 0d0c d7bd 303d 6d3c
00000210: a7d4 543d fe6b b4bd 5ef0 e6bd b9f3 4dbe
00000220: 3b59 19be 229d 32bc 719e d4bc 8937 97bd
00000230: 993a 53bd 368f 833c 67d6 d43c 24bc 75bd
00000240: 50ed 61bd 794b 2e3c 3bc4 5bbd ed28 e2bd
00000250: 60f8 82bd f7a1 7b3c 0939 9ebc 3662 fdbc
00000260: 5022 d43c e7b9 83bd a675 b3be 36a3 cebc
00000270: 422c 00be 8aea 61bd 53a7 c93d c42c c03c
00000280: d037 383d 56a9 913d 2c6b 8dbd e79d f83c
00000290: fb3b 82bd 8235 91bd 45ed 8fbd e7bf b8bd
000002a0: 4871 2cbe 600f 87be a959 57bd 5628 dbbd
000002b0: 77f5 44bb bba3 903d 8865 04bc bd0a 05be
000002c0: ea9c f7bd f699 ccbc 1bab 0d3d 5a32 fbbd
000002d0: 29bb 82bc f735 9bbd f21e 4cbd f380 773d
000002e0: 8d00 803d 64e9 adbd 0e0c 81bd c560 8c3d
000002f0: 6878 553d 9a77 58bc 8a64 c93d d6ce 0e3d
00000300: c4e1 0d3f 54aa 733e 0547 e93c 0fd6 52be
00000310: d30c 38be b25c 5c3e 2e1b 90bd bdb2 62bd
00000320: 139a e63a 04fb 9e3d 6eaa a93c 1bca 873d
00000330: 270b 7bbc 065c c3bb 5aa7 003e b75b 8f3f
00000340: a409 3840 2aa4 86c0 63dc 2640 9281 04c1
00000350: 1615 68bf 3c1c 383f e107 c5c0 24c6 76bf
00000360: 058e 58be bce0 8e3e d5f8 6a3e f0d2 10bd
00000370: 3418 eabd a89f e6bd 0eb4 13bd 2f94 25be
00000380: 2aed 26bd b6e8 703f da7a 5b3e 4ed2 1ebc
00000390: fc55 4840 23e7 48c0 447d 3840 14ea 52c0
000003a0: ce95 2440 b5c0 3b3f 18a4 733f 45ce 6940
000003b0: cd55 a740 1ad4 a9bf 8be1 34bf 9bce 3c40
000003c0: e948 86c0 7673 f1bf c4aa 233f 5207 8cc0
000003d0: 3209 dc40 92a1 c23f 9f73 fc3e 6149 413f
000003e0: 61da 53bf 3422 dfbf 9ad5 e83f 2315 f13f
000003f0: b5fc 823f acde 00c0 0604 1d40 4734 6d40
-0.022625294 0.005987663 -0.0009421704 -0.009551553 -0.09939824 -0.009485347 0.043575305 -0.036333695
-0.027380258 0.05237777 -0.10699908 -0.051264256 0.24847282 0.29842964 0.31439415 -0.17135443
0.10429748 0.07754297 -0.06584399 0.06798072 -0.17691942 0.084533274 0.34239432 0.10026104
0.013853018 -0.10648879 -0.15913297 0.88422614 -1.545577 1.5911311 2.4133613 -3.8632786
0.6791456 -1.7666355 1.9661574 0.27471992 -0.03623114 0.08855373 -0.05756476 -0.033313658
0.15658481 -0.015016596 0.08835424 0.01081814 -0.16345406 -0.47088763 1.7492161 -2.0716772
4.226914 0.9972868 -0.3452269 -0.4265792 0.5759136 -2.8218033 2.471721 1.4075526
-1.447817 3.2965207 2.2343805 1.9143757 -3.8099675 1.533618 0.20286418 -1.7841648
-3.3057363 2.3893898 -2.272098 3.4469957 3.760291 1.6075423 5.3609557 -0.10782285
-2.2737756 -1.5761342 0.87239033 -1.0794219 -0.8432199 -2.5124724 1.8001744 -2.9996862
0.9827676 4.2133365 -2.975246 -0.4212175 -1.5736853 3.0851312 2.6582882 1.744264
-0.04486553 -0.3618959 0.10661476 0.10527482 0.037043523 0.10961747 -0.008602418 0.02727882
-0.015666455 0.010288561 0.118777655 -0.13337533 0.02982935 -0.08233791 -0.13675839 0.05348186
0.015606379 -0.1010355 -0.13150246 -0.017531943 0.0012031234 0.023225019 0.02823319 -0.04093281
0.0049933563 -0.06805059 -0.05642397 -0.115589045 -0.090245895 0.019941034 -0.0109120365 -0.08960768
-0.1713498 -0.082164526 -0.14968497 -0.26111835 -0.2145047 -0.09879011 0.050907247 -0.05657588
0.07244107 0.07422074 -0.105003454 0.01447992 0.051960614 -0.088096604 -0.11276315 -0.20112504
-0.14975445 -0.010901721 -0.025954457 -0.07383639 -0.051569555 0.0160595 0.025981141 -0.059993878
-0.05515796 0.010638111 -0.053653937 -0.11042962 -0.0639503 0.01535844 -0.019314306 -0.03093062
0.025895268 -0.064319424 -0.35050696 -0.02522431 -0.12516883 -0.055155315 0.09846368 0.023458846
0.044975102 0.071123764 -0.06905207 0.030348731 -0.063590966 -0.07090284 -0.070276774 -0.090209775
-0.16840088 -0.26378918 -0.05257574 -0.10701053 -0.0030053535 0.07062479 -0.008080848 -0.12992378
-0.12090476 -0.024975758 0.034587007 -0.12265463 -0.015958386 -0.07578652 -0.0498342 0.06042571
0.06250105 -0.08491781 -0.063011274 0.06854395 0.05211678 -0.013212109 0.098336294 0.034865223
0.55422616 0.23795444 0.028476248 -0.2058947 -0.17973642 0.21519735 -0.07036434 -0.05534624
0.0017593525 0.07762721 0.02071115 0.066303454 -0.015322483 -0.005961898 0.1256384 1.1199864
2.8755884 -4.2075396 2.6072013 -8.281633 -0.90657175 0.7191808 -6.157212 -0.9639609
-0.21147926 0.27905834 0.22946484 -0.035357416 -0.11430398 -0.11260921 -0.036060385 -0.16169809
-0.04075352 0.9410509 0.21433583 -0.009693695 3.130248 -3.1391075 2.8826456 -3.295537
2.5716434 0.7334092 0.9517226 3.6532147 5.2292237 -1.3267853 -0.7065665 2.9501102
-4.1964 -1.8863361 0.6393244 -4.3758936 6.8761225 1.5205557 0.49306962 0.7550259
-0.82755095 -1.7432313 1.8190186 1.8834575 1.023337 -2.0135908 2.4533706 3.7063158

conv3.bias f4 [10]
00000000: ffab 2ac0 5785 d0bd 9ca0 3041 b79d 9bbe
00000010: e66f 47bd 950b f440 2eeb e33b 133d 5ac1
00000020: 03db 83be 6475 c941
-2.6667478 -0.101816826 11.039211 -0.30393764 -0.0486907 7.626414 0.006955526 -13.639911
-0.2575303 25.18232

conv4.weight f4 [10, 10, 3, 3]
00000000: f4ed 1dbe c4c3 a4be 04a3 b4be 3905 d1be
00000010: 757e dfbe 8457 38be e356 09bf d113 d2be
00000020: edf3 acbd ffb1 073e 399e 5bbd 9c37 763e
00000030: c51b 3cbc 56c3 bd3d 2898 5b3c 9945 533d
00000040: dec1 a0bc de33 473e 7190 9bbe ab18 efbe
00000050: 916f bfbe 1086 f9be f032 08bf c810 8cbe
00000060: 51d6 e0be 9cd5 b2be 6c1c 8dbe 6322 593d
00000070: 2c62 203d dc22 b6bb 45c0 87bc a074 b73d
00000080: 886e e3bd ae1a 8a3d 8cb2 09bd 458d a43b
00000090: 3532 83bd f8c9 68bd aa6b 5ebd 4492 c63d
000000a0: bd5b 903d a651 423d 9268 223d 6bb5 72bb
000000b0: 22fc 833d 6912 323e 7574 39bd e88b ff3d
000000c0: 5793 d23c 2702 f1bb bf86 383d f955 49bd
000000d0: 2cb2 9f3c 77c7 dc3d 11e3 81bd e8fc db3d
000000e0: 02dd 7b3d 548e 183d e023 8fbb 0a53 7b3d
000000f0: 50ed bd3c 20fd 193d 9994 1f3a 07a7 5fbd
00000100: a1ae 09be 6336 9fbd 08c2 5abe 9a47 f5bd
00000110: 7493 083c 88f8 7cbd d3d5 1abe 968b c23d
00000120: 9796 b73d 5740 20bd feca 073d 55f0 793d
00000130: 0545 ef3d c4ac 063d d117 0f3d 664b 853c
00000140: 4781 c33d 6770 8c3d 12cc bdbd 2e8b 44be
00000150: 662b 8e3e 7dd2 163e 5cb0 8abd f439 353d
00000160: 7d4f 8f3d 6559 9c3d 68fb 1dbb 5391 ecbe
00000170: c993 fabe a299 b1be 61dd c0bf 1f47 1ebf
00000180: d42b 42c0 6686 54c0 12e9 e83f 5ffe 8e3c
00000190: 9839 e0bd ee9e 9ebd a95f 9b3d ae5f 97bd
000001a0: 1b3e 24be 2904 933d 65a8 263d 69b5 b73d
000001b0: 8311 9bc0 70d9 d4bf 5792 febe 8fff 7240
000001c0: cdc6 88c0 6a17 923f 42d1 80c0 199e 4940
000001d0: 036f e03f 15f9 72be e974 2fbe 44c7 ed3d
000001e0: 9027 00be 3785 97be 60f2 a1bd 2943 fbbd
000001f0: ae11 01be 21be dabd a024 8f3d 06f5 14bc
00000200: 21ab c33c 3bd0 ee3d 965d 61bc d1cc 0dbd
00000210: 7974 2a3c ff5f 62bd 3c90 413d f979 74c0
00000220: 3b5c bfc0 5406 873f 6fb8 f7bf ac8b f2bf
00000230: de72 57c0 84da f23f ee05 83c0 2bcf aebf
00000240: a1fc 163e 52c8 71bd f517 d3bd eb39 7f3d
00000250: 1e8b e6bd 0523 8f3d 1166 a8bc 01cd 61bd
00000260: 9390 04be d6b0 eec0 f23e a73f 4916 29bf
00000270: e8ad 1ec0 32f5 a1c0 7e52 9c40 a850 5dc0
00000280: 2486 e9c0 1bf8 e540 23dd 97be 7567 57be
00000290: 8b9e f63d 22f0 4fbe ebaf b1bd 9249 fe3d
000002a0: da8f 59be c551 0ebe f5bb f1bc 885d 0fbf
000002b0: c4ae 0d40 0996 123f f643 3540 54c9 65c0
000002c0: f63c afc0 46c2 13c0 fe62 4240 8e59 18c0
000002d0: 8f95 f2c0 7740 273f fec0 c2bf 6974 0fbf
000002e0: 80e7 03bf c1b6 8d3d e8e7 85be 46e1 09c0
000002f0: fcab 023e 730c 39be 890f cebe 8452 90be
00000300: 91d3 91bc 6008 aebd 7838 d8be ac97 d73b
00000310: 9f11 a33d 0eb2 ea3d a76f 2fc0 9ecc 54bf
00000320: db9e 853f c2eb 4d3d 1c23 dd3f c9c7 90c0
00000330: aa1c 58bf d2a2 c6bf 6595 d03f 5acd a5be
00000340: 2dee 26be acb2 a8bd a9b3 2a3d b8cb b23e
00000350: 292d ba3c 4e3b bc3e 4000 b33e ca33 943e
00000360: 37d2 2ebd 8b88 1c3e 03db 9bbd 8f9d 463d
00000370: d2ac b13d 7957 94bd 780b fc3d 871e c2bd
00000380: 860e 0c3d 4682 6bc0 9337 c8c0 7ade 87bf
00000390: 81a1 4340 e927 adbf 575a 4240 03b1 b3c0
000003a0: 2ba1 4d40 7175 a43e b0fa 3b3c d08b bb3d
000003b0: 9b40 99bd 9f22 ba3d e3c1 1a3d 8ab6 febc
000003c0: bedc c73d 8aa1 f63d eac5 bd3d 44e6 4f3f
000003d0: aba1 69c0 5ce8 30c0 cda6 193f 887e 44c0
000003e0: 7833 7040 c539 a3c0 932c f33e f97b b7c0
000003f0: 68e6 903d b31b 01bd 7201 debd fcc9 94bc
-0.15422803 -0.32180607 -0.3528062 -0.40824297 -0.43651167 -0.18002135 -0.53648204 -0.41030744
-0.08444963 0.13251494 -0.05361769 0.24044651 -0.01148123 0.09265773 0.013402976 0.051580045
-0.019623693 0.1945338 -0.30383638 -0.46698508 -0.37389806 -0.48735094 -0.53202724 -0.27356553
-0.4391351 -0.34928596 -0.27560747 0.05301131 0.039156124 -0.005558355 -0.016571173 0.08957791
-0.111050665 0.0674337 -0.03361754 0.0050217235 -0.064060606 -0.056833237 -0.054301895 0.09695867
0.07048748 0.047441147 0.039650507 -0.0037034403 0.06444575 0.17389835 -0.045277078 0.12477857
0.025705023 -0.007354993 0.04505038 -0.049154256 0.019494139 0.107802324 -0.063421376 0.107415974
0.061490066 0.03724511 -0.0043682903 0.06135849 0.023184448 0.037594914 0.00060875114 -0.05460265
-0.13445522 -0.07774045 -0.2136308 -0.119765475 0.008335937 -0.061760455 -0.1512063 0.0949928
0.089642696 -0.03912386 0.033152573 0.061020214 0.11683086 0.032879606 0.034934822 0.016271304
0.09546142 0.068573765 -0.09267439 -0.19193718 0.27767485 0.14728732 -0.06771919 0.04424472
0.06997583 0.07634238 -0.0024106149 -0.46204624 -0.48940876 -0.34687525 -1.506756 -0.6182727
-3.033925 -3.320703 1.8196127 0.017455278 -0.10948485 -0.07745157 0.07586605 -0.07391296
-0.16039316 0.07178528 0.040687937 0.08970148 -4.8458877 -1.6628857 -0.49721023 3.796848
-4.2742677 1.1413395 -4.025544 3.1502745 1.7533878 -0.2372783 -0.17134441 0.116102725
-0.12515092 -0.29593822 -0.079075575 -0.12268669 -0.126044 -0.106807955 0.069894075 -0.009091621
0.023885312 0.116608106 -0.013755223 -0.034619156 0.010403746 -0.05526733 0.047256693 -3.8199446
-5.9800086 1.0548806 -1.935316 -1.8948874 -3.366386 1.8972936 -4.094474 -1.3656973
0.14744808 -0.05902893 -0.10307304 0.062311094 -0.11257003 0.06989101 -0.020556482 -0.055127148
-0.12945776 -7.4590864 1.3066084 -0.6604963 -2.4793644 -5.061181 4.88507 -3.4580479
-7.2976246 7.1865363 -0.296609 -0.2103556 0.120419584 -0.20306447 -0.08676132 0.12416376
-0.21246281 -0.1389838 -0.02950857 -0.5600209 2.2137918 0.57260185 2.832273 -3.590413
-5.4761915 -2.3087325 3.037292 -2.380466 -7.5807567 0.6533274 -1.5215147 -0.56037
-0.51525116 0.06919623 -0.26153493 -2.1543746 0.1276092 -0.18071155 -0.40246227 -0.28187954
-0.017801078 -0.08497691 -0.42230582 0.00657936 0.07962345 0.114597425 -2.7411897 -0.8312472
1.0439104 0.050273664 1.727634 -4.524388 -0.8441874 -1.5518439 1.6295592 -0.32383233
-0.16301794 -0.08237204 0.041675244 0.3492105 0.022726612 0.36763996 0.34961128 0.28945762
-0.042680945 0.15286462 -0.076101325 0.048490103 0.08675541 -0.072432466 0.12306875 -0.09478479
0.034193538 -3.6798263 -6.256784 -1.061477 3.0567324 -1.3527805 3.036764 -5.615358
3.212962 0.3212085 0.011473343 0.091575265 -0.07483026 0.09088635 0.03778256 -0.0310929
0.097589 0.1204253 0.09266265 0.8121073 -3.6504924 -2.764182 0.6002014 -3.0702229
3.7531414 -5.100802 0.47494945 -5.7338834 0.070751965 -0.031520557 -0.108401194 -0.01816272

conv4.bias f4 [10]
00000000: e5c6 b3bd be7c 1abc 2262 eb3c bda5 953d
00000010: f51c c53c c4c1 ab3c 629b 0bbd cb30 953c
00000020: 4960 c4bc 5d86 2b3a
-0.087781705 -0.009429155 0.028733317 0.07307003 0.02406166 0.020966418 -0.03408373 0.018211743
-0.023971694 0.0006543154

norm.weight f4 [10]
00000000: 4f4b a83e 65ff c23e 6593 0f3f f5a6 a93e
00000010: 1b24 cc3e 76be e33e 6236 ec3e ea40 153f
00000020: 5b95 e43e 4712 a23e
0.32869956 0.38085476 0.5608428 0.3313519 0.39871296 0.44481248 0.4613524 0.58302176
0.446452 0.3165457

norm.bias f4 [10]
00000000: 085d 21bf 19b2 24bf 399d 39bf bb38 24bf
00000010: f7e1 0cbf 10bc 3abf 9643 2abf 216c 6cbf
00000020: 7417 3cbf 3a4d 2dbf
-0.6303258 -0.64334255 -0.7250553 -0.64149064 -0.55032295 -0.7294321 -0.6650938 -0.9235249
-0.73473287 -0.67695963

norm.running_mean f4 [10]
00000000: aa77 bbc5 0d12 03c7 f8cb ddc6 8b0b 0f45
00000010: 7d2f 9dc6 0d21 30c7 a501 1fc7 81f0 27c7
00000020: 40ce ebc6 230c 5546
-5998.958 -33554.05 -28389.984 2288.7214 -20119.744 -45089.05 -40705.645 -42992.504
-30183.125 13635.034

norm.running_var f4 [10]
00000000: c169 5f4c 9bbd c74d ab7c 9c4d c297 784d
00000010: 5c97 594e 9373 054e 41b7 e44d ef8c 064e
00000020: b4a1 a94d a9f9 a54d
5.8566404e+07 4.188865e+08 3.28177e+08 2.6066845e+08 9.1264384e+08 5.59736e+08 4.7965187e+08 5.643458e+08
3.5574336e+08 3.480753e+08

fc1.weight f4 [50, 810]
00000000: 92bd aa3c 3564 0e3e f3e2 50be 68b1 6dbe
00000010: 5a09 86bd ece2 5b3e 223b acbd 5fc6 a1be
00000020: 405e 6cbe 63df 85be db6c 0fbe 6f71 0d3e
00000030: 5a86 a33d 0ada 593e 344d c33d ace5 523e
00000040: 78cb 733d 04c3 023e 3ee0 95be 2d2b a7be
00000050: 68b4 1ebe cf7f c0bd 3a8a 1d3e 8afe 463d
00000060: 94f6 533d d051 2abe 99a7 583e fefc 55be
00000070: ed04 8abe 960b 773e c5a0 89bc 487f 20bd
00000080: c8f2 973b b5d9 93bb 5b35 b6bc a2e8 263e
00000090: fb68 a3bc 6d92 86bc 688a 92be 4538 89be
000000a0: db60 0f3d 7b9b c2bd 081d 4fbe ca63 d13d
000000b0: 31a2 963d eb68 a4be 52b6 a03c 4acc 02be
000000c0: 64ec 2abd fb40 3c3e 4fb4 653d a4eb 0dbe
000000d0: 909d 903c b6cb a8be 49c0 94be 60c3 2f3e
000000e0: 951a 1dbe 6d0d 85be a919 4ebe be58 033e
000000f0: 28b1 27bd 10ae a7be 500b dc3c 2e52 843e
00000100: 3364 50bd d087 41be ec62 d23d abec b0bd
00000110: 2b0b 49bc 6963 053e 9b66 dcbd 5eef c9be
00000120: 27ab cabe bcde 9abe f8c2 00be 0340 66bd
00000130: 0543 48bd 4724 4bbc 40e8 f53d 3a43 3abe
00000140: 9a02 1ebe 5f72 e33f 5d57 303f 3512 1040
00000150: 5424 50bf b8ed 35c0 4e2c c340 4f05 6040
00000160: 5fd9 34c0 72a2 58bf 6179 913f ef9c aa3e
00000170: 6ed6 3040 6f7f b8bf 861c 09c0 0a54 3540
00000180: a81f d540 a3c7 d33e b642 c0bf bd12 2440
00000190: 9e03 e83f db3e 47bf 14f9 9d3f c077 17c0
000001a0: 0ce8 4ac1 1a79 58c0 e0d6 35bf a254 2dc0
000001b0: 8f74 283e 5893 0040 b396 18bc 19e3 77bf
000001c0: 5dd8 74bf ae80 11c1 2013 04c0 6d27 6b3f
000001d0: bb4a 5b3e 97dd 39bf 3dc1 973e 6b56 ccbf
000001e0: e00c ebbe 7230 00bf b40d dfbf 90a1 b2bf
000001f0: 28f1 0b40 1a89 2d40 6740 993f 59e9 653f
00000200: 9f16 2ac0 48af dcbd 5669 503f db85 e9be
00000210: e8c7 5bbf b3a7 a43f c179 fc3e b4bb 0140
00000220: 9d27 5b3e bfc7 e5bb 40c0 1cbe 975a 563f
00000230: beb5 633f cc8b 17bf a3d5 0340 09e9 f53d
00000240: 3c64 6540 a554 303f 4a5a c9bc ff25 0dbe
00000250: 7bfa 5a3f e069 50c0 8270 0d3e 29f8 253f
00000260: 6623 b53f 4d3c 733f 550e 10bf 76ca 503f
00000270: 5280 a3be cf02 863f faf0 853f f712 d23e
00000280: fba7 39be 1bf6 c33e a8dc 973f c173 1d40
00000290: 24e1 3840 acda 9240 2cab c6bf 37e4 d1bf
000002a0: 60cd a23f 8eff 6fbf 003c 783f c0e6 e83e
000002b0: bc84 c43f 0fac a83f 9dff d6bf a9b4 2cbf
000002c0: 2d51 38c0 a627 2dbf 8ad3 60c0 c7e7 083e
000002d0: 87af a33f 6c5d 833c 58c2 cfbe fb3e 033f
000002e0: 90d3 bcbf 4551 2dc0 3393 83bf b622 00bf
000002f0: e6ac 4abf 4aa9 1cbf 52af 1140 5b70 9e3e
00000300: d0f2 b23f db80 533e 7498 f1bf 223c dfbf
00000310: e858 e1bf 63df 5e3f 6758 aabf dc52 9cc0
00000320: b590 b13f 0dbd f83f 0b54 38bf a262 41be
00000330: ee03 1040 0c67 e7bf 81f4 703f 116b 943f
00000340: bf16 6e3f 3914 ad3e ed0d 883f f22b 8bbf
00000350: ef83 30c0 4946 e1c0 ee40 853f aad6 a4bf
00000360: d51c 223f 2952 1e40 e5d9 d7be 2379 8dc0
00000370: 5444 12c0 c98b 323f 9f8d 53c0 42d8 bac0
00000380: c4dc f6bf ef4e bfbe 313f dd3e 40f2 06c0
00000390: 8fdc 8a3f 0a05 f7be 8c57 733f 9e83 aebe
000003a0: 311f 283f b0eb fcbe 11ed bcbf 7915 1840
000003b0: 1d4d b73f 44c5 e13e 6c87 1abf 73f3 6e3f
000003c0: 988f 953f c459 8c3f 0eaf b8bf 1a90 4540
000003d0: c99d cfbc 5f85 8a3e 4dd5 2dbf 4364 4040
000003e0: ba7c 33c0 4079 9740 b3e4 efbf 67aa bcbf
000003f0: b4ff b33e 6abc 043f 8357 6ebf 4eeb 06bf
0.020842347 0.13905413 -0.20399074 -0.23212206 -0.065447524 0.21473283 -0.08409716 -0.31596658
-0.23082829 -0.26146993 -0.14006369 0.13812803 0.0798461 0.21274582 0.0953621 0.20595425
0.059520215 0.12769705 -0.29272646 -0.32650128 -0.15498507 -0.093993776 0.1538476 0.04858259
0.051748827 -0.16632771 0.21157683 -0.2089729 -0.26956883 0.24125513 -0.016800294 -0.039183885
0.004637096 -0.0045120367 -0.022242239 0.1629968 -0.01994752 -0.016427243 -0.2862122 -0.26800743
0.035004478 -0.09502312 -0.20225918 0.102241114 0.07355154 -0.32111296 0.019618187 -0.12773243
-0.041729346 0.18384163 0.05608016 -0.13859421 0.017653257 -0.3296792 -0.29052952 0.17164373
-0.15342171 -0.25986806 -0.20126976 0.12826821 -0.040940434 -0.32749987 0.026860863 0.25843948
-0.050876807 -0.18899465 0.10272774 -0.08638891 -0.012270729 0.13026203 -0.10761758 -0.39440435
-0.39583704 -0.30248058 -0.12574375 -0.05621339 -0.04889204 -0.012398786 0.12007189 -0.18189707
-0.1543068 1.7769278 0.68883306 2.2511113 -0.8130543 -2.8426342 6.0991583 3.500324
-2.8257673 -0.8462287 1.1365167 0.33322856 2.7630877 -1.441389 -2.142366 2.8332543
6.6601143 0.41363248 -1.5020359 2.5636437 1.8126104 -0.77830285 1.2341638 -2.366684
-12.681652 -3.3823915 -0.71031 -2.7082906 0.16450714 2.0089931 -0.009313273 -0.968309
-0.95642644 -9.093916 -2.0636673 0.91857034 0.21415226 -0.72603744 0.29639617 -1.5963873
-0.4590826 -0.5007392 -1.7426057 -1.3955555 2.186594 2.711493 1.1972779 0.89809185
-2.6576307 -0.1077562 0.8141073 -0.45609936 -0.8585191 1.2863678 0.4931164 2.0270815
0.2140183 -0.007012337 -0.15307713 0.8373198 0.8894919 -0.5919769 2.0599144 0.120073386
3.5842428 0.6887916 -0.024579186 -0.13784026 0.8553845 -3.256462 0.1381245 0.6483179
1.4151428 0.95013887 -0.5627187 0.8155893 -0.31933838 1.0469607 1.0464165 0.41030094
-0.18130486 0.382737 1.1864214 2.46019 2.8887415 4.5891933 -1.5520988 -1.6397771
1.2718925 -0.9374932 0.9696655 0.45488548 1.5353007 1.3177508 -1.6796757 -0.67463166
-2.8799546 -0.67638624 -3.5129113 0.13369666 1.2787942 0.016035758 -0.4057796 0.51267976
-1.4752064 -2.7080853 -1.0279297 -0.50052965 -0.7917007 -0.61195815 2.2763257 0.30945095
1.398035 0.20654623 -1.887465 -1.7440226 -1.7605257 0.8705961 -1.3308228 -4.8851147
1.3872286 1.9432694 -0.7200324 -0.18885282 2.2502398 -1.8078322 0.94123083 1.1595174
0.9300346 0.3380449 1.062925 -1.0872786 -2.7580526 -7.0398297 1.041044 -1.287801
0.63325244 2.4737647 -0.42158428 -4.421037 -2.2854204 0.69744545 -3.3055189 -5.8388987
-1.9286122 -0.3736491 0.43212274 -2.1085358 1.0848559 -0.48246032 0.9505546 -0.3408479
0.65672594 -0.49398565 -1.4759847 2.3763106 1.4320408 0.44095814 -0.6036289 0.93340224
1.1684446 1.0964894 -1.4428422 3.0869203 -0.025343793 0.2705488 -0.67903596 3.0061195
-2.8044877 4.733551 -1.8741668 -1.4739503 0.35156024 0.5185 -0.9310228 -0.52702796

fc1.bias f4 [50]
00000000: 71e5 eebd f1d6 333f 0d3a 2fbf 8157 47be
00000010: e11a 833f 687d cf3f d615 efbe 946c 1fbe
00000020: a26e b8be 0bab c33f 3219 9b3f a32d 80be
00000030: 1948 65be b020 76be 90fb 693f 9194 1b3f
00000040: 9470 163f ef19 d93e 8006 94be 323c 4dbe
00000050: 371a 90be 4e8b 7ebe a7be 793f 9fd8 7ebd
00000060: d3ca bb3c a192 1bbf 823e 91be 4952 84be
00000070: cfe5 43be 9861 4e3f 4c22 6c3f 0bca 0a3f
00000080: e03a 11bf 62d3 7f3f 3720 ccbc 6364 1ebe
00000090: 88c6 363f 5282 19be 4f61 a63f 2692 8dbe
000000a0: 9207 663e 1297 44be d412 81bd b083 1fbe
000000b0: 8519 513d ef4c b63e 61ec 9ebe a15c 043f
000000c0: a740 0740 0f74 b4be
-0.11664856 0.7024985 -0.68447953 -0.19466974 1.0242578 1.6210146 -0.46696347 -0.15568763
-0.36021906 1.5286573 1.2117064 -0.25034818 -0.22390784 -0.24035907 0.9139948 0.6077357
0.5876553 0.42402598 -0.2891121 -0.20042494 -0.28145 -0.24857828 0.9755654 -0.062218305
0.022923863 -0.6077061 -0.28368002 -0.2584403 -0.19130634 0.80617666 0.9223983 0.54214543
-0.5673046 0.9993192 -0.024917705 -0.15467982 0.71396685 -0.1499112 1.2998446 -0.27650565
0.22463825 -0.19198254 -0.06302419 -0.15577579 0.051049728 0.3560557 -0.31039718 0.5170384
2.113321 -0.35244796

fc2.weight f4 [7, 50]
00000000: 826b 62be 5879 72bf 0cff 853d 236e d8bd
00000010: 7d73 d8be 0353 fc3d 4b44 12bf 195c ddbd
00000020: 8fa9 fdbd a389 acbe 7fb7 923e 2b44 a6bd
00000030: e387 dabd bb8f 37bd 5fd2 ba3d 612b 7cbf
00000040: aae7 783e e643 b9be 0c58 5a3d 4458 9d3d
00000050: 7a37 83be fbd0 e2be 673c a7be 4e50 553d
00000060: 8c4d 4cbe 2819 19be 2929 e6be 3284 f7b9
00000070: 474c 6dbd 5d89 2bbe 6bb8 e0be 8991 58be
00000080: 17d3 87be 1f99 bebe 758b e8be 0453 173e
00000090: 788e 88be ef77 28b9 831c 6c3e 8487 44bd
000000a0: a356 60be 94a2 32bd 07d9 8cbd cc71 c8bd
000000b0: 9af9 a6be c910 ff3d 524d 53be 5b1a 43bd
000000c0: 1791 27be 5f5a f4bd fa11 0ebf c1c0 6fbf
000000d0: 8057 77bd 0b64 be3d eff6 aebe 3775 afbd
000000e0: b095 f7be 5bcd c63d 16a4 83bc 3a57 aabe
000000f0: 5926 45be 669f b3bd 5507 fb3b 5d54 dd3d
00000100: 328c 3abf d90d 7cbf 278e babe 832e 1a3f
00000110: cc0d 0fbe 5c3d 79bd 1560 003c 3853 a8bd
00000120: 1f22 003f 5909 23be 2fb9 5ebe 4dac b0be
00000130: 3542 1dbf d354 a33d 3da1 ab3d fa1f 2dbf
00000140: afe5 a93e 82a2 c73e 2b07 dc3d 368e d13e
00000150: 7d7b 38bf 1ec9 12bf b3ed 26bf 216e 22be
00000160: 7acd 9dbe 34e4 e4bd 9595 68be 067a b6bd
00000170: 4ff2 d03d b068 623d cd3c 87be 610c 93be
00000180: 8700 61be 9161 25bf d1fb a1be b593 2abe
00000190: 13cd ce3d 3098 67bf 6488 de3d f2a7 04be
000001a0: d154 95be d97a 12be 33e6 21bf 2f82 063b
000001b0: 1f9a 143c d866 94be 8f3b 98be 3efd 2d3b
000001c0: e903 92bd c8ae c53d f9e0 06be a74d 65bf
000001d0: 6cf6 cbbc 64c4 ed3d 6aa6 e63c 3cc4 1fbc
000001e0: 2782 64be 89eb bfbd 9fec 58be a223 02be
000001f0: 901b 9ebe 9cda 35be 0ffb c8be ba5d 22be
00000200: fd6d 33bd bf4d ecbe dd9a 29be b457 2cbe
00000210: 2129 463e 9d2d aebe 38ee afbe d3d3 eabd
00000220: 4f34 e3be d222 edbb 0ddf 86be 53b8 a43d
00000230: 586e 843d 62cc 26be 6305 f0bc af24 b03d
00000240: 80f6 b5be 2281 b5bc c20a e0be a8fe 0abd
00000250: 76eb 8e3e ef2c 68bd 4636 00be d767 58bf
00000260: 24bc 883b 6d56 613d fbab 123e 4485 b3be
00000270: 1c98 3cbe f9ec 10bb 0dbb 29be 1519 cabe
00000280: 6851 0b3d efbe 0ebe 6913 09be 81a9 ac3c
00000290: ddfa 92bd f3d9 26bf 0515 dfbd 969d 3bbe
000002a0: e0ca a6bd fdc5 11bd a0af f0bd 0893 14bd
000002b0: ce20 37be 7e39 b13d 4f1d 1fbe b60a 603e
000002c0: 3845 d1be bcc6 6bbe 4efa c33d 4f3d d0be
000002d0: c0fe fe3c 02e0 95be d1e2 6ebe 4997 0bbf
000002e0: 2011 ddbe 1f5c c5be 17be 6f3d cbd3 21bd
000002f0: 93b7 a2be 4210 fb3d 3c28 ac3d 8c61 45be
00000300: bfd5 53bd 45a3 ac3d c5db 3abe d425 34be
00000310: 6a2d b0bd 6d16 a7bd 2bad 00be 98f4 3d3d
00000320: a5df 4ebe 6aa9 97be da0e 45be 2dfd 6bbd
00000330: 579a 6bbe fed4 18be 9051 30bf 0cf6 de3b
00000340: 1974 d53d c973 debd 1f83 98be ece8 d0bc
00000350: 2db7 5abd e319 c3bc eb4b dc3d adf6 4dbf
00000360: 8976 67be 2def d5bc 0d4c 9bbc a6e1 913c
00000370: b105 3fbd bc68 80be 7f8f 4cbe 6846 863d
00000380: ecd8 703e 51df 14be 1f3a 8dbe ce07 49be
00000390: 4058 87bc 866c ddbe 0dc3 b7be dd2e 253e
000003a0: baaf 82be ab92 173d ab29 b4be a4eb 50be
000003b0: 2c5e a5be 0781 90bd 4ca0 91be 904c 57bc
000003c0: bcf7 d13d 651b 33be 9cf1 bfbd c31e a63d
000003d0: 2380 50be 3a19 343e 2837 11bb 9d35 0cbd
000003e0: 003e 48be b64e 2c3c 6a09 88bd 755f 64bd
000003f0: 1ab3 8cbe ee98 b4bd 9691 9fbe 988b b4be
-0.22111323 -0.94716406 0.06542787 -0.10567882 -0.4227561 0.12320521 -0.57135457 -0.10808582
-0.12385856 -0.33698758 0.2865562 -0.08118471 -0.106704496 -0.044814806 0.09122156 -0.9850369
0.24307123 -0.36184615 0.053306624 0.07682851 -0.25628263 -0.44300064 -0.3266327 0.052078538
-0.19951457 -0.14951003 -0.44953278 -0.00047210004 -0.057934072 -0.16751619 -0.438907 -0.21149267
-0.26528236 -0.37226197 -0.45418897 0.14777762 -0.26671195 -0.00016066407 0.23057751 -0.0479808
-0.2190805 -0.043612078 -0.06877332 -0.0978733 -0.32612306 0.124543734 -0.20634964 -0.047632556
-0.16363941 -0.119312994 -0.5549618 -0.93653494 -0.06038618 0.092964254 -0.3417277 -0.08567279
-0.4835639 0.09707137 -0.016069453 -0.33269674 -0.1925291 -0.08770637 0.007660786 0.10807107
-0.7287017 -0.9845863 -0.3643658 0.6022722 -0.13970107 -0.060849532 0.007835408 -0.08218998
0.50052065 -0.15921535 -0.2175033 -0.34506455 -0.6142915 0.07975163 0.08380363 -0.6762692
0.33183047 0.3899117 0.10743555 0.4092881 -0.7206343 -0.5733813 -0.6520645 -0.15862323
-0.3082083 -0.11176339 -0.22713311 -0.08909993 0.10202467 0.05527562 -0.26413575 -0.28720382
-0.21972857 -0.64602 -0.31637433 -0.16657908 0.100977086 -0.90466595 0.10865858 -0.12954691
-0.29166272 -0.14304675 -0.6324188 0.0020524373 0.009069948 -0.28984714 -0.2973294 0.002654865
-0.07129652 0.096524775 -0.13171758 -0.89571613 -0.024897777 0.11609724 0.028155524 -0.009751376
-0.22315274 -0.09371097 -0.21184014 -0.12708905 -0.30880404 -0.17759174 -0.39254043 -0.15856066
-0.043806065 -0.46153066 -0.16562982 -0.16830331 0.19351627 -0.34019175 -0.34361434 -0.114661835
-0.44375846 -0.007236817 -0.2634205 0.080429696 0.06466359 -0.16288903 -0.029299444 0.08600747
-0.35539627 -0.022156302 -0.43758208 -0.033934265 0.27914017 -0.056683477 -0.12520704 -0.8453345
0.0041728187 0.055014063 0.14323418 -0.3506261 -0.184174 -0.0022113903 -0.1657526 -0.3947226
0.034013182 -0.13940023 -0.1338631 0.02107692 -0.071767546 -0.65176314 -0.10892681 -0.18321833
-0.08144164 -0.035589207 -0.11752248 -0.036273032 -0.17883608 0.08653544 -0.15538524 0.21879086
-0.40873122 -0.2302503 0.09569226 -0.40671775 0.031127334 -0.29272467 -0.23328711 -0.5452772
-0.43177128 -0.38546845 0.058530893 -0.039508622 -0.3178068 0.1225896 0.084061116 -0.19275492
-0.051717516 0.08429579 -0.18247898 -0.17592555 -0.08602412 -0.08158574 -0.12566058 0.04637584
-0.20202501 -0.2962144 -0.19243947 -0.057614494 -0.23008095 -0.14925 -0.68874454 0.0068042334
0.104225345 -0.10861928 -0.29787537 -0.02550169 -0.053397346 -0.023816055 0.10756668 -0.8045452
-0.22603811 -0.026115024 -0.018957162 0.017807793 -0.046636287 -0.25079906 -0.19976614 0.06556398
0.23520249 -0.14538313 -0.27583405 -0.19631884 -0.016521573 -0.4324686 -0.35891 0.16131158
-0.25524694 0.037005108 -0.3518804 -0.2040239 -0.3229841 -0.0705586 -0.2844261 -0.0131408125
0.1025233 -0.17490919 -0.09372255 0.08111336 -0.2036138 0.17587748 -0.002215812 -0.034230817
-0.19554901 0.010516813 -0.066424206 -0.055755097 -0.27480394 -0.088182315 -0.3116576 -0.35262752

fc2.bias f4 [7]
00000000: 265d 6abe a20c c5bf 1819 c6bd 70bd 483f
00000010: 4f03 a3bd 7cfa 03be dc5b 363e
-0.22887096 -1.539448 -0.09672755 0.7841406 -0.079596154 -0.12888521 0.17808479

localization.0.weight f4 [8, 1, 7, 7]
00000000: c57f 5cbd ddaf 4ebd 57eb b53d dde7 223d
00000010: 9fed 8abc 2699 1c3d 4770 13be 03bc 8cbd
00000020: 198a 7bbc c5ea c03d 1c6f bbbd 0080 1ebd
00000030: f6ae 863d 3665 753c 399a 103e 23e7 2b3c
00000040: ad49 e2bd 8107 e83b f841 11bd d197 5dbd
00000050: 7fff 34bc 5d9b 103d a51f e43d d15e 883c
00000060: 0a0b f0bd 21a9 0ebd 4e8d 003e 1596 84bd
00000070: 59ea cf3d 6dc2 883c 8e55 45bd 41e3 18bd
00000080: 86d1 e2bd e408 d13d 8d9b f73d cf9c cdbc
00000090: d4bb cd3d d792 91bd 2227 e73d dcb7 cbbd
000000a0: 6992 883c 5962 f53d 174c be3d 278f ddbd
000000b0: 7c55 f93b 9519 62bd 393f a13d d273 a8bd
000000c0: 19a7 82bc 4c45 413d 5700 c93d fa30 ac3d
000000d0: 512d acbd 2eda a2bc 5cd1 8c3d eeda 913d
000000e0: a8aa 5bbc 6d75 49bc 6abb ed3d af8f b93b
000000f0: 96d2 b63d 1619 01be 3d5e cbbd bbab 6e3d
00000100: 1260 c7bd fd75 cd3d cfb5 52bd fe88 0b3c
00000110: 6dd1 853b dc45 be3d 79c7 06be 0ae2 d0bd
00000120: 7686 dabd 010e ebbd e3f9 d0bd 8ca8 08be
00000130: b45f 973c 3e1e a0bd d3be 2abd ac27 a73d
00000140: 5ecd 043e 6744 283d 471b e13d 62f1 983d
00000150: 5637 a9bd 7fcb 203c c869 87bd de17 98bd
00000160: a446 ecbd dac6 f4bd fa8e 2abe d1af f8bd
00000170: 2749 88bd fec3 07be 5b55 07be d5ea 0b3b
00000180: 3f31 d5bd 13c4 b8bd 6a2f 1e3d f2db 323c
00000190: 05ec e4bd 3a63 f23d 7e1d 07be dd1d c6bd
000001a0: 4dd8 e6bd 68f3 1ebd 5a27 673c c618 83bd
000001b0: bc61 98bc 0f99 a4bc 2aa7 883d 39ff bdbb
000001c0: eb2a 073e bf08 203c 07c4 05be e6fd fd3d
000001d0: 5755 b63c a862 f3bd 9b9e a5bd 8b42 0f3e
000001e0: 571a 4abd d925 e13c b3a1 bb3d d1ad 393c
000001f0: 5429 73bd 286c aa3d 396f bebc 5dfb 60bd
00000200: 5709 d83c d9a0 12be 9cc3 aa3d 2b33 963d
00000210: 7409 d8bd 4317 59bd 9721 583c fd44 0abe
00000220: 61be 9a3d eb72 0abe 2ca8 4abd 8a49 b63d
00000230: e71a 083e 45a3 b43d 6bdd a1bd 16bc 46bd
00000240: f478 993d 4090 333d 01cc b4bd 2e83 e8bd
00000250: f0b0 62bd 7da3 66bd 09ca 863d c505 013d
00000260: b656 7ebc 9f82 a0bd f4b4 dcbc 3827 b53d
00000270: ef0e fb3d 9564 95bd 904a fabd 00bf 043d
00000280: 6a7a cfbd c2f9 c73c 9b94 003e b932 023e
00000290: b4b7 cabd 5f73 f5bd 3418 f43d ef3d d03d
000002a0: 6902 ecbd 0a89 063e 21dd 14bd 0547 8bbd
000002b0: 1046 183d b46a bcbd 2e36 9e3d 73e4 3f3d
000002c0: dd79 8dbd 7482 8ebd 2232 bd3a 622e e8bc
000002d0: 3f30 93bd df4f e93c a9e9 893d cbcd 373d
000002e0: 3ca3 44bc f0d5 f3bd e480 5bbd ef41 513c
000002f0: fa6c bcbd efb2 f43d d7b4 0ebd 3b35 94bd
00000300: 34e2 173d 9c92 b5bd 6c3d a13d 328a 203d
00000310: 31c0 d43d 8f91 dfbd fd06 453d 515a fa3d
00000320: dd12 093e 9244 91bd d739 62bd 2b4e d3bb
00000330: a65b 4cbd 0a06 f53d 3086 8e3d 92a9 073d
00000340: b915 94bd 5c96 1fbb 122f f33d d2ac fd3d
00000350: 8e65 de3d 0e25 f3bd 671d c9bd 08c0 da3d
00000360: ebdc 08bd 7040 0b3d bc5e e03d 9c00 c5bc
00000370: 95d1 783d 1057 653b e4bd e0bd fc03 a0bc
00000380: 8f0e 04bd 3f8f 133e a4d8 c13d 511f 41bd
00000390: cf80 fdbd f9c2 003e bfeb fabb b193 22bd
000003a0: 995a f1bd 1bac dfbc 94e1 f5bd 26db c0bd
000003b0: 6bdf a1bd 2120 1b3e 4807 04be 4571 1e3d
000003c0: ca79 5f3b 0e3d 0c3d 10f7 a03d 17d1 40bd
000003d0: f02a 44bc 393d 90bd b723 a6bc 11ce f03d
000003e0: 1f97 91bd cb68 9f3d 5fb2 e3bd 8d31 243d
000003f0: feaa e83d 5140 20bd 8602 d83c 2713 173d
-0.053832788 -0.050460685 0.08882778 0.039771903 -0.01695901 0.03823199 -0.14398299 -0.06871798
-0.015352749 0.09419779 -0.09152052 -0.03869629 0.0657634 0.014977744 0.14121331 0.010492119
-0.11049209 0.0070809727 -0.035463303 -0.05409986 -0.011047243 0.035304416 0.11138848 0.016646774
-0.117208555 -0.034829263 0.12553903 -0.064739384 0.1015212 0.016694272 -0.048177294 -0.0373261
-0.1107512 0.10206774 0.12090216 -0.025099186 0.10045591 -0.071080856 0.11286761 -0.09947178
0.016671376 0.11981649 0.09291857 -0.1081832 0.0076090675 -0.05520018 0.07873387 -0.08225216
-0.015948819 0.047185227 0.09814518 0.08407779 -0.08407081 -0.019879427 0.0687587 0.07121836
-0.013407387 -0.012296063 0.11608012 0.0056628804 0.08926885 -0.12607226 -0.09930084 0.058269244
-0.09735121 0.1003227 -0.051442917 0.008516548 0.0040838034 0.09290668 -0.1316203 -0.101993635
-0.10670178 -0.114772804 -0.10203912 -0.13345546 0.018478252 -0.07818268 -0.04168589 0.08161864
0.12968966 0.04108086 0.10991531 0.07467915 -0.082625076 0.009814142 -0.06611973 -0.07426427
-0.11536911 -0.119519904 -0.16656104 -0.12142909 -0.06654578 -0.13258359 -0.13216154 0.0021349688
-0.104097836 -0.09021773 0.038619436 0.010916697 -0.1117783 0.11835332 -0.13194844 -0.09673665
-0.11271725 -0.03880635 0.014108503 -0.064012095 -0.01860129 -0.020092515 0.06672509 -0.005798247
0.13199966 0.00976771 -0.1306306 0.12401943 0.02225749 -0.118840516 -0.08086892 0.13990228
-0.049341526 0.027483867 0.09161701 0.011332945 -0.059365585 0.083214104 -0.023246394 -0.05492722
0.026371641 -0.14319171 0.08338091 0.07333978 -0.10548678 -0.0530007 0.013191602 -0.1350288
0.07555843 -0.135204 -0.049476787 0.08900745 0.13291512 0.08820204 -0.0790356 -0.048519216
0.07493773 0.04383874 -0.08827973 -0.113531455 -0.055344522 -0.05630826 0.06581504 0.031499643
-0.015523603 -0.07837414 -0.026941754 0.08845371 0.12258708 -0.07294575 -0.12221253 0.032408714
-0.101307705 0.024411086 0.12556688 0.12714662 -0.0989832 -0.11984896 0.11918679 0.10168063
-0.11523897 0.13138214 -0.036343697 -0.06800655 0.03717619 -0.092000395 0.07725178 0.046848726
-0.06908009 -0.06958476 0.0014434496 -0.02834243 -0.071869366 0.028480468 0.0673402 0.044873994
-0.012001809 -0.1190604 -0.053589717 0.012772067 -0.09200473 0.119481914 -0.03484043 -0.072367154
0.03708096 -0.08865854 0.078730434 0.039194293 0.1038822 -0.10916435 0.048102368 0.12224258
0.13386102 -0.07093157 -0.05523094 -0.0064485273 -0.04989209 0.119640425 0.06959188 0.0331207
-0.07230706 -0.0024351096 0.11874212 0.123864785 0.10859214 -0.11872302 -0.09820061 0.10681158
-0.03341381 0.033997 0.10955569 -0.024048142 0.060746748 0.003499452 -0.10973719 -0.01953315
-0.032240447 0.14410113 0.09465149 -0.047149006 -0.12378084 0.12574376 -0.0076574977 -0.03969163
-0.11784858 -0.027303746 -0.12005916 -0.09416799 -0.07903942 0.15148975 -0.12893403 0.03868224
0.0034099692 0.034237914 0.078596234 -0.047074404 -0.011973128 -0.07042927 -0.020280702 0.11758054
-0.07108902 0.077836595 -0.11118006 0.040086318 0.11360739 -0.039123837 0.02636839 0.0368835

localization.0.bias f4 [8]
00000000: 23fa 1dbe 01a5 c2bd fe09 63bd 16a4 ff3c
00000010: de96 10be 8368 e2bd d002 eebd d005 f4bc
-0.15427451 -0.09504128 -0.05542945 0.031206172 -0.14120051 -0.1105509 -0.1162163 -0.029787928

localization.3.weight f4 [10, 8, 5, 5]
00000000: ddbd a6bd 0598 83bc e5f5 bdbd 2da0 9bbd
00000010: 1d11 333d bc3e 86bd a519 4a3b 88a2 df3c
00000020: d51f 85bd b79f 90bd 87df 3abc fcbe c4bd
00000030: 687e 89bd 448e e23c aa25 103d b5a4 cebc
00000040: d3b2 e63c 79cd 35bd 158b 413d 486b c6bc
00000050: 3521 c5bc bcfd a6bd 64d9 c33c e8cb 023b
00000060: 895b 3fbc 094b 90bd 6aff 5dbd b91e 27ba
00000070: d1a9 63bd f1b7 233c c82e f1bc c679 c6bd
00000080: 7a9d c4ba 4394 68bd 5590 8bbd b86c abbd
00000090: 6782 79bd 5546 c8bd 5c34 2f3d f6ff ce39
000000a0: f417 74bd 89e9 84bd bf67 9abd 9839 b9bd
000000b0: 859b 50bd c234 e03c b4a2 8bbd 264f adbd
000000c0: b509 0b3b d6fd 093d 825a 213d 7dd3 95bd
000000d0: 1fff afbd 5e54 6abd c8c5 2abd bc59 42bc
000000e0: a4e5 5eba fbcb 52bb be1f ff3c 95a6 a6bd
000000f0: a4f6 3ebd 7693 2ebc 70de 9abd 8960 8ebd
00000100: f6ee 01bd cfa6 91bd ba06 483d 014f 10bd
00000110: 9e93 e73c c626 91bc eeb4 39bc f318 91bd
00000120: 95c1 59bc af31 98bc 8c9a 93bd fdb5 303b
00000130: 8858 61bd 6f78 253d a421 8cbd 03fd 01bd
00000140: 6830 a4bb 04c8 44bd c46c f3bc 01eb 0f3c
00000150: 34f6 483d 4352 743c b132 63bd 5027 95bd
00000160: 51c3 0abd cf0d 3abd 275b 043d e42e 8a3b
00000170: bc77 c2bb 8a8c 86bd aeec 76bc 2b25 21bd
00000180: 7b31 a7bd 867d 9d3b 2264 6ebd ea1e 76bc
00000190: 661e 9fbd 66c6 c83a ecdd 673c 8eb9 0fbd
000001a0: a67b 5ebd d48b 36bd 53e5 c6bc d8b5 843c
000001b0: 2200 40bb 9f69 c4bc 5b6a 35bd b795 f03a
000001c0: 84c4 303d 8c6e 82bc 52e1 353c 6a2a 773d
000001d0: 9c29 fe3c 298f 383c 042b c3bd 3efa 483d
000001e0: 0fa9 6dbd e92c cebd deeb 93bd 57ea 87bd
000001f0: f6b7 e6bc 0e32 363d 7dc8 9d3c 31a6 b3bd
00000200: 0f42 9abd 799d 98bd 5944 4bbd e6c2 91bd
00000210: 7be0 5abc 3c27 c8ba bda3 3ebd dd0e cabb
00000220: a3b1 c4bd 3b77 6a3c 7162 9fbd 224a 14bd
00000230: b6c7 b3bd dd10 23bd 0a4a c2bc cd59 91bc
00000240: 3768 1d3d 4442 31bd ba18 4dbd 2bd5 543c
00000250: 07e3 3f3d e1de c3b9 5743 8dbd 72df c0bd
00000260: 7000 81bd 98d0 ecba 87a4 fb3c 0466 b2bd
00000270: bab3 333d 3464 00bd a689 403d 3e78 4c3d
00000280: 49a7 90bd aad2 04bc 0a02 07bd 328d 2d3a
00000290: e8c1 06bd 6600 9dba b181 9a3c 5191 54bd
000002a0: f6fe e7bc 5932 643d d229 a7bb 81d5 c2bd
000002b0: 1bb3 a2bd 77df 9cba 1bb3 653d 762c 85bd
000002c0: 2914 473d 0313 623c cc9e e23c ffcd 82bd
000002d0: f524 503d 29d8 1abc 5cee 12bc 1767 69bd
000002e0: 0337 c13c 8147 3b3d cd26 173d 53e1 6a3d
000002f0: c565 cabc 7e11 a93c 8265 bf3c 4222 293d
00000300: 1d66 87bd 3cc8 593c 6fd1 50bd 5514 18bd
00000310: ea3e 9abd fb1a 17bc 1d21 36bd 1a68 92bd
00000320: b0bf 49bc 1bae 50b9 d4e8 a33b c4e5 0a3d
00000330: 8cc5 4abd 0db5 b9bd 4e54 8ebd 3fea 8e3c
00000340: f405 2e3d 9d8f 85bd 667c dfbb bdab 043d
00000350: 7f2f 19bd f3b2 25bc c874 17bd 1aec 413d
00000360: 7c6e e0bc 2635 86bd f9ab e1bc d97d e8bc
00000370: 86a7 b9bc 7d7b f63c 35e6 bfbd 54e6 63bb
00000380: aeeb f73c 195c 75bd cc78 02bd 3484 9bb9
00000390: a191 093d 0536 80bd e381 4bbd 5772 5bbb
000003a0: f9a5 89bd fb03 c53c e2f9 603d ef73 c73c
000003b0: 392f 90bd e61b 9a3c 8e0e 84bc 23c6 533d
000003c0: cbd6 0d3c 049d 2c3d c1eb a8bd 69f4 6b3d
000003d0: e2d3 2bbd bcdd a6bd 4e1f e6bc 462f ccbc
000003e0: 8e12 283d 7827 c9bb 22dd 27bd b38c bcbc
000003f0: 1931 7d3d 6dad 633d 0ac5 1b3d 13d7 66bc
-0.08141682 -0.0160637 -0.09275416 -0.075989105 0.043717492 -0.065549344 0.003083804 0.02729918
-0.06500212 -0.07061713 -0.011405832 -0.0960674 -0.06713563 0.027655728 0.03519217 -0.025225023
0.028161442 -0.044385407 0.04725178 -0.024221078 -0.024063686 -0.08153865 0.02390737 0.0019957963
-0.0116795385 -0.07045562 -0.05419866 -0.00063751225 -0.05558187 0.0099925855 -0.029441252 -0.09691195
-0.0015000545 -0.05678202 -0.068146385 -0.08370346 -0.060915377 -0.0977904 0.042774543 0.00039482088
-0.059593156 -0.06489856 -0.07539319 -0.09044188 -0.050929565 0.027368907 -0.068181425 -0.08462362
0.0021215503 0.033689342 0.039392956 -0.07315729 -0.08593582 -0.057209365 -0.041692525 -0.011862215
-0.0008502847 -0.003216504 0.031143066 -0.08137242 -0.046621934 -0.010655275 -0.07561958 -0.06952006
-0.03172203 -0.07111894 0.04883454 -0.035231594 0.028268632 -0.017718684 -0.011334641 -0.07084837
-0.013290782 -0.018578378 -0.07207212 0.0026963942 -0.05501607 0.040398058 -0.06842354 -0.03173543
-0.0050106533 -0.048042312 -0.02971495 0.008784057 0.049062923 0.014912191 -0.055468265 -0.07282889
-0.033877674 -0.045423325 0.032313492 0.0042170156 -0.0059346836 -0.065697744 -0.015071077 -0.039342087
-0.081637345 0.0048062233 -0.058200963 -0.015022019 -0.0776947 0.0015317916 0.014152031 -0.035089068
-0.05431714 -0.044566944 -0.024279272 0.016199991 -0.0029296954 -0.023976145 -0.04429088 0.0018355165
0.043156162 -0.015921853 0.011101084 0.060343184 0.0310257 0.011264601 -0.09529689 0.049066775
-0.058022555 -0.1006716 -0.072227225 -0.06636494 -0.028163891 0.04448133 0.01926064 -0.08771933
-0.07532131 -0.074519105 -0.04962573 -0.07117252 -0.013359184 -0.0015270482 -0.04654287 -0.0061663226
-0.09604194 0.014310653 -0.07782448 -0.03620351 -0.08778326 -0.039811004 -0.023716945 -0.017743016
0.038429465 -0.043276086 -0.05007241 0.012990276 0.04684737 -0.00037359356 -0.0689761 -0.09417619
-0.062989116 -0.0018067537 0.030718101 -0.08710864 0.043872572 -0.03134556 0.04700627 0.04991936
-0.07063157 -0.008106867 -0.03296093 0.0006620466 -0.032899767 -0.0011978268 0.01886067 -0.051896397
-0.028319817 0.055712078 -0.005101421 -0.09513379 -0.07944318 -0.0011968453 0.05607901 -0.06502621
0.04860321 0.013798478 0.02766361 -0.06386947 0.050816495 -0.009450951 -0.008967962 -0.05698308
0.023585802 0.04572249 0.036902238 0.057343792 -0.02470673 0.020638224 0.023363832 0.041292436
-0.066112734 0.0132923685 -0.05098098 -0.037128765 -0.07531531 -0.009222741 -0.044465173 -0.07148762
-0.012313768 -0.00019901285 0.0050021205 0.033910528 -0.0495048 -0.09067736 -0.069496736 0.017445682
0.042486146 -0.06521533 -0.0068202494 0.032390345 -0.03739881 -0.010113466 -0.036976606 0.047344305
-0.027396433 -0.06553106 -0.027547823 -0.028380321 -0.02266289 0.03008818 -0.093700804 -0.0034774737
0.030263748 -0.059902284 -0.031853482 -0.00029662403 0.03358615 -0.062603034 -0.049684417 -0.00334849
-0.0672111 0.02404975 0.054925807 0.024347274 -0.07040257 0.018812131 -0.016120221 0.05170263
0.008657168 0.04214193 -0.082480915 0.057606135 -0.041950114 -0.08147761 -0.0280911 -0.024924885
0.04103332 -0.0061387382 -0.040982373 -0.02301631 0.0618144 0.055585314 0.038029708 -0.014089364

localization.3.bias f4 [10]
00000000: 6afb 98bd 7cb4 a5bd af23 cabd aa4f 743c
00000010: f817 a33d c18c 883c 1c93 e43d 5caf 75bb
00000020: 506b 23bd b423 75bd
-0.074698284 -0.08091065 -0.09870087 0.0149115715 0.07963556 0.01666868 0.111608714 -0.0037488556
-0.039897263 -0.059848502
