deep_emotion-100-128-0.005.pt (torch, 274842 bytes, 24 tensors)

conv1.weight f4 [10, 1, 3, 3]
-0.2695541 -0.9727663 -0.37389097 -0.7753229 -0.94415814 -0.54525775 -0.6185533 -0.7990809
-0.6567077 0.44484627 0.29992643 -0.84911215 0.45448622 -0.25082242 -0.11057655 -0.20836657
0.30551502 0.37440392 -0.21584308 0.81993675 0.47388655 -0.11620597 0.5323143 0.8175923
0.46134585 1.0519701 0.81515104 0.45817336 -0.771288 0.39887926 0.4806912 -0.8335597
0.24898489 0.58531916 -0.5281002 0.3584403 -0.46135893 -0.26916397 0.046609137 0.37408283
-0.3109169 -0.5506353 1.2331783 -0.007545291 -0.10345116 0.07180676 -0.0537749 0.024404261
-0.18680651 0.25191927 -0.040065173 0.15235344 -0.27679917 -0.09433141 0.57362205 0.41399992
-0.5863003 -0.29247615 -0.6046246 -0.3325072 -0.599145 0.8081153 0.96355987 0.11184561
0.43382367 0.91418606 0.2439786 0.11944617 0.33521056 0.9322548 0.7013038 0.9348069
-1.1889251 -1.2282639 -0.2762961 -0.8925161 -0.72818947 -0.33474737 -0.7832215 -0.8392276
-0.50235134 -0.08972199 0.6063059 0.86448365 0.5363387 0.323255 0.37762386 0.9385861
0.32671562 0.8787457
00000000: ff02 8abe 3607 79bf a36e bfbe 907b 46bf
00000010: 59b4 71bf 0396 0bbf 8259 1ebf 9190 4cbf
00000020: ff1d 28bf e4c2 e33e f58f 993e 6a5f 59bf
00000030: 6bb2 e83e cc6b 80be f575 e2bd 0c5e 55be
00000040: 776c 9c3e dfb1 bf3e f805 5dbe 60e7 513f
00000050: 42a1 f23e 65fd edbd c045 083f bb4d 513f
00000060: 8635 ec3e f5a6 863f bdad 503f b395 ea3e
00000070: 2173 45bf e739 cc3e 281d f63e 2b64 55bf
00000080: e5f5 7e3e 7ad7 153f 9331 07bf 7d85 b73e
00000090: 3d37 ecbe dccf 89be 39e9 3e3d c987 bf3e
000000a0: 8030 9fbe 6ff6 0cbf c9d8 9d3f 7d3e f7bb
000000b0: 34de d3bd 6c0f 933d 1243 5cbd 72eb c73c
000000c0: 354a 3fbe 90fb 803e 611b 24bd 8a02 1c3e
000000d0: 9fb8 8dbe d430 c1bd e5d8 123f ccf7 d33e
000000e0: c717 16bf 6fbf 95be aec8 1abf 623e aabe
000000f0: 9161 19bf a5e0 4e3f dcab 763f 500f e53d
00000100: 231e de3e 1908 6a3f 87d5 793e 32a0 f43d
00000110: b8a0 ab3e 40a8 6e3f a588 333f 814f 6f3f
00000120: b32e 98bf c037 9dbf af76 8dbe ef7b 64bf
00000130: a06a 3abf 0264 abbe 3481 48bf 9fd7 56bf
00000140: 199a 00bf 2ac0 b7bd dd36 1b3f cd4e 5d3f
00000150: 7e4d 093f ae81 a53e ea57 c13e 2e47 703f
00000160: 4547 a73e 7af5 603f

conv1.bias f4 [10]
0.016043557 -0.5686865 0.50303155 -0.19454408 -0.6296234 -0.4927139 -0.21604846 0.4741144
-0.004706747 0.5898576
00000000: c76d 833c 7095 11bf adc6 003f 9036 47be
00000010: 002f 21bf ff44 fcbe cf3b 5dbe 1fbf f23e
00000020: 0e3b 9abb e800 173f

conv2.weight f4 [10, 10, 3, 3]
0.5679783 0.5603073 0.012783889 0.45285097 0.5221125 -0.057752315 0.03384103 0.20555201
0.075141154 -0.15859167 0.18853022 -0.24085641 -0.7822035 0.07492401 -0.3871367 -1.0242103
0.27529776 0.21826662 -0.7456756 -0.40034664 -0.022619635 -0.5450573 0.16973561 0.2105751
-0.50548345 0.17145072 -0.133734 0.23686318 -0.10725746 0.016182456 0.4644901 -0.18935584
-0.34429428 -0.22761086 0.12539302 -0.33949137 -0.11618667 0.32847628 -0.030463066 -0.22987998
0.14130457 0.23368117 -0.59029615 0.18348831 0.2835959 0.035573926 0.06764709 0.08869912
0.048726913 0.01157665 -0.017751781 0.044736266 -0.067822106 -0.016297016 -0.3131121 -0.34047446
-0.26650363 0.3191961 0.7582956 0.495768 -0.39079285 -0.818304 -0.7142936 -0.9532951
-0.13432091 -0.043798715 -0.41584298 0.10322186 0.14837578 -0.26347536 0.16641138 -0.28587443
0.5542511 0.5614423 0.25259024 0.52272505 0.65598124 0.32774416 0.23159447 0.48204982
0.4119434 -1.0344536 -0.24705546 -0.009260179 -0.6307954 -0.083414346 0.09331069 -0.30435908
0.0074104685 0.011653825 -1.1435864 -0.37215722 0.48317733 -0.7088228 0.25295687 0.72642016
-0.06460597 0.77176523 1.0045569 0.19680886 -0.20214655 0.8224699 -0.18083586 0.5834609
-0.40025306 -0.29086578 -0.033324964 -0.08625708 0.1913972 -0.20536804 -0.29229915 -0.07938024
-0.68746144 -0.10188798 -0.41495064 -1.154052 0.31050277 0.47198543 -0.6509002 0.5950322
1.0935324 -0.7250288 0.7059256 1.0447191 -0.8567527 0.75957906 -0.2747369 -0.25832364
-0.086880706 0.33350173 -0.92869437 -0.054866474 0.04765077 -0.7747857 -0.11217617 0.14784761
-0.05078447 -0.049506564 0.06998168 -0.108954534 -0.19236064 -0.07836129 0.09414575 -0.070823655
-0.41229668 -0.035412777 0.69713765 0.79559803 1.3635153 -0.009580809 -0.22278088 -0.93294686
-0.9152315 -0.05693045 -0.20025983 -0.25300297 0.068592116 -0.6964092 -0.14725548 -0.021602033
-0.35514805 0.2959364 -1.3128878 -0.51950204 0.16727276 -0.851245 0.06633928 0.7300978
-0.42031664 0.7078568 1.0459687 0.13571556 0.06417342 -0.37157917 0.17188351 -0.10722793
0.31885734 0.07837108 -0.56778073 -0.011847419 -0.13675901 -0.14776 -0.015127899 -0.16670635
-0.0799943 -0.104375884 0.050635055 -0.084324576 0.039304797 -0.081145056 -0.039205387 0.09812423
0.08262813 0.00083396 0.03942687 -0.005263373 -0.04330935 -0.09193157 -0.026039138 -0.065124504
0.0044430173 -0.025865061 -0.15878361 -0.07353103 -0.0045152805 -0.055018097 -0.010654726 0.050000474
-0.0652472 -0.05291856 0.05565946 0.070310794 0.034180313 0.0015997259 0.05892004 -0.048125166
0.012410325 -0.017838167 -0.0069607883 -0.08685387 -0.03527826 0.07846798 -0.0769252 -0.04022995
0.06630471 -0.019977875 0.055890143 -0.03064405 0.027017424 0.10719908 -0.05992227 0.04470982
0.1038281 0.023460222 -0.071673825 0.028608372 -0.0762232 -0.16702999 -0.117805 -0.08278295
-0.0561294 -0.1251658 -0.051446702 0.011712442 0.07752448 -0.09772765 0.050188836 -0.07685831
-0.037696674 -0.09945214 -0.07463177 -0.026233735 -0.09291962 -0.1657355 -0.044020925 -0.12695953
00000000: 0767 113f 4d70 0f3f 8473 513c 15dc e73e
00000010: 2aa9 053f b18d 6cbd e49c 0a3d 3a7c 523e
00000020: 9be3 993d db65 22be 110e 413e 10a3 76be
00000030: 7d3e 48bf c271 993d c836 c6be 5319 83bf
00000040: d4f3 8c3e 4981 5f3e 99e4 3ebf 3cfa ccbe
00000050: d04c b9bc e088 0bbf 2ccf 2d3e 00a1 573e
00000060: 5d67 01bf c790 2f3e 91f1 08be 438c 723e
00000070: cda9 dbbd 1291 843c a5d1 ed3e 7fe6 41be
00000080: 5747 b0be d212 69be 0767 003e d0d1 adbe
00000090: 47f3 edbd 0b2e a83e ae8d f9bc a865 6bbe
000000a0: 25b2 103e 1e4a 6f3e a61d 17bf 5ce4 3b3e
000000b0: 7b33 913e f7b5 113d 8f8a 8a3d e2a7 b53d
000000c0: df95 473d fdab 3d3c 2f6c 91bc 603d 373d
000000d0: 51e6 8abd 5281 85bc 3b50 a0be ab52 aebe
000000e0: 2a73 88be ac6d a33e a91f 423f 4ed5 fd3e
000000f0: 0016 c8be 5f7c 51bf f2db 36bf 260b 74bf
00000100: 6c8b 09be 4866 33bd 5fe9 d4be fc65 d33d
00000110: d2ef 173e 3ee6 86be bf67 2a3e 225e 92be
00000120: 66e3 0d3f afba 0f3f 8253 813e 4fd1 053f
00000130: 63ee 273f 15ce a73e 1a27 6d3e 3ccf f63e
00000140: 3fea d23e fa68 84bf 1bfc 7cbe 01b8 17bc
00000150: cf7b 21bf 24d5 aabd ad19 bf3d f4d4 9bbe
00000160: 84d3 f23b afef 3e3c 0a61 92bf 648b bebe
00000170: 0563 f73e 6975 35bf 9083 813e acf6 393f
00000180: 2350 84bd 6892 453f 5295 803f 4388 493e
00000190: 81ff 4ebe 638d 523f 092d 39be b25d 153f
000001a0: f8ed ccbe 5cec 94be c27f 08bd 8da7 b0bd
000001b0: a1fd 433e 004c 52be 3ca8 95be 1b92 a2bd
000001c0: 79fd 2fbf a5aa d0bd 6974 d4be fab7 93bf
000001d0: 38fa 9e3e 13a8 f13e 65a1 26bf 0854 183f
000001e0: dff8 8b3f 7d9b 39bf 8ab7 343f 5bb9 853f
000001f0: 2554 5bbf c673 423f 51aa 8cbe ff42 84be
00000200: 83ee b1bd bdc0 aa3e eabe 6dbf abbb 60bd
00000210: 742d 433d 5b58 46bf 9fbc e5bd 5d65 173e
00000220: 6003 50bd 65c7 4abd 8e52 8f3d 8e23 dfbd
00000230: 30fa 44be e27b a0bd 7dcf c03d fe0b 91bd
00000240: 8d18 d3be fd0c 11bd 9d77 323f 50ac 4b3f
00000250: ab87 ae3f d3f8 1cbc ac20 64be 9bd5 6ebf
00000260: 9d4c 6abf e72f 69bd ea10 4dbe 9b89 81be
00000270: 067a 8c3d e047 32bf 24ca 16be bff6 b0bc
00000280: f7d5 b5be fa84 973e b50c a8bf 16fe 04bf
00000290: 8d49 2b3e 31eb 59bf e3dc 873d b0e7 3a3f
000002a0: be33 d7be 1a36 353f 4de2 853f 05f9 0a3e
000002b0: 5b6d 833d a03f bebe 3b02 303e 519a dbbd
000002c0: 4541 a33e 0481 a03d 145a 11bf ad1b 42bc
000002d0: 8e0a 0cbe 664e 17be 02db 77bc 12b5 2abe
000002e0: 0dd4 a3bd 06c3 d5bd b466 4f3d 5db2 acbd
000002f0: 11fe 203d 612f a6bd d495 20bd 5bf5 c83d
00000300: f038 a93d 1c9e 5a3a 127e 213d 5f78 acbb
00000310: 2565 31bd 9e46 bcbd 0850 d5bc ff5f 85bd
00000320: bb96 913b f7e2 d3bc 2c98 22be 7097 96bd
00000330: ebf4 93bb a85a 61bd 2991 2ebc 4ccd 4c3d
00000340: 53a0 85bd 22c1 58bd 2dfb 633d 1bff 8f3d
00000350: a800 0c3d e5ad d13a 2456 713d e51e 45bd
00000360: ad54 4b3c 5921 92bc 5317 e4bb 71e0 b1bd
00000370: f07f 10bd d2b3 a03d f68a 9dbd 29c8 24bd
00000380: c4ca 873d a4a8 a3bc 10ed 643d 3b09 fbbc
00000390: a553 dd3c 318b db3d 0e71 75bd a521 373d
000003a0: d4a3 d43d a72f c03c bac9 92bd 1b5c ea3c
000003b0: e91a 9cbd e909 2bbe bf43 f1bd 1b8a a9bd
000003c0: f1e7 65bd 772b 00be c7b9 52bd 8be5 3f3c
000003d0: 28c5 9e3d 6f25 c8bd cf92 4d3d e467 9dbd
000003e0: d467 1abd 90ad cbbd 8bd8 98bd 21e8 d6bc
000003f0: a44c bebd 91b6 29be 494f 34bd ae01 02be

conv2.bias f4 [10]
-0.069331415 0.43700764 -0.09826985 0.45320243 0.024207337 -0.27651402 0.73768425 0.3994984
0.33874723 -0.12972307
00000000: a1fd 8dbd 77bf df3e b441 c9bd 260a e83e
00000010: 774e c63c 3f93 8dbe e0d8 3c3f 0e8b cc3e
00000020: 4770 ad3e 20d6 04be

conv3.weight f4 [10, 10, 3, 3]
-0.053236306 -0.10048022 -0.086541265 -0.036709774 -0.14670755 -0.01662493 0.02349623 0.028365638
0.036992125 -0.034166243 0.06784651 -0.068544075 -0.13280447 -0.07853322 -0.047191363 -0.035105728
-0.038912423 -0.02577236 0.045941398 -0.010749702 0.058098387 -0.06982052 -0.051265243 -0.030706355
-0.103915915 0.028196715 0.09528104 -0.116132535 0.029269151 -0.12725553 -0.032569677 -0.1288263
-0.09176515 -0.06108899 0.017837802 -0.014386079 -0.048436396 -0.051956825 0.062478304 0.025700666
-0.11746641 -0.0025823994 0.036458727 -0.05880049 -0.067979716 0.064626165 0.076696694 -0.034852523
-0.11986902 -0.060015183 -0.005380944 -0.00934451 0.035610884 0.057929106 0.03194133 -0.100725904
-0.13761796 -0.06680094 -0.039425734 -0.03971819 -0.11174686 -0.06483308 -0.08912388 -0.12893619
0.10847481 0.07182229 0.022019332 -0.09751881 0.031595625 0.06849753 -0.06581512 0.017564928
0.02036119 0.032109953 0.017728595 -0.102357306 -0.09083288 0.07448047 -0.09988469 -0.12798588
-0.11531287 0.0117152585 -0.120458625 -0.097771555 0.06765589 -0.020199409 -0.09596949 0.10381399
0.0070744352 0.04037584 0.0436689 0.042952247 -0.020507641 -0.13318655 -0.04065184 -0.106444106
-0.03397954 -0.04234641 -0.07486959 -0.17835552 -0.15692082 0.040989373 -0.06928958 -0.07605269
-0.11951566 0.07537448 -0.09623187 -0.008711956 0.051448856 -0.027380934 0.09639496 -0.0038574298
-0.09721988 -0.03518376 0.03149312 -0.02240112 -0.020735467 0.041058358 -0.04216266 -0.013700387
0.026840966 0.031435065 -0.026047604 -0.06594744 0.000645716 -0.037796434 0.036734425 0.08511497
0.068948194 0.0032342526 0.121200986 0.019970082 0.0035286779 -0.121031076 -0.07234435 0.08054931
-0.041544516 0.036942024 -0.06421671 0.0738966 -0.05935603 0.023691889 0.001399431 0.0071388627
-0.01959284 -0.049837407 0.035372086 -0.09607681 0.06121391 -0.16963264 -0.053785812 -0.13190587
-0.07890391 -0.05435227 -0.09087587 -0.115201525 0.06478096 0.07936816 0.012553537 -0.012359401
-0.09596506 0.045239605 0.024466062 -0.08828822 -0.00026898662 0.05604707 0.015492003 -0.02724775
-0.04638492 -0.02327188 -0.032038853 0.04647318 0.049213763 0.087059304 0.029099964 0.10920197
0.006612129 0.110383205 0.088338286 0.040226538 0.036163103 -0.1182781 0.06552094 -0.14056271
-0.10505507 0.028109008 -0.15134114 -0.061043434 -0.09860828 -0.101051316 -0.09447056 -0.09060136
-0.034098808 -0.104428135 -0.14594817 -0.17359658 -0.27235836 -0.3259436 0.03900002 0.021662176
0.040984754 -0.04133512 -0.02684624 -0.088451944 0.015642028 0.041465543 -0.08932255 -0.039302684
-0.04073014 -0.017617958 -0.06500261 -0.023785206 0.037712365 -0.1233788 -0.12731907 -0.11267326
-0.113500096 0.0044670007 0.049836375 0.09178699 -0.004265682 0.06912345 -0.04088209 0.004230953
-0.05269236 -0.05148573 0.04060351 0.0070014414 -0.038482185 0.034314834 -0.121274136 0.027716508
-0.058253173 0.064602315 -0.115645625 -0.09743546 -0.10637895 -0.040398795 0.022219444 -0.022471098
-0.0440138 -0.115234 -0.15713759 -0.05099943 0.06718071 -0.051409986 -0.08263203 -0.06740116
-0.008767582 -0.124259025 0.036256406 -0.01623189 0.09795644 -0.052380014 -0.008054962 -0.0635678
00000000: 500e 5abd 93c8 cdbd 8c3c b1bd fd5c 16bd
00000010: 813a 16be 0131 88bc 2a7b c03c 0e5f e83c
00000020: 0e85 173d e7f1 0bbd 1cf3 8a3d d660 8cbd
00000030: e5fd 07be 06d6 a0bd bb4b 41bd 06cb 0fbd
00000040: a262 1fbd 8e20 d3bc 0c2d 3c3d 851f 30bc
00000050: 93f8 6d3d 10fe 8ebd 81fb 51bd e58b fbbc
00000060: ded1 d4bd ccfc e63c b522 c33d e5d6 edbd
00000070: dcc5 ef3c 464f 02be c867 05bd 0beb 03be
00000080: 5eef bbbd 7338 7abd 9520 923c 97b3 6bbc
00000090: 3e65 46bd aed0 54bd 40e9 7f3d 348a d23c
000000a0: 3b92 f0bd 793d 29bb bf55 153d c8d8 70bd
000000b0: f338 8bbd b95a 843d 2813 9d3d 85c1 0ebd
000000c0: e47d f5bd 7bd2 75bd a152 b0bb b719 19bc
000000d0: b8dc 113d 1247 6d3d e9d4 023d 6249 cebd
000000e0: b9eb 0cbe eece 88bd e17c 21bd 8aaf 22bd
000000f0: 8adb e4bd 35c7 84bd 9586 b6bd d907 04be
00000100: 0b28 de3d 9117 933d e361 b43c f1b7 c7bd
00000110: 6a6a 013d 6f48 8c3d 14ca 86bd 53e4 8f3c
00000120: 83cc a63c ba85 033d 8f3b 913c b5a0 d1bd
00000130: 9706 babd 3789 983d 5890 ccbd bb0e 03be
00000140: 2729 ecbd 5bf1 3f3c 03b3 f6bd 743c c8bd
00000150: 2c8f 8a3d 3b79 a5bc a78b c4bd 6e9c d43d
00000160: aad0 e73b 2361 253d 29de 323d b2ee 2f3d
00000170: a4ff a7bc 0e62 08be 8b82 26bd 5eff d9bd
00000180: 212e 0bbd 6e73 2dbd 3a55 99bd d4a2 36be
00000190: daaf 20be 79e4 273d b2e7 8dbd 83c1 9bbd
000001a0: a0c4 f4bd ef5d 9a3d 3715 c5bd 98bc 0ebc
000001b0: 09bc 523d fb4d e0bc b96a c53d efcc 7cbb
000001c0: 371b c7bd d91c 10bd eefe 003d 8e82 b7bc
000001d0: 6ddd a9bc cf2c 283d c1b2 2cbd 9777 60bc
000001e0: 96e1 db3c 0ec2 003d c961 d5bc 740f 87bd
000001f0: 4445 293a 6fd0 1abd d676 163d c250 ae3d
00000200: b634 8d3d c1f5 533b 3938 f83d 4c98 a33c
00000210: 6441 673b 24df f7bd 4629 94bd 09f7 a43d
00000220: 952a 2abd 8550 173d 0d84 83bd 1a57 973d
00000230: 4f1f 73bd 7e15 c23c 1d6d b73a 1fed e93b
00000240: 2a81 a0bc 4f22 4cbd 52e2 103d ebc3 c4bd
00000250: 70bb 7a3d 2eb4 2dbe 834e 5cbd 5512 07be
00000260: 6098 a1bd 7ca0 5ebd 211d babd c7ee ebbd
00000270: e1ab 843d c68b a23d 5aad 4d3c 167f 4abc
00000280: 5489 c4bd 2a4d 393d 0d6d c83c 74d0 b4bd
00000290: c606 8db9 9d91 653d 2cd2 7d3c ac36 dfbc
000002a0: 1dfe 3dbd aba4 bebc 2c3b 03bd a95a 3e3d
000002b0: 5f94 493d 264c b23d 0c63 ee3c 48a5 df3d
000002c0: 8faa d83b 9710 e23d b4ea b43d 95c4 243d
000002d0: c31f 143d ca3b f2bd d82f 863d acef 0fbe
000002e0: 1d27 d7bd dd44 e63c 2cf9 1abe ae08 7abd
000002f0: 23f3 c9bd fef3 cebd c879 c1bd 358d b9bd
00000300: 31ab 0bbd 6bde d5bd 7073 15be 4dc3 31be
00000310: 8e72 8bbe 14e2 a6be 7cbe 1f3d e074 b13c
00000320: a1df 273d 044f 29bd a5ec dbbc 4b26 b5bd
00000330: b623 803c c6d7 293d beee b6bd dafb 20bd
00000340: a6d4 26bd 8953 90bc 1720 85bd 31d9 c2bc
00000350: 4878 1a3d 06ae fcbd ee5f 02be 3dc1 e6bd
00000360: bd72 e8bd eb5f 923b 3a21 4c3d d1fa bb3d
00000370: 22c7 8bbb 9890 8d3d fa73 27bd cea3 8a3b
00000380: f2d3 57bd b3e2 52bd de4f 263d 596c e53b
00000390: 7f9f 1dbd b68d 0c3d 935e f8bd bb0d e33c
000003a0: e19a 6ebd 384e 843d 9dd7 ecbd 3e8c c7bd
000003b0: 35dd d9bd 3579 25bd 8d05 b63c 4f15 b8bc
000003c0: d047 34bd ceff ebbd ade8 20be c7e4 50bd
000003d0: 0a96 893d 4793 52bd fb3a a9bd 9f09 8abd
000003e0: e7a5 0fbc 847b febd 9981 143d bef8 84bc
000003f0: 639d c83d 6d8c 56bd f6f8 03bc d62f 82bd

conv3.bias f4 [10]
-0.013429668 -0.010736261 -0.13517769 0.6406234 0.30299866 0.69927603 -0.073514484 0.017703908
-0.12017246 -0.010915686
00000000: 1c08 5cbc 24e7 2fbc 056c 0abe e5ff 233f
00000010: a422 9b3e c103 333f c38e 96bd c907 913c
00000020: fb1c f6bd b5d7 32bc

conv4.weight f4 [10, 10, 3, 3]
-0.07874309 -0.08856672 0.059989337 0.022013782 -0.026287204 0.07418461 0.13410854 -0.06260836
0.09744888 -0.019211646 0.03537017 0.117636375 0.0046039396 0.064794876 0.019943634 -0.012593292
0.09739014 0.09946099 -0.10854359 -0.0749553 -0.10527188 -0.06514141 -0.09439537 -0.04734028
-0.036594428 -0.24348846 -0.09910761 -0.5917255 -0.9787263 -0.50130224 -0.6030435 -0.12965415
1.0330628 -0.55993754 0.30326515 0.50264484 0.26802433 -0.49170455 -0.4477401 -0.17058973
-0.60210425 -0.32372835 -0.81390196 -0.69211817 0.12898915 0.0015485736 -1.3805056 0.19371295
-0.6055197 0.7682091 1.377819 -0.10798936 0.8635014 0.4505596 0.04880444 -0.025268499
-0.10946444 -0.04460949 -0.13203818 -0.012702212 -0.034117434 -0.091905996 -0.061344303 0.12904015
-0.08731287 0.0017262046 -0.12750693 0.06105618 -0.03018348 -0.055206943 -0.019700762 -0.0060074516
-0.07062009 0.05588908 -0.06218853 0.07721494 -0.1154716 0.03672496 0.026664859 0.032049194
-0.010919176 -0.42026886 -0.9619372 -0.65254 -0.3780115 -0.27468377 -0.41244388 -0.72337425
-0.31858793 -0.42384875 -0.056491166 -0.09103569 0.0020287887 0.11567309 0.044680085 -0.10633996
-0.039647803 0.06639493 -0.107082315 0.06983108 0.0022277078 0.0013508791 -0.12366757 -0.00058724603
0.029030921 -0.068641454 -0.0695209 0.13775083 -0.060014684 -0.040265683 -0.15671554 -0.059704497
-0.021136984 -0.060601477 0.13747819 -0.093638085 0.016547846 0.018730229 -0.06283586 -0.18051225
0.09521332 -0.08737139 -0.07677002 0.00059601647 -0.080976866 -0.0433218 0.021425698 -0.35928616
-0.24380617 -0.12100877 -0.47602406 -0.14071149 -0.33003598 -0.3278508 0.011304879 -0.044817302
-0.025298124 -0.100488484 0.01318116 -0.094896585 -0.01315857 -0.13219921 -0.041326303 -0.09640874
-0.08858103 0.06489335 -0.120278925 0.017883573 0.012324122 0.028555784 -0.007836944 -0.051306866
-0.02170311 0.095281005 -0.10964356 0.015045387 -0.052217912 0.04429207 0.012057365 -0.077424474
-0.043605343 -0.016633518 0.07748734 0.009263775 -0.074055396 0.06172839 -0.08318106 0.018999698
0.025274206 0.023147687 -0.059066754 0.04244448 -0.16717522 -0.21182428 -0.032881215 -0.16242082
-0.1143345 0.044777032 -0.13786077 -0.10952361 -0.010090766 0.06614367 -0.04729171 0.094753094
0.060691077 -0.09918491 0.025278289 0.06495982 -0.041010007 0.008993419 -0.12137429 0.0037015402
0.14762051 -0.018238936 -0.054644413 -0.024374187 0.12913421 0.012555643 0.15627934 0.14050116
0.07949063 0.032887332 0.17982723 -0.025488868 0.020571688 0.04342346 0.09231802 -0.596142
-0.7551142 1.095591 -1.02235 -1.0381277 0.05048927 -0.34722045 -0.39487475 0.18801592
-0.79877156 -0.8421448 -0.29533976 0.25844386 -0.13825822 0.023739612 -0.23537531 -0.52386135
-0.5869859 0.32537115 -0.80246586 0.18212658 0.72886866 -0.38088855 -0.13431802 0.27459356
-0.21174212 0.65961075 0.011908498 -0.12347692 -0.07179203 -0.04159775 -0.096387506 0.0008294183
0.05086368 -0.036382277 -0.0808983 -0.034052923 -0.019048253 -0.061326925 -0.04618308 0.08779779
-0.067991555 -0.06673583 0.038721286 0.13145894 0.049523443 -0.04303956 0.03521778 0.05897917
00000000: 0f44 a1bd 7862 b5bd 61b7 753d 3f56 b43c
00000010: 4358 d7bc 1aee 973d c053 093e d038 80bd
00000020: 4793 c73d be61 9dbc 50e0 103d 57eb f03d
00000030: a5dc 963b 2db3 843d d560 a33c 1854 4ebc
00000040: 7b74 c73d 34b2 cb3d 1a4c debd 2a82 99bd
00000050: c998 d7bd dc68 85bd 5c52 c1bd e2e7 41bd
00000060: 0ae4 15bd 0a55 79be eef8 cabd 537b 17bf
00000070: cf8d 7abf 5855 00bf 0f61 1abf 0fc4 04be
00000080: 673b 843f 1158 0fbf 9245 9b3e 55ad 003f
00000090: 7c3a 893e b3c0 fbbe 313e e5be 13af 2ebe
000000a0: 8123 1abf b9bf a5be e15b 50bf a82e 31bf
000000b0: bb15 043e 82f9 ca3a 68b4 b0bf b05c 463e
000000c0: 5703 1bbf 5aa9 443f 5f5c b03f 8729 ddbd
000000d0: 6e0e 5d3f bfaf e63e 2ae7 473d e2ff cebc
000000e0: e42e e0bd 71b8 36bd 0435 07be f01c 50bc
000000f0: b9be 0bbd 3639 bcbd 2a44 7bbd 1a23 043e
00000100: 17d1 b2bd d141 e23a 2d91 02be 0c16 7a3d
00000110: 5843 f7bc ad20 62bd 7e63 a1bc 28da c4bb
00000120: 44a1 90bd f3eb 643d 66b9 7ebd de22 9e3d
00000130: 607c ecbd e96c 163d 4370 da3c 0446 033d
00000140: 58e6 32bc 7b2d d7be 8441 76bf dd0c 27bf
00000150: b98a c1be 5aa3 8cbe d82b d3be 0e2f 39bf
00000160: f51d a3be b402 d9be 4863 67bd eb70 babd
00000170: 6df5 043b 03e6 ec3d 7702 373d c4c8 d9bd
00000180: bc65 22bd 11fa 873d f94d dbbd 9903 8f3d
00000190: bcfe 113b fb0f b13a 6c45 fdbd 6af1 19ba
000001a0: 41d2 ed3c e493 8cbd f960 8ebd 8e0e 0d3e
000001b0: f5d1 75bd a1ed 24bd 0a7a 20be b48c 74bd
000001c0: 7827 adbc 4139 78bd 15c7 0c3e 53c5 bfbd
000001d0: 598f 873c 2370 993c 16b0 80bd 34d8 38be
000001e0: 33ff c23d c5ef b2bd 9a39 9dbd fd3d 1c3a
000001f0: 33d7 a5bd 3372 31bd f284 af3c 5bf4 b7be
00000200: 53a8 79be 72d3 f7bd 6db9 f3be ac16 10be
00000210: 7afa a8be 0fdc a7be 1938 393c 5992 37bd
00000220: 033e cfbc e8cc cdbd cbf5 573c 2459 c2bd
00000230: 0b97 57bc 3b5f 07be c545 29bd f271 c5bd
00000240: f969 b5bd cee6 843d cc54 f6bd 9280 923c
00000250: 1deb 493c d2ed e93c 8766 00bc 2627 52bd
00000260: b8ca b1bc b022 c33d ce8c e0bd ed80 763c
00000270: 73e2 55bd 9a6b 353d 418c 453c b990 9ebd
00000280: 849b 32bd 0443 88bc afb1 9e3d 17c7 173c
00000290: 5baa 97bd e9d6 7c3d d55a aabd 41a5 9b3c
000002a0: da0b cf3c 38a0 bd3c fbef 71bd 43da 2d3d
000002b0: fb2f 2bbe 77e8 58be 74ae 06bd a551 26be
000002c0: 3528 eabd 1f68 373d 602b 0dbe ea4d e0bd
000002d0: bd53 25bc 5576 873d f4b4 41bd e90d c23d
000002e0: 3597 783d 7521 cbbd 6a14 cf3c a709 853d
000002f0: 1cfa 27bd 2259 133c 1593 f8bd 8a95 723b
00000300: d529 173e d269 95bc d2d2 5fbd 60ac c7bc
00000310: c23b 043e 2fb6 4d3c b107 203e 89df 0f3e
00000320: fccb a23d deb4 063d a124 383e 08ce d0bc
00000330: f585 a83c ccdc 313d 3b11 bd3d c39c 18bf
00000340: 2a4f 41bf 533c 8c3f 5ddc 82bf 5ee1 84bf
00000350: d6cd 4e3d e1c6 b1be 062d cabe 3f87 403e
00000360: 4b7c 4cbf cd96 57bf c636 97be c152 843e
00000370: 9093 0dbe 9379 c23c 3a06 71be c71b 06bf
00000380: b544 16bf 0c97 a63e 676e 4dbf 647f 3a3e
00000390: 2397 3a3f d303 c3be aa8a 09be 8797 8c3e
000003a0: edd2 58be 40dc 283f dc1b 433c 78e1 fcbd
000003b0: b307 93bd 6762 2abd d066 c5bd 526d 593a
000003c0: 6f56 503d 9505 15bd 02ae a5bd 147b 0bbd
000003d0: 150b 9cbc f131 7bbd 782a 3dbd 54cf b33d
000003e0: 283f 8bbd cbac 88bd 369a 1e3d 2c9d 063e
000003f0: 18d9 4a3d 404a 30bd 8540 103d 2494 713d

conv4.bias f4 [10]
-0.13322192 -0.09107075 0.0023735932 -0.12403853 -0.0724736 0.045070488 0.033787567 -0.11923046
0.027137991 -0.07361291
00000000: 546b 08be 4d83 babd 498e 1b3b ea07 febd
00000010: 0a6d 94bd d59b 383d d564 0a3d 192f f4bd
00000020: 7e50 de3c 5ec2 96bd

norm.weight f4 [10]
0.61158687 0.4581579 0.7020551 0.2605546 0.29841524 0.6009162 0.6471635 0.5439364
0.42267162 0.5682312
00000000: f590 1c3f ac93 ea3e e2b9 333f 6a67 853e
00000010: e2c9 983e a5d5 193f 82ac 253f 6a3f 0b3f
00000020: 6a68 d83e 9a77 113f

norm.bias f4 [10]
-0.57438135 -0.55368495 -0.5736653 -0.48617277 -0.6798959 -0.5769353 -0.52482885 -0.49217397
-0.6045204 -0.46531653
00000000: a80a 13bf 4cbe 0dbf bbdb 12bf a3eb f8be
00000010: a80d 2ebf 08b2 13bf 2f5b 06bf 3afe fbbe
00000020: d9c1 1abf f83d eebe

norm.running_mean f4 [10]
-511.75113 -314.50183 -709.2375 246.13948 522.5921 -738.05804 -1118.3755 -618.5966
-1079.9529 -739.05194
00000000: 25e0 ffc3 3c40 9dc3 334f 31c4 b523 7643
00000010: e5a5 0244 b783 38c4 04cc 8bc4 2fa6 1ac4
00000020: 7efe 86c4 53c3 38c4

norm.running_var f4 [10]
593672.4 108679.51 494903.34 291517.25 205309.28 392215.28 514652.9 454953.8
362579.06 714550.9
00000000: 86f0 1049 c143 d447 eba6 f148 a857 8e48
00000010: 527f 4848 e982 bf48 9d4b fb48 3a25 de48
00000020: 620a b148 6e73 2e49

fc1.weight f4 [50, 810]
-0.054779466 -0.055461798 -0.046396293 -0.033353604 -0.038088143 0.014985873 -0.028896037 0.00032873428
-0.031423606 -0.004905781 0.034792345 -0.09016363 -0.0040913373 -0.012765305 -0.017278051 0.009855637
-0.010992366 -0.012579721 -0.10843592 -0.029909499 0.008538894 -0.032606207 -0.035251234 -0.012604211
-0.057409648 -0.028713588 -0.03255456 -0.0343573 0.040054407 0.004469238 0.03001152 -0.054650478
0.02051407 0.01473361 -0.04607557 -0.0057545505 -0.064021945 -0.033384047 -0.032064058 -0.04753944
0.06405586 -0.027327782 -0.022273764 0.03869317 0.08790982 -0.028143957 -0.0063044988 -0.03465026
0.033849478 -0.0045981496 0.015265181 -0.04872596 0.018909967 -0.05584457 0.010720708 -0.07918114
0.02448586 -0.0051149423 0.05052257 -0.035017453 0.036621317 -0.08247197 0.01616532 -0.034778103
-0.061717555 -0.0059743617 -0.06302134 0.03687803 0.046458166 -0.037685405 -0.048896138 0.054901328
-0.045617085 0.026907263 0.053053387 0.00893069 -0.028435456 -0.033019792 0.008296895 0.022231072
0.0065782755 -0.06196976 0.058514435 -0.015907895 -0.030448215 -0.030672379 -0.067081764 -0.02139083
-0.034690194 0.05813887 0.05638105 0.009074982 0.007678018 -0.020558631 0.0034860512 -0.05304244
0.0060319114 -0.003651328 -0.0128453495 0.03622586 0.018962998 -0.03859809 -0.04765502 0.0060370844
0.015571929 -0.007940376 0.008668205 0.0048129912 0.020679813 -0.043207373 0.010998427 0.030886635
-0.023674095 -0.012891963 -0.014843985 -0.014769431 0.007635885 -0.012488822 -0.059110746 -0.03905215
0.025638964 -0.036134414 -0.008380602 -0.04122372 -0.029791955 0.018972002 0.010244305 -0.0462126
7.175077e-05 -0.043641966 0.032106273 0.03348488 -0.039109208 -0.022891406 0.011637528 0.04492433
-0.06047931 -0.08190515 -0.054518234 -0.032918368 -0.014665468 -0.021597793 0.0047812364 -0.065913916
0.08071268 -0.05713878 0.029542647 -0.045742624 0.004610491 -0.04837375 -0.069971524 -0.008776379
0.015839921 0.006566084 0.021078607 0.015347564 -0.025437472 0.0148552 -0.008673169 0.06118272
0.0055271075 -0.0140469 0.07558307 -0.0046993247 -0.061824206 0.004372066 -0.011880587 -0.032794345
-0.04859958 -0.039545674 -0.06358724 -0.054149266 0.05851368 0.0085074995 -0.031615894 -0.043202847
0.013034624 -0.007409257 0.05935194 -0.022461435 0.03572963 -0.057002895 -0.02847462 -0.010682329
-0.069133565 -0.07677627 0.033751804 -0.02077599 -0.04967864 -0.037948057 -0.03144656 -0.00617251
-0.011600007 -0.009354144 -0.05594162 0.00026960898 -0.013527609 0.057804637 -0.026848473 0.021669658
-0.024257721 -0.01313156 -0.019092092 0.035991874 -0.02689005 -0.047769517 -0.037595835 0.0031789502
-0.022570089 -0.07016821 0.004852675 -0.024286082 -0.089047156 -0.017740835 -0.0035978656 -0.065274164
0.012645104 0.020198002 -0.028383862 -0.03504711 -0.018908987 -0.035914652 -0.04843427 -0.024889968
-0.058108903 -0.061182085 0.009196043 -0.007412411 0.036917023 -0.034926597 -0.015563922 -0.041093662
-0.011653974 -0.022059776 -0.038347863 -0.035073835 -0.039120633 0.060238533 -0.0030676024 -0.018480092
-0.069386065 -0.035609532 -0.022687705 -0.018593973 0.0005582475 0.004736424 -0.0111576505 -0.008799289
-0.0056468104 0.0050112912 -0.025873033 -0.034865484 0.027467607 0.012370097 0.005585542 -0.046911094
00000000: 6f60 60bd e92b 63bd 0a0a 3ebd ca9d 08bd
00000010: 5002 1cbd 4f87 753c 62b7 ecbc f859 ac39
00000020: 0ab6 00bd acc0 a0bb 6b82 0e3d b6a7 b8bd
00000030: a010 86bb 9225 51bc b38a 8dbc 8a79 213c
00000040: 5319 34bc 2d1b 4ebc a713 debd c404 f5bc
00000050: b8e6 0b3c 168e 05bd 9963 10bd e581 4ebc
00000060: 6126 6bbd c238 ebbc ee57 05bd 3dba 0cbd
00000070: 1710 243d b072 923b b8da f53c 2ed9 5fbd
00000080: 1f0d a83c 3d65 713c bdb9 3cbd ab90 bcbb
00000090: f01d 83bd b6bd 08bd 9a55 03bd b7b8 42bd
000000a0: b82f 833d 83de dfbc 7877 b6bc bb7c 1e3d
000000b0: 100a b43d 288e e6bc f895 cebb 6eed 0dbd
000000c0: c0a5 0a3d 13ac 96bb cf1a 7a3c df94 47bd
000000d0: 13e9 9a3c 47bd 64bd e9a5 2f3c b929 a2bd
000000e0: 9296 c83c 3f9b a7bb c1f0 4e3d 766e 0fbd
000000f0: 3c00 163d 10e7 a8bd 226d 843c 7c73 0ebd
00000100: 8ccb 7cbd 94c4 c3bb 5511 81bd 6b0d 173d
00000110: eb4a 3e3d 035c 1abd 5147 48bd 37e0 603d
00000120: fbd8 3abd 9f6c dc3c 824e 593d 0752 123c
00000130: 79f1 e8bc c33f 07bd b3ef 073c f01d b63c
00000140: 938e d73b 01d4 7dbd d5ac 6f3d 4651 82bc
00000150: 896e f9bc a444 fbbc 2a62 89bd d23b afbc
00000160: 4e17 0ebd 0623 6e3d d1ef 663d 3caf 143c
00000170: e297 fb3b 936a a8bc 3c76 643b 0843 59bd
00000180: 57a7 c53b 1e4b 6fbb 4d75 52bc 9161 143d
00000190: 4a58 9b3c 0819 1ebd e931 43bd bcd2 c53b
000001a0: 6721 7f3c 5a18 02bc 1605 0e3c 4cb6 9d3b
000001b0: b668 a93c 37fa 30bd bf32 343c f805 fd3c
000001c0: 2df0 c1bc d038 53bc 3034 73bc 7cfb 71bc
000001d0: 7236 fa3b eb9d 4cbc 1c1e 72bd 26f5 1fbd
000001e0: ce08 d23c ae01 14bd cb4e 09bc 34da 28bd
000001f0: 420e f4bc 2c6b 9b3c bbd7 273c 6c49 3dbd
00000200: e778 9638 ebc1 32bd de81 033d 7127 093d
00000210: fa30 20bd c286 bbbc 55ab 3e3c 9302 383d
00000220: 27b9 77bd e3bd a7bd 834e 5fbd 69d5 06bd
00000230: 6e47 70bc dbed b0bc ebab 9c3b e0fd 86bd
00000240: b14c a53d 5a0a 6abd 6c03 f23c 9e5c 3bbd
00000250: 9a13 973b 8e23 46bd 3b4d 8fbd cdca 0fbc
00000260: b9c2 813c 4e28 d73b 0bad ac3c 5974 7b3c
00000270: 3f62 d0bc 3a63 733c e819 0ebc bb9a 7a3d
00000280: bd1c b53b f824 66bc 4ccb 9a3d cbfc 99bb
00000290: 613b 7dbd 8c43 8f3b cba6 42bc 5d53 06bd
000002a0: 5a10 47bd a5fa 21bd 073a 82bd 9fcb 5dbd
000002b0: 0aac 6f3d 0a63 0b3c ab7f 01bd 78f5 30bd
000002c0: 2d8f 553c 5ac9 f2bb 051b 733d 0b01 b8bc
000002d0: 3c59 123d de7b 69bd 9b43 e9bc ef04 2fbc
000002e0: e695 8dbd e13c 9dbd 553f 0a3d 6932 aabc
000002f0: d47b 4bbd 6c6f 1bbd 1cce 00bd c442 cabb
00000300: f50d 3ebc 2042 19bc 0a23 65bd 4e5a 8d39
00000310: e8a2 5dbc 8ec4 6c3d 54f1 dbbc 9184 b13c
00000320: 21b8 c6bc c125 57bc 0567 9cbc 376c 133d
00000330: 8648 dcbc f8a9 43bd 17fe 19bd ef55 503b
00000340: e8e4 b8bc 5ab4 8fbd 3003 9f3b 9bf3 c6bc
00000350: 5b5e b6bd 3a55 91bc 2bca 6bbb 76ae 85bd
00000360: 692d 4f3c 4876 a53c 4685 e8bc 8f8d 0fbd
00000370: 05e7 9abc 3e1b 13bd 0363 46bd 0ce6 cbbc
00000380: 9a03 6ebd 119a 7abd 00ab 163c cfe3 f2bb
00000390: 4e36 173d 310f 0fbd d2ff 7ebc d451 28bd
000003a0: 4ff0 3ebc b4b6 b4bc a612 1dbd 95a9 0fbd
000003b0: f53c 20bd aebc 763d d409 49bb 9063 97bc
000003c0: 481a 8ebd 4ddb 11bd 91db b9bc 6352 98bc
000003d0: 5b57 123a 0134 9b3b 94ce 36bc e52a 10bc
000003e0: e108 b9bb c235 a43b aff3 d3bc 1ccf 0ebd
000003f0: bf03 e13c f3ab 4a3c ec06 b73b d925 40bd

fc1.bias f4 [50]
-0.3310439 0.011662285 0.41540653 -0.48812935 0.35009953 -0.32785374 0.06890199 0.094569065
-0.05884486 -0.08137157 0.14221299 0.36830935 -0.1171792 0.11126519 -0.17997076 0.006100304
-0.2522949 0.12430617 0.26499715 -0.11626231 -0.5233314 0.34270602 -0.32409805 -0.22380525
0.12717101 -0.04409018 0.022972636 0.19681828 -0.3403588 -0.14912088 -0.16302721 -0.040792447
-0.18420027 -0.30790803 0.03692219 0.7087788 0.013305934 -0.32390755 0.33422375 -0.23802684
0.24360044 0.11437187 0.6471722 -0.37583598 -0.056869972 -0.028595958 0.42310107 0.7012888
-0.34512675 0.11213583
00000000: 967e a9be 2b13 3f3c 2ab0 d43e 17ec f9be
00000010: 3f40 b33e 72dc a7be 7d1c 8d3d 6dad c13d
00000020: 4f07 71bd 23a6 a6bd 48a0 113e 0b93 bc3e
00000030: a6fb efbd 01df e33d 414a 38be 0fe5 c73b
00000040: cc2c 81be 3c94 fe3d b5ad 873e ef1a eebd
00000050: 0cf9 05bf 2a77 af3e 2ef0 a5be 342d 65be
00000060: 1e39 023e e897 34bd 1c31 bc3c bb8a 493e
00000070: 8243 aebe 25b3 18be 9bf0 26be fb15 27bd
00000080: ff9e 3cbe 1fa6 9dbe b93b 173d 8772 353f
00000090: 2201 5a3c 36d7 a5be 601f ab3e 4fbd 73be
000000a0: 6572 793e cd3b ea3d 14ad 253f 936d c0be
000000b0: 7df0 68bd 1242 eabc b4a0 d83e aa87 333f
000000c0: 74b4 b0be 78a7 e53d

fc2.weight f4 [7, 50]
0.06486858 -0.20888898 0.25796738 -0.15605384 -0.20373707 -0.42839956 0.56054777 0.010493781
-0.024208857 -0.041962925 -0.28022438 0.17722835 0.1302406 0.33983386 -0.07177327 -0.0960738
0.0008405338 -0.025792895 0.038224094 -0.10438431 -0.3313605 -0.17077506 -0.08654933 -0.26629543
-0.7191316 -0.042148545 0.18281235 -0.751388 0.18599711 -0.45731115 -0.048012935 0.09138552
0.16053389 -0.35543805 0.30845144 0.21283764 -0.54104495 0.7019272 -0.06928885 -0.70240456
-1.3737781 0.8189042 0.16729735 0.099776365 -0.014022729 -0.3574103 -0.3693914 -0.16366988
0.0079676965 -0.50561666 -0.0085789915 -0.30131325 0.09016115 -0.19732061 0.65010756 -0.31898546
-0.013171329 -0.7780529 0.08061898 0.1003286 -0.067263655 -0.4307109 -0.18501867 -0.45102692
0.09610798 -0.5178352 0.0023907174 -0.32779992 -0.6026906 -0.03334691 -0.7045056 -0.12986977
-0.051302478 0.6742987 -0.8307288 0.05241204 -1.2521017 -1.077455 0.098348774 -0.6853937
0.09168098 -0.29390505 0.05031314 -0.9967414 -1.0036734 -1.3436744 -0.22476801 -0.8627389
-0.70225805 0.9211048 -0.69667006 -1.2300975 -0.6879025 -0.10276013 0.035773676 0.0981603
-0.038677514 0.92776376 -0.010240904 -0.15275517 -0.07639661 0.4805348 -0.10715446 -0.48232734
0.383487 -0.22862457 -0.47143802 0.18933019 -0.09231123 0.056378525 0.24930309 0.047548365
-0.23176545 -0.46928227 -0.18928729 -0.23593217 -0.027425993 -0.035434682 -0.4102534 0.020604737
0.50474304 -0.32389396 -0.066537954 -0.7194026 -0.60739785 0.060776833 -0.713621 -0.7686104
-0.09344844 1.0490301 -0.16555479 -0.452688 0.11419526 -0.25047484 0.2739507 0.10020911
0.42129368 -0.5173822 0.05134548 -0.33201778 1.9162452 -0.39238814 -0.07388916 0.11518186
0.08982439 -0.5374745 0.06760507 -0.79456145 -0.009868493 0.7739423 0.04088902 -0.5714461
0.12773643 -0.10956461 -0.18812974 0.059323218 -0.38000527 -0.18328129 -0.101808734 0.06083921
0.13129154 -0.1446769 -0.3723346 -0.78358394 0.11273177 0.24944296 0.031389553 -0.2712125
0.5580966 0.08595057 -0.05683312 0.085496545 -0.0035977256 0.74237317 -0.25966516 -0.020962253
0.23791337 0.43315598 -0.26667336 0.2092161 -0.011305676 -0.45270342 0.0685213 -0.21193308
0.29311058 -0.48920134 -0.013528266 -0.16754006 0.008712657 0.28564322 -0.113297105 -0.7937493
0.11850407 -0.19935635 0.07808857 -0.18188143 0.10199714 -0.095779866 -0.0044830507 -0.75665087
-0.031256974 -0.06958542 -0.74878806 -0.42784688 0.28218174 0.53186125 -0.05933833 -0.09206713
-0.107485004 -0.012444995 0.007130098 -0.016069286 -0.05751493 -0.24967462 -0.09277687 -0.53830254
0.008059929 0.76086354 -0.1856351 -0.059394866 0.2053165 0.33023706 -0.054581713 -0.31187582
0.66681653 -0.07999207 -0.2595549 -0.24938354 -0.08960498 -0.21354902 -0.07521915 -0.15527774
-0.10521566 -0.32752094 -0.14380118 -0.13798513 0.15612477 -0.5755309 0.18349856 0.27231655
-0.7150679 -0.2479944 0.103567585 -0.27682796 -0.048413463 -0.033539467 -0.06775445 -0.3024686
-0.03788139 -0.71074396 -0.0825553 0.14611274 -0.088346355 -0.14979908 -0.38227287 0.29580373
00000000: d1d9 843d fee6 55be 4d14 843e 94cc 1fbe
00000010: 73a0 50be 3057 dbbe 0f80 0f3f 1cee 2b3c
00000020: a751 c6bc 51e1 2bbd 9279 8fbe 597b 353e
00000030: cb5d 053e b4fe ad3e ddfd 92bd 57c2 c4bd
00000040: 4557 5c3a 9f4b d3bc de90 1c3d 71c7 d5bd
00000050: 15a8 a9be a8df 2ebe c640 b1bd e057 88be
00000060: 0219 38bf f4a3 2cbd 2933 3b3e f75a 40bf
00000070: 0776 3e3e b024 eabe 36a9 44bd 5528 bb3d
00000080: ff62 243e fafb b5be 59ed 9d3e 1cf2 593e
00000090: ec81 0abf 80b1 333f 50e7 8dbd c9d0 33bf
000000a0: f6d7 afbf b5a3 513f ff4f 2b3e 8d57 cc3d
000000b0: 97bf 65bc 7cfe b6be df20 bdbe 1499 27be
000000c0: f18a 023c 1870 01bf e68e 0cbc bb45 9abe
000000d0: 69a6 b83d 6a0e 4abe 736d 263f 1052 a3be
000000e0: 8fcc 57bc 7a2e 47bf 901b a53d 1579 cd3d
000000f0: 87c1 89bd 2486 dcbe 8975 3dbe 00ed e6be
00000100: 43d4 c43d d990 04bf 95ad 1c3b 64d5 a7be
00000110: ee49 1abf c596 08bd 7b5a 34bf 95fc 04be
00000120: 8c22 52bd d79e 2c3f a5aa 54bf 02ae 563d
00000130: de44 a0bf 0cea 89bf 156b c93d f675 2fbf
00000140: 3dc3 bb3d b97a 96be 2715 4e3d 722a 7fbf
00000150: 5f78 80bf 86fd abbf 9629 66be 75dc 5cbf
00000160: 2fc7 33bf 86cd 6b3f f858 32bf d673 9dbf
00000170: 611a 30bf e773 d2bd 6b87 123d 4408 c93d
00000180: 506c 1ebd ed81 6d3f 77c9 27bc da6b 1cbe
00000190: d375 9cbd a808 f63e cc73 dbbd 9cf3 f6be
000001a0: 6858 c43e 8f1c 6abe 5360 f1be c6df 413e
000001b0: ac0d bdbd 2bed 663d 4f49 7f3e 13c2 423d
000001c0: ec53 6dbe c445 f0be 87d4 41be 3498 71be
000001d0: 7aac e0bc f523 11bd bc0c d2be 44cb a83c
000001e0: d736 013f 6ed5 a5be 0d45 88bd c52a 38bf
000001f0: 6d7e 1bbf 21f1 783d deaf 36bf a7c3 44bf
00000200: e561 bfbd 9e46 863f 3287 29be b9c6 e7be
00000210: 34df e93d 3d3e 80be 4443 8c3e 6f3a cd3d
00000220: ceb3 d73e 2973 04bf a34f 523d 3cfe a9be
00000230: 8647 f53f 19e7 c8be 3353 97bd 78e4 eb3d
00000240: daf5 b73d ee97 09bf 8774 8a3d 6168 4bbf
00000250: 76af 21bc 1521 463f 3f7b 273d 4b4a 12bf
00000260: 57cd 023e 6963 e0bd 15a5 40be e7fc 723d
00000270: 0d90 c2be 17ae 3bbe 1981 d0bd 8932 793d
00000280: 4a71 063e 2e26 14be a4a2 bebe f598 48bf
00000290: eadf e63d fa6d 7f3e 5592 003d 5ddc 8abe
000002a0: 6bdf 0e3f da06 b03d d8c9 68bd d018 af3d
000002b0: d2c7 6bbb 2b0c 3e3f d5f2 84be 08b9 abbc
000002c0: 909f 733e 9fc6 dd3e 6989 88be bf3c 563e
000002d0: 713b 39bc bec8 e7be e554 8c3d fc04 59be
000002e0: 9712 963e 9978 fabe a9a5 5dbc 9f8f 2bbe
000002f0: 88bf 0e3c d43f 923e 5008 e8bd 2733 4bbf
00000300: 43b2 f23d 1224 4cbe e6ec 9f3d 203f 3abe
00000310: e0e3 d03d 3c28 c4bd 8ee6 92bb dfb3 41bf
00000320: 5007 00bd cd82 8ebd 93b0 3fbf bf0e dbbe
00000330: 207a 903e 0f28 083f c00c 73bd b18d bcbd
00000340: 1921 dcbd 18e6 4bbc 99a3 e93b bca3 83bc
00000350: c694 6bbd b4aa 7fbe cd01 bebd 32ce 09bf
00000360: cb0d 043c f4c7 423f 2117 3ebe 0848 73bd
00000370: 7d3e 523e d514 a93e 1391 5fbd 30ae 9fbe
00000380: 7db4 2a3f e2d2 a3bd 61e4 84be 665e 7fbe
00000390: d182 b7bd 98ac 5abe 7f0c 9abd 2101 1fbe
000003a0: 4f7b d7bd d3b0 a7be 9e40 13be f94b 0dbe
000003b0: 2cdf 1f3e fe55 13bf 0ce7 3b3e 136d 8b3e
000003c0: b10e 37bf 3ef2 7dbe 3e1b d43d 65bc 8dbe
000003d0: 324d 46bd ae60 09bd d8c2 8abd 2add 9abe
000003e0: 8429 1bbd 51f3 35bf c112 a9bd 949e 153e
000003f0: efee b4bd ee64 19be 45b9 c3be 9673 973e

fc2.bias f4 [7]
0.03424804 -0.81859523 -0.05294229 0.4854289 0.014901264 -0.1234063 -0.11987355
00000000: ac47 0c3d 758f 51bf 04da 58bd 238a f83e
00000010: 6e24 743c 71bc fcbd 4480 f5bd

localization.0.weight f4 [8, 1, 7, 7]
-0.12037323 0.056972586 -0.034868028 -0.047864124 -0.047219437 -0.093728475 -0.06940887 0.11403867
0.09071355 0.12811853 -0.051708963 0.048422378 -0.12134135 -0.13849667 -0.05040453 -0.096652016
-0.13708478 0.051324874 -0.0035862408 -0.13717562 -0.053781975 -0.07084796 0.11120003 -0.08003593
0.0139963245 -0.006331946 0.1115373 0.024396284 0.079109594 -0.09444116 0.11211323 0.029277125
0.08875226 -0.07103449 0.02087936 0.058475338 -0.011946474 -0.059942946 -0.08568532 -0.051417995
-0.09565425 -0.041057255 -0.101384364 -0.11213651 -0.10853666 0.082306504 -0.0010057702 0.13059165
0.039234545 -0.089949064 0.065963544 0.063466035 -0.0014847207 0.044968385 0.03251348 0.065351546
-0.03158041 0.027515545 -0.103329465 0.13119845 -0.020802615 -0.11542497 -0.057941645 0.10117461
0.0627644 -0.05658949 0.052162383 -0.12835102 -0.124380425 -0.1251392 -0.06736216 -0.098625325
-0.049902126 -0.12493754 -0.040027685 0.124964505 -0.030320251 0.033521883 0.048535075 -0.092417724
0.06414419 0.086454876 0.103721865 0.07171779 -0.06493151 0.06188945 0.040983353 0.010374991
-0.104851484 -0.08294328 -0.0010514867 -0.07122292 -0.044426728 -0.012244905 0.0853888 -0.009768989
0.03351942 -0.08813861 -0.003375648 0.1343289 -0.089130335 0.0444828 -0.026694715 0.1348199
0.101550266 -0.081427775 0.011985813 0.093615904 -0.07543747 -0.010527279 -0.045640696 0.11073153
-0.024738077 0.06141238 0.09808338 -0.0017337252 0.056312796 -0.09074786 -0.1185489 0.10171479
-0.013950088 -0.04454344 0.06282073 -0.060041707 -0.0750156 0.076851815 0.073239386 -0.05401678
-0.01253553 -0.038136095 -0.008766464 0.016263096 0.116053365 0.08596058 -0.11910716 -0.053667605
0.13158034 -0.062297624 -0.03310201 0.07556637 -0.09702568 0.118067615 0.022901317 -0.028113345
0.08949964 -0.04325325 0.047220502 0.073964015 -0.0008495493 0.026964447 0.13335322 -0.07191136
-0.061263416 0.1035823 0.061097108 -0.01152934 0.08828252 0.06708202 0.104001895 -0.051764905
-0.061108705 -0.09506109 0.06316752 0.025829269 0.09462398 -0.041805867 0.034647822 -0.0031848128
-0.068776794 -0.04561495 -0.058444973 0.083852574 0.040652197 0.0149363745 0.06870387 0.12953427
-0.06927872 -0.02373216 0.056813955 0.03294172 0.028650038 0.016057495 0.007346298 -0.06558327
0.07410116 -0.058083657 0.036826402 0.10859502 -0.098314464 -0.0718422 0.10571667 -0.021149345
0.0115435105 -0.031182943 0.05587599 0.0095748035 0.074395135 0.058412433 0.08539013 -0.024920007
-0.14125144 0.06679362 -0.0060754335 0.0016165561 -0.06960389 -0.10722538 -0.113995105 -0.07393596
0.12596188 -0.085930064 -0.067843474 0.09813769 0.0068231737 -0.09939591 -0.018842785 -0.07298844
-0.050409254 0.07214753 -0.015031998 -0.08167124 0.017278194 0.048601445 0.022372779 -0.02019947
0.10422475 -0.071901694 0.032770608 -0.14376257 0.013688625 0.055676837 -0.11533751 0.090988494
0.035651542 0.10810052 -0.0028079592 -0.08995975 -0.1455302 -0.011188522 -0.08225016 0.08603333
-0.15252315 0.07957302 0.09557885 0.09026087 0.13320945 -0.06609018 -0.08033801 -0.116292655
-0.016340043 0.065536775 -0.018294953 0.07433634 0.04408757 -0.10128456 -0.1141999 0.056345183
00000000: 3d86 f6bd 165c 693d c7d1 0ebd 2c0d 44bd
00000010: 2b69 41bd b7f4 bfbd 3d26 8ebd 1b8d e93d
00000020: 07c8 b93d 8131 033e c7cc 53bd 8b56 463d
00000030: d081 f8bd 12d2 0dbe fb74 4ebd 7ef1 c5bd
00000040: f45f 0cbe 083a 523d 2307 6bbb c477 0cbe
00000050: 7d4a 5cbd bc18 91bd d7bc e33d e1e9 a3bd
00000060: d750 653c 367c cfbb ab6d e43d b7da c73c
00000070: 3604 a23d 5e6a c1bd 9f9b e53d 95d6 ef3c
00000080: bfc3 b53d 887a 91bd 310b ab3c d683 6f3d
00000090: 25bb 43bc bc86 75bd c97b afbd ad9b 52bd
000000a0: 60e6 c3bd a72b 28bd 9ba2 cfbd d4a7 e5bd
000000b0: 7848 debd 5090 a83d 0cd4 83ba d1b9 053e
000000c0: 67b4 203d 3737 b8bd e517 873d 7bfa 813d
000000d0: f69a c2ba c530 383d db2c 053d 08d7 853d
000000e0: 765a 01bd 4868 e13c 669e d3bd e358 063e
000000f0: 3f6a aabc ed63 ecbd 3854 6dbd a234 cf3d
00000100: 9f8a 803d 62ca 67bd 39a8 553d 736e 03be
00000110: 2abb febd 7e24 00be 2cf5 89bd 13fc c9bd
00000120: 2c66 4cbd 41df ffbd 12f4 23bd 64ed ff3d
00000130: 2d62 f8bc 3e4e 093d b7cc 463d 8145 bdbd
00000140: 075e 833d 410f b13d 216c d43d c7e0 923d
00000150: d0fa 84bd cb7f 7d3d 29de 273d defb 293c
00000160: 60bc d6bd 2bde a9bd 0ad2 89ba 53dd 91bd
00000170: cdf8 35bd db9e 48bc 53e0 ae3d 1c0e 20bc
00000180: a94b 093d 0482 b4bd fa39 5dbb 848d 093e
00000190: f789 b6bd 9933 363d e0ae dabc 3a0e 0a3e
000001a0: 96f9 cf3d 9bc3 a6bd 2560 443c b2b9 bf3d
000001b0: f67e 9abd 9c7a 2cbc bdf1 3abd 36c7 e23d
000001c0: 82a7 cabc 8c8b 7b3d f0df c83d 2a3e e3ba
000001d0: 3fa8 663d 04da b9bd c4c9 f2bd d84f d03d
000001e0: e98e 64bc 2f73 36bd 28a8 803d 4bee 75bd
000001f0: c7a1 99bd 7c64 9d3d 88fe 953d b340 5dbd
00000200: d361 4dbc 9834 1cbd 37a1 0fbc 2f3a 853c
00000210: 63ad ed3d 1a0c b03d 74ee f3bd 90d2 5bbd
00000220: ffbc 063e cb2b 7fbd f995 07bd 8ac2 9a3d
00000230: 66b5 c6bd 6fcd f13d 8b9b bb3c f54d e6bc
00000240: 964b b73d 522a 31bd 496a 413d 727a 973d
00000250: 4ab4 5eba 8be4 dc3c bf8d 083e 4346 93bd
00000260: 59ef 7abd f522 d43d f640 7a3d 8fe5 3cbc
00000270: 77cd b43d 4c62 893d f2fe d43d 7007 54bd
00000280: 1f4d 7abd 64af c2bd f95d 813d e797 d33c
00000290: 38ca c13d a13c 2bbd e0ea 0d3d 4bb8 50bb
000002a0: d9da 8cbd bed6 3abd ff63 6fbd e6ba ab3d
000002b0: eb82 263d b2b7 743c 9db4 8c3d a2a4 043e
000002c0: 00e2 8dbd f269 c2bc c0b5 683d e6ed 063d
000002d0: 7cb3 ea3c 028b 833c 37b9 f03b 8550 86bd
000002e0: 59c2 973d 21e9 6dbd 48d7 163d 1167 de3d
000002f0: 1859 c9bd 0122 93bd fb81 d83d 6441 adbc
00000300: fe20 3d3c 5f73 ffbc 39de 643d a3df 1c3c
00000310: 7a5c 983d e041 6f3d 05e1 ae3d 0b25 ccbc
00000320: 38a4 10be 18cb 883d 6e14 c7bb 9fe2 d33a
00000330: 7c8c 8ebd fb98 dbbd 4476 e9bd bd6b 97bd
00000340: 27fc 003e 1afc afbd 85f1 8abd 6afc c83d
00000350: ee94 df3b 1590 cbbd 2f5c 9abc f77a 95bd
00000360: ef79 4ebd 16c2 933d c548 76bc 4043 a7bd
00000370: 008b 8d3c 4f12 473d 1e47 b73c 5c79 a5bc
00000380: c973 d53d 3241 93bd 793a 063d 7f36 13be
00000390: 4146 603c 650d 643d 1336 ecbd 2d58 ba3d
000003a0: 5a07 123d ce63 dd3d bd05 38bb d13c b8bd
000003b0: de05 15be 1050 37bc c672 a8bd 3e32 b03d
000003c0: 072f 1cbe 2ef7 a23d d8be c33d b1da b83d
000003d0: 0f68 083e 4a5a 87bd 4188 a4bd d82a eebd
000003e0: 8edb 85bc 2538 863d 4cdf 95bc a73d 983d
000003f0: 2b95 343d 486e cfbd a3e1 e9bd 35ca 663d

localization.0.bias f4 [8]
0.017809482 -0.017056929 0.01187338 0.07790512 0.0114639355 -0.13605724 0.055040546 0.037461296
00000000: 31e5 913c f9ba 8bbc 9188 423c b88c 9f3d
00000010: 3bd3 3b3c 9752 0bbe 3272 613d 0471 193d

localization.3.weight f4 [10, 8, 5, 5]
0.046430077 0.0036082056 0.008694604 -0.08377912 0.033238675 -0.045620296 -0.07853068 0.010919971
-0.06565028 -0.025565334 0.037591446 -0.026185572 -0.06708754 -0.04931866 -0.0138272075 0.0073496713
-0.050101765 0.009363993 -0.023496082 -0.037671167 -0.10049009 -0.024235401 0.030928189 -0.08572828
0.012579156 -0.052794255 -0.00018033541 0.02010071 -0.009866532 -0.040320672 0.019259809 -0.0371459
0.0052469177 -0.0024102032 0.029589854 -0.05645252 0.03971661 -0.005678088 0.014639678 -0.06794305
0.052585382 -0.0787812 -0.024718225 -0.031499047 0.03702421 0.0031083832 -0.08589739 0.051957708
0.0020546017 0.0028342945 -0.042026106 -0.023006616 -0.0010274253 0.013320228 -0.05827691 -0.022162464
-0.05626924 -0.05586719 -0.009512433 -0.03781431 -0.06541834 0.04565163 0.031723883 -0.07155942
0.045090135 -0.015735509 0.01563416 0.048923742 -0.07327595 -0.002734808 -0.07287174 -0.043359727
-0.028157935 0.0049315984 0.046468075 -0.05830278 0.0054314584 -0.07172816 0.051329516 -0.039919022
0.008071056 0.036560882 0.014662354 0.044633564 -0.07446324 -0.037430182 -0.056985646 0.00037428146
0.054159887 -0.0579475 0.038106658 0.012425073 -0.019529803 0.055582076 -0.019594423 -0.06703555
-0.04240237 -0.006596264 0.049524218 -0.07021911 -0.07576648 -0.02585062 0.037404593 0.055659365
0.009700442 -0.08190139 0.009618766 0.029445214 0.049574558 0.03324621 -0.062064037 -0.06923655
-0.053962424 -0.04423828 0.047960293 -0.015886562 -0.08223392 0.008440665 0.045619268 0.041748174
0.04588515 0.016239526 0.01905883 -0.04057733 -0.06609247 0.054096673 0.037226215 0.001091052
-0.044123057 0.024676703 -0.05301739 0.044582415 -0.06942422 -0.06751679 0.04925727 0.04062985
-0.0027250843 0.040552005 -0.0031439 0.025755633 0.026857782 0.0051557487 -0.009086861 -0.07435488
-0.01056306 -0.015896175 -0.050317258 0.0038275518 -0.0706192 0.04857144 -0.049904384 -0.05726575
-0.051313456 0.034361303 0.03235376 -0.027547814 -0.07522203 0.030117096 0.05445375 -0.019092372
0.028311402 -0.037124254 0.020132096 -0.016147578 -0.03438566 0.02359405 0.039882563 -0.060075816
0.035167612 0.0017082633 0.041032635 -0.0659935 0.018443389 0.051283058 -0.07672084 0.047647525
-0.038598977 -0.07938769 -0.024557251 0.05295335 -0.0051307813 -0.031924095 0.032329366 0.010587589
-0.063287616 0.028918767 0.025063962 0.058043867 -0.00035197305 0.018856931 -0.06743606 -0.021247534
0.044335105 0.013190192 -0.037166007 -0.010150961 -0.04517335 -0.038486194 0.05565714 -0.08228613
-0.034164958 -0.06795279 0.04989855 -0.07980636 0.015149185 -0.040747404 0.006728059 0.038983606
-0.066030346 -0.0027744207 0.010541061 -0.017772906 0.032686792 -0.06532289 -0.0021542276 -0.052176464
0.011757253 -0.05978601 0.01198618 0.015922848 -0.031105382 0.012538036 -0.036221422 0.0015426253
-0.05312321 -0.02471532 -0.0014779561 -0.023455013 -0.071929224 0.024207937 -0.08116852 -0.036475476
0.033910822 -0.04439284 -0.082838446 -0.04429207 0.011429392 0.021992771 -0.11129337 0.008316235
0.026931848 0.011313314 -0.059323333 0.017999383 0.028566932 -0.05458533 -0.09911978 0.022305246
0.052501857 -0.052589368 -0.07576959 0.031968877 -0.060104042 -0.027565653 0.027320512 -0.029495507
00000000: 772d 3e3d a577 6c3b d073 0e3c 6394 abbd
00000010: 4725 083d 59dc 3abd b1d4 a0bd aee9 323c
00000020: a773 86bd 646e d1bc 7df9 193d 2083 d6bc
00000030: 3165 89bd 5d02 4abd 838b 62bc 83d5 f03b
00000040: 8237 4dbd 6f6b 193c db7a c0bc 154d 1abd
00000050: c0cd cdbd 5289 c6bc 1d5d fd3c 4f92 afbd
00000060: ce18 4e3c ca3e 58bd 6b18 3db9 3faa a43c
00000070: 3ca7 21bc 4a27 25bd bfc6 9d3c 4d26 18bd
00000080: 56ee ab3b 80f4 1dbb 6c66 f23c c23a 67bd
00000090: e2ad 223d 410f babb 43db 6f3c ba25 8bbd
000000a0: c563 573d 0a58 a1bd e07d cabc 2505 01bd
000000b0: b3a6 173d 04b6 4b3b f9ea afbd 9bd1 543d
000000c0: 7fa6 063b 92bf 393b 9123 2cbd 5f78 bcbc
000000d0: acaa 86ba 163d 5a3c c5b3 6ebd 0e8e b5bc
000000e0: 937a 66bd ffd4 64bd 09da 1bbc 2ee3 1abd
000000f0: 0dfa 85bd 34fd 3a3d e7f0 013d bf8d 92bd
00000100: 6fb0 383d c1e7 80bc 3613 803c 4364 483d
00000110: b411 96bd 773a 33bb c73d 95bd f899 31bd
00000120: 78ab e6bc 3f99 a13b 4f55 3e3d e5ce 6ebd
00000130: 60fa b13b 37e6 92bd e63e 523d 2182 23bd
00000140: 763c 043c ddc0 153d 5f3a 703c afd1 363d
00000150: 2f80 98bd 6450 19bd c869 69bd 353b c439
00000160: c2d6 5d3d 5c5a 6dbd ba15 1c3d 8992 4b3c
00000170: f7fc 9fbc 08aa 633d 7c84 a0bc ef49 89bd
00000180: 1cae 2dbd 7925 d8bb e8d9 4a3d 09cf 8fbd
00000190: 752b 9bbd aec4 d3bc 8f35 193d 13fb 633d
000001a0: 9aee 1e3c eabb a7bd 0798 1d3c 1737 f13c
000001b0: b10e 4b3d 2e2d 083d dc36 7ebd e4cb 8dbd
000001c0: b407 5dbd 3333 35bd 0372 443d 8924 82bc
000001d0: 426a a8bd b74a 0a3c 45db 3a3d 2200 2b3d
000001e0: 11f2 3b3d c108 853c 4321 9c3c 6a34 26bd
000001f0: 7d5b 87bd 7994 5d3d 847a 183d a101 8f3a
00000200: 61ba 34bd cc26 ca3c c328 59bd 0d9c 363d
00000210: 492e 8ebd 3e46 8abd fec1 493d 7c6b 263d
00000220: 5497 32bb dc19 263d e409 4ebb 7afd d23c
00000230: da04 dc3c 8ef1 a83b 0fe1 14bc 5f47 98bd
00000240: af10 2dbc b238 82bc 7819 4ebd aad7 7a3b
00000250: cda0 90bd d9f2 463d 8a68 4cbd 7e8f 6abd
00000260: 0f2e 52bd 70be 0c3d 6085 043d f4ab e1bc
00000270: 020e 9abd 21b8 f63c e50a 5f3d 9b67 9cbc
00000280: 50ed e73c 9a0f 18bd 11ec a43c ed47 84bc
00000290: fad7 0cbd 4f48 c13c e65b 233d 0f12 76bd
000002a0: ea0b 103d cee7 df3a d611 283d 9a27 87bd
000002b0: 9716 973c 2f0e 523d d11f 9dbd 0d2a 433d
000002c0: f619 1ebd 0396 a2bd 4a2c c9bc 9de5 583d
000002d0: 1d20 a8bb d7c2 02bd cc6b 043d 9177 2d3c
000002e0: f09c 81bd 0de7 ec3c f052 cd3c 68bf 6d3d
000002f0: 0689 b8b9 da79 9a3c eb1b 8abd 4f0f aebc
00000300: ba98 353d ad1b 583c 623b 18bd 3750 26bc
00000310: b107 39bd b3a3 1dbd bef8 633d a185 a8bd
00000320: 8ef0 0bbd d52a 8bbd 6c62 4c3d 8471 a3bd
00000330: 4a34 783c c0e6 26bd 0d77 dc3b 46ad 1f3d
00000340: eb3a 87bd 0ed3 35bb 6ab4 2c3c 7c98 91bc
00000350: 96e2 053d 02c8 85bd f12d 0dbb fdb6 55bd
00000360: 7ea1 403c 2de2 74bd af61 443c a270 823c
00000370: b7d0 febc 566c 4d3c ea5c 14bd ea31 ca3a
00000380: b997 59bd c877 cabc fab7 c1ba ba24 c0bc
00000390: a14f 93bd b94f c63c ae3b a6bd 4f67 15bd
000003a0: 13e6 0a3d 44d5 35bd 34a7 a9bd 9a6b 35bd
000003b0: 5842 3b3c 2f2a b43c c7ed e3bd d140 083c
000003c0: 2ea0 dc3c 7a5b 393c 06fd 72bd 7173 933c
000003d0: 3305 ea3c de94 5fbd 50ff cabd 7eb9 b63c
000003e0: 300c 573d f367 57bd 162d 9bbd ccf1 023d
000003f0: a82f 76bd 5dd1 e1bc 44cf df3c 90a0 f1bc

localization.3.bias f4 [10]
0.043516476 -0.06446327 0.043209437 -0.037098113 -0.03351732 0.008467235 -0.031968277 0.009761474
0.035287965 0.025396783
00000000: 553e 323d 5205 84bd 61fc 303d 31f4 17bd
00000010: 7549 09bd 28ba 0a3c 2bf1 02bd 97ee 1f3c
00000020: 1d8a 103d ea0c d03c
