Speaktrum_by_SOVA_Latest-Trained_60.pt (torch, 274842 bytes, 24 tensors)

conv1.weight f4 [10, 1, 3, 3]
000000 34 36 03 bf 89 a5 68 be 79 0e 54 be ef 72 a7 3e
       -0.5125458 -0.22719397 -0.20708646 0.32704875
000010 27 70 24 3e 6a e0 ba be 3f 4d 81 be cd 2c a1 3d
       0.16058408 -0.3649934 -0.25254247 0.07869873
000020 69 f1 0d 3f 49 87 64 be 3a 80 d4 be 9a bf ab be
       0.5544649 -0.22317232 -0.4150408 -0.33544618
000030 1e 61 3e be 80 df cf bd 1f f5 e7 be 6e 56 25 3e
       -0.18591735 -0.10150051 -0.453042 0.16146252
000040 3c df 42 3f 47 d2 6c 3e 49 49 04 3e b2 27 15 bc
       0.7612188 0.2312709 0.12918581 -0.009103702
000050 e8 3c 28 bf 54 e2 f1 3e 1e bf cd 3e c9 e1 c3 be
       -0.65717936 0.47242987 0.40184873 -0.38258198
000060 b3 66 10 3e d6 fb bc 3e fc e7 ce bd a2 73 4f bd
       0.14101677 0.36910886 -0.10102841 -0.050647385
000070 b8 7a fd 3e bb 93 55 3f 22 f6 1d bf 18 6b c4 3d
       0.4950769 0.83428544 -0.61703694 0.09590739
000080 d7 77 e4 3d 40 72 f3 3e b6 67 0c bf 01 10 00 bf
       0.1115567 0.47548103 -0.5484575 -0.5002442
000090 08 17 e0 bc 9f c2 56 3e bf 2e df be 46 6c d7 3e
       -0.027354732 0.2097268 -0.43590352 0.42074794
0000a0 4a 6a aa bc 72 c9 b8 bd f9 e2 1a 3f eb f6 12 3e
       -0.020802636 -0.09022798 0.6050258 0.14352004
0000b0 b1 fd b8 3e 81 21 44 bf d3 d2 ec 3c 2d bf 6b 3f
       0.3613105 -0.7661362 0.028909123 0.92088586
0000c0 e5 d1 21 bf 7e fa 88 3c 53 ba f2 3e de 00 55 bd
       -0.632109 0.016721006 0.4740778 -0.05200278
0000d0 90 6d 5e 3e 6a e7 4f 3e b6 96 a8 be bc 11 72 be
       0.21721482 0.20303121 -0.32927483 -0.23639578
0000e0 b0 07 5e bf c4 ff 80 bd f3 55 58 3f 38 62 a1 3e
       -0.8673048 -0.062987834 0.8450615 0.31520247
0000f0 3a 83 29 bf 74 2f be 3c b0 61 43 3f f8 53 cc be
       -0.6621586 0.023215987 0.76320934 -0.39907813
000100 45 b2 b8 be 9b 49 9b 3d d6 c0 ff be f2 3d 92 3c
       -0.3607351 0.075823985 -0.4995181 0.017851803
000110 60 35 fe be 85 0c 11 bf 50 16 4d 3b cb ad a7 3e
       -0.49650097 -0.5665973 0.0031293817 0.3274978
000120 0e 39 d0 3e 5e e3 89 be 4d 6c 24 bf a3 ca 27 3e
       0.4066853 -0.2693128 -0.64227754 0.16385894
000130 5d 7d ea 3c e3 f1 7b bd 99 90 ff 3e cd 15 7b 3d
       0.028624231 -0.061509978 0.49915007 0.061300088
000140 84 fe 0f 3f 90 4e f2 be 7b ba 0d be f5 db 14 3f
       0.56247735 -0.47325563 -0.13840668 0.5814813
000150 fb cc 84 be 7d 60 0f 3f ad a7 01 3f f9 2c 6c be
       -0.25937638 0.56006604 0.5064648 -0.2306403
000160 81 1e bb be 6d d2 a8 3d
       -0.3654671 0.082432605

conv1.bias f4 [10]
000000 01 91 83 3e 5b 7f 2c be d4 70 8d 3e 30 9f 9b be
       0.25696567 -0.16845457 0.27625144 -0.30394888
000010 9d f6 21 3f 04 4d 23 bf 5f cb 24 bf 1b 88 1c bf
       0.63266927 -0.6378939 -0.6437282 -0.6114518
000020 e1 1d 20 bd 33 c9 b0 bc
       -0.039090995 -0.021580314

conv2.weight f4 [10, 10, 3, 3]
000000 12 de de bb 3b b7 48 bd 1c 9c 0c 3e c7 56 07 bd
       -0.006801375 -0.049002867 0.13731426 -0.03304174
000010 c3 d8 70 3c 24 a0 8e 3e 67 35 b2 be 93 d5 87 3d
       0.0147001175 0.27856553 -0.34806368 0.06632533
000020 48 c1 92 be 21 92 34 be 09 9d 3d 3e d5 51 2c 3e
       -0.28663087 -0.17633869 0.18516935 0.16828091
000030 b8 88 ac 3e b4 32 52 3e 2b 13 83 be ab 33 4e 3e
       0.33698058 0.20527154 -0.25600561 0.20136897
000040 92 64 5e be 76 97 46 3e 5c ed 11 3e 41 da 95 be
       -0.21718052 0.19393715 0.14250702 -0.29268077
000050 56 4f 77 be 67 ba a8 3e 7e 97 a8 3e 92 d6 43 3e
       -0.24151358 0.32954714 0.3292808 0.19124821
000060 6d 8e bf 3e 45 f0 9c 3e 93 68 ae 3e ef 7c d8 3e
       0.3741335 0.3065206 0.3406416 0.42282817
000070 a2 7c 3e bf 28 c3 fb be 2f 0f 7c 3e 77 90 31 bf
       -0.74408925 -0.4917233 0.24615167 -0.6936106
000080 e5 16 1f bf ff 18 a3 bd f1 cb 72 3e 89 99 75 bd
       -0.6214431 -0.07963752 0.2371061 -0.059960876
000090 c1 0b 47 3d 1e 2b e3 bc 4e ba a8 bd e8 f0 fd 3d
       0.048595194 -0.02773052 -0.0823866 0.12399465
0000a0 d6 b9 df 3e d1 60 95 3e c3 55 99 3e 32 0b ad 3e
       0.4369647 0.29175428 0.29948243 0.33797604
0000b0 61 a5 cb 3c c5 bf 1e bf 5d 7d 14 bf 07 7e fc be
       0.024859132 -0.6201137 -0.5800379 -0.493149
0000c0 6d cb 09 bf ff 29 de bb 57 8b ec be f5 77 60 bd
       -0.5382603 -0.0067799087 -0.46200058 -0.0548019
0000d0 61 cd 80 be 2c a2 bc be 88 05 8a 3f 81 68 24 3e
       -0.25156692 -0.36842477 1.0782938 0.1605549
0000e0 de b1 8e bd 68 65 c8 3d d8 a4 ab 3e 56 04 1d bf
       -0.06967519 0.09784967 0.33524203 -0.6133474
0000f0 c1 86 f5 bd f8 7c 05 bf c0 d4 3d 3e 2d 9a 33 be
       -0.11988593 -0.5214381 0.18538189 -0.17539282
000100 05 e7 cb be c4 5f d2 3e 83 ca c6 bd f9 55 d3 be
       -0.3982469 0.41088688 -0.09706595 -0.4127653
000110 09 8b 92 be a7 bd 23 bd e0 cf b3 3e c8 36 f7 3d
       -0.286217 -0.03997579 0.35119534 0.120709956
000120 90 95 77 be 7d 1e 12 be b8 e5 0f be 15 96 2e 3e
       -0.24178147 -0.14269443 -0.14052474 0.17049439
000130 18 7f 82 3e c0 2e d6 3e c6 b2 40 3e 1a 53 2b 3c
       0.2548759 0.41832542 0.18818197 0.010456825
000140 68 79 57 be 26 dc 0d 3e fa a3 dd 3d 90 53 2f bf
       -0.21042407 0.13853511 0.10822292 -0.6848688
000150 e3 7e a8 be 93 ae 83 3c f4 b8 ef be 83 e6 4e 3e
       -0.32909307 0.016074454 -0.46820796 0.2020512
000160 c8 65 2d bf d5 92 b4 be 74 f9 be 3d 9b 78 4b bf
       -0.6773343 -0.35268274 0.09324923 -0.79480904
000170 eb 17 fe be 20 64 e2 3e 1d 35 a2 3e a2 55 ef bc
       -0.49627623 0.44217014 0.31681147 -0.029215638
000180 6b a5 cd 3e 85 f4 23 3c e9 06 12 bf 2e 24 45 bf
       0.40165266 0.0100070285 -0.57041794 -0.7700833
000190 59 d5 17 c0 d1 51 57 3e b6 15 c0 bd 52 46 53 3f
       -2.3723967 0.21027304 -0.09379141 0.82529175
0001a0 0f 2b 54 bf 06 97 5b 3e f1 82 ca 3e 8c 03 39 bf
       -0.828782 0.2144433 0.39553025 -0.7227104
0001b0 97 39 9a be d1 2b 4f bf fd 7f 1d 3f ba e1 50 bd
       -0.30122063 -0.80926234 0.6152342 -0.05099652
0001c0 f1 17 af 3e db 43 6f 3e 90 4d fa bc b2 b5 55 bf
       0.34197953 0.23365729 -0.030554563 -0.8348037
0001d0 fa 0d e6 bf ab 84 3a 3d 5c ae 02 3f 02 bb 37 3f
       -1.7973015 0.04553668 0.510473 0.71769726
0001e0 77 36 e7 3d 11 c2 94 3e 8c ca 74 3e 82 2e 17 bf
       0.11289685 0.2905431 0.2390539 -0.5905534
0001f0 fe 8b 81 3f b1 ba 7c bd b8 3e 0d 3f fa 50 1b be
       1.0120847 -0.06170148 0.55173826 -0.15167609
000200 1a 4a 36 3c b8 48 9e be fd dd b5 be 7e df 41 bf
       0.011126066 -0.30914855 -0.35520926 -0.75731647
000210 cb a2 3b bf 3d f5 d7 be ba ae 58 bf 9c 26 1a 3f
       -0.7329528 -0.4217929 -0.8464161 0.60215163
000220 c8 b8 11 3e 2e e0 36 3f 19 99 9c be 25 48 bb be
       0.14230645 0.7143582 -0.30585554 -0.3657848
000230 d1 85 18 be 5d 07 f6 3e 05 39 1d bf 51 4a 14 be
       -0.14894797 0.48052493 -0.6141513 -0.14481474
000240 c8 76 f3 3e 7d 98 96 be 09 f5 47 3f 22 13 a3 be
       0.4755156 -0.29413214 0.7810827 -0.31850535
000250 69 f6 e2 be e2 39 03 be 48 c6 95 be 4f ab db 3e
       -0.4432862 -0.1281505 -0.2925284 0.42904136
000260 88 d6 db be 44 15 2c 3e 30 73 54 be fa 6b 24 bf
       -0.42937112 0.16804987 -0.20747066 -0.6422726
000270 15 fb 68 3e c4 f6 8f b8 05 63 2d be 85 e3 ba 3e
       0.2275203 -6.864735e-05 -0.16932304 0.3650171
000280 d8 80 3b 3e 1c 89 8a 3e 8e 42 2a bf e1 a0 75 3f
       0.18310869 0.2705773 -0.66507804 0.95948607
000290 3a 23 25 3c 82 9b 37 3e 76 c1 8d bf 2a 47 ae bf
       0.010079199 0.17930415 -1.1074665 -1.3615468
0002a0 80 3a b9 3f 40 e5 d5 3e a9 4a 41 3f 07 aa 89 3e
       1.4470978 0.41776466 0.7550455 0.26887533
0002b0 3a 5b fd 3e 33 b6 02 3e 53 eb d9 be 16 b6 65 3e
       0.49483663 0.12764816 -0.4256235 0.22432742
0002c0 6b 31 1d be 4d a4 06 3e 10 98 a7 3e 6e b1 20 3e
       -0.15350883 0.13148613 0.32733202 0.15692684
0002d0 0a 4a b4 3e f5 44 b4 3e dd c5 30 3f 10 72 3f 3e
       0.35212737 0.3520886 0.69051915 0.18695855
0002e0 9d f5 2a 3e 00 00 ad be 29 e1 13 3d 17 93 e6 bd
       0.16695257 -0.33789062 0.0361034 -0.11258524
0002f0 c3 b4 cd 3e e8 6f 7d 3d a4 38 ce be 32 c4 9c 3d
       0.40176973 0.0618743 -0.40277588 0.07654609
000300 1e 9a 2e be f3 7f 8e 3d f3 49 b7 be af 37 fe bc
       -0.17050979 0.06957998 -0.35798606 -0.031032411
000310 35 6e 7a 3c 57 78 5f be 41 59 ae ba 34 7b 2b bd
       0.0152850645 -0.2182325 -0.0013301746 -0.041865543
000320 8f 16 8c be 6b e6 81 bd af 81 a7 3e 70 8e 5c bf
       -0.2736096 -0.06342777 0.32716128 -0.8615484
000330 fb 8d 1d 3f 2e 40 8a 3e 69 16 38 bf 72 01 71 be
       0.6154477 0.2700209 -0.71909195 -0.23535708
000340 b6 31 12 bf c6 90 74 3e 8b b6 92 be 60 e9 19 bf
       -0.571071 0.23883352 -0.28654894 -0.60121727
000350 6e 40 55 be f0 75 82 ba 07 7a ad be d3 91 12 bf
       -0.20825359 -0.0009953361 -0.33882162 -0.5725376
000360 24 60 04 bf df 65 66 3d cf 41 0b 3f d6 d3 22 bf
       -0.517092 0.056249496 0.5439729 -0.63604486
000370 db 74 3a be 99 99 c9 be 1e 42 2f bf 0f a1 eb be
       -0.1820864 -0.39374998 -0.6846026 -0.46021315
000380 65 8e 55 bf 9e 24 12 bf a7 bd 4e bf 83 ed ba be
       -0.834204 -0.57087123 -0.80758137 -0.36509332
000390 6b 97 35 be 8c 52 63 be 14 d3 77 bd f7 bd 52 bf
       -0.17733543 -0.22199458 -0.060504034 -0.82321113
0003a0 7e 6b 0f bf 24 fe 0f bf 06 c6 63 bd 6e 72 c5 bd
       -0.56023395 -0.5624716 -0.05560877 -0.09640966
0003b0 04 05 95 bd ee 64 2b 3f b0 f1 dd 3e d4 3c 07 3e
       -0.07276347 0.6695088 0.43348455 0.13206798
0003c0 b0 bf ec be 06 a4 de be 4a 07 e2 3e b8 4c ca 3d
       -0.46239996 -0.43484515 0.44146186 0.09877914
0003d0 58 84 af be b1 58 65 be 56 98 87 be e4 50 6b bd
       -0.34280658 -0.22397114 -0.2648341 -0.05745019
0003e0 09 a3 0a 3e e6 ef 4c bd e9 bf b3 3e 88 cb da bd
       0.13538755 -0.050033472 0.35107353 -0.10683352
0003f0 74 6d 69 bf 0a 7c da 3e 3b ad be 3e e6 9c eb be
       -0.9118264 0.4267276 0.3724154 -0.46018142

conv2.bias f4 [10]
000000 3d cf 14 bf b9 e5 05 3e 36 d4 6b 3f 76 d1 39 bf
       -0.5812872 0.13075913 0.92120683 -0.7258524
000010 f0 85 1d 3f 14 0e 8d 3e fb af 25 be b8 f2 8b 3e
       0.615325 0.27549803 -0.16180412 0.27333617
000020 b4 f5 bc bc 8e 6e 05 be
       -0.02306638 -0.13030455

conv3.weight f4 [10, 10, 3, 3]
000000 16 49 bc 3e ad 59 c4 bc 92 94 fa be 26 54 cc 3e
       0.3677451 -0.023968542 -0.48941475 0.3990795
000010 b5 70 bd 3e 0b 65 14 bf 3c 69 29 bd 75 fc 14 bf
       0.3700005 -0.5796668 -0.041360125 -0.5819772
000020 23 40 97 bf 58 57 bc be f3 01 bd 3e 04 4f 64 3e
       -1.1816448 -0.36785388 0.3691555 0.22295767
000030 36 63 f9 3d f7 dc 4e be d1 cd 10 3f 03 88 62 be
       0.12177126 -0.20201479 0.5656405 -0.22122197
000040 2c 06 87 be 3b b4 a7 bf 00 95 1a bf 32 94 c5 3d
       -0.26371896 -1.3101877 -0.60383606 0.09647407
000050 eb eb 25 3f 31 7b 98 bf cd dc c5 bd de 9d 7a be
       0.6481311 -1.1912595 -0.09661255 -0.24474284
000060 71 86 81 bf 8f 05 89 3e 82 b6 a1 3b 13 73 67 3e
       -1.0119153 0.26762053 0.0049350867 0.22602491
000070 2c 97 38 3f 77 3d c7 3c 47 89 c4 3e 79 c4 be bf
       0.7210567 0.0243213 0.38385984 -1.4903709
000080 5a 5c ab 3f 60 f2 84 be 43 f7 cc bf 2b 87 64 c0
       1.3387558 -0.25966167 -1.6012958 -3.57075
000090 a1 9d 0e 3f 50 2e 2d bf 14 ad a5 be 5e 15 28 3d
       0.5570927 -0.6764879 -0.3235861 0.041036002
0000a0 f2 64 a8 be f4 35 06 3e d0 47 21 be 7d a0 a2 3e
       -0.32889515 0.13106519 -0.1575005 0.31763068
0000b0 ae f6 29 3f dd c1 77 be 94 38 c2 3e f3 09 a4 bd
       0.6639203 -0.24195047 0.3793379 -0.0800971
0000c0 d4 7e 2c bf 1b 81 1d 3e 52 c9 c8 3e b5 95 53 bf
       -0.67381024 0.15381281 0.39216095 -0.8265031
0000d0 21 a6 ca 3e 91 45 c2 3e 71 2e 5a bd 00 67 ab 3d
       0.3957987 0.379437 -0.053266946 0.08369255
0000e0 1b 59 66 bd df 5e b9 bc 2f fa c2 3c 05 cf 75 3d
       -0.05623732 -0.022628246 0.023800937 0.060011882
0000f0 eb 51 c1 bd 1d 0e 3c bd 0c c9 90 bd bd 85 44 3f
       -0.09439453 -0.045911897 -0.07069597 0.7676657
000100 1d 1d 94 3e a9 7e c2 be e7 f7 4a 3f 3a 60 c3 be
       0.28928462 -0.3798726 0.7928452 -0.38159353
000110 e9 be 0b 3e 47 82 fa bf 60 f6 8f bf d0 99 af bf
       0.13647045 -1.9571007 -1.1247063 -1.3718815
000120 e6 7c bf 3e 2f ff 83 3f b8 fe 08 3e 6f 73 47 be
       0.37399977 1.0312251 0.13378417 -0.19477628
000130 58 4f 94 be 6a a2 2f bf 6f 51 6e be e3 7a d1 be
       -0.28966784 -0.686072 -0.23273252 -0.40914068
000140 f0 94 bb be 49 5e 50 3d 6b 66 05 be 3e 57 8c 3d
       -0.36637068 0.050871167 -0.1302735 0.068525776
000150 e2 66 24 3c 74 3a a3 3d ad f4 3d bd d3 a5 2e 3d
       0.010034295 0.079701334 -0.04637592 0.04263861
000160 18 b6 6c bd 94 7d 61 bd e1 81 26 bf 39 b9 86 bf
       -0.057790846 -0.0550514 -0.6504193 -1.0525275
000170 34 d0 20 bf ac 22 9a 3e 61 ac 86 be 36 0b 54 be
       -0.6281769 0.30104578 -0.2630339 -0.20707402
000180 f9 7f 0a 3f 2c a6 ad bb 49 7c 40 bf 92 df e7 be
       0.5410152 -0.0052993502 -0.75189644 -0.45287758
000190 8e a6 c0 3d 01 fd 43 3f 87 23 f4 bd 1d cc 09 3e
       0.09406768 0.7655793 -0.11920839 0.1345677
0001a0 0f 49 9a be 5b ff 89 be cb 2a 82 3e da ba 6d 3e
       -0.30133864 -0.26952633 0.25423273 0.2321581
0001b0 fe 97 2c 3f 31 1f 00 3f 9f c0 d6 bd f5 89 c4 be
       0.6741942 0.50047594 -0.10485958 -0.38386503
0001c0 4e 22 27 3e 13 bf 82 be b8 11 c0 bd 7d 07 3a bf
       0.1632168 -0.25536403 -0.093783796 -0.72667676
0001d0 b5 78 97 bd 13 2a 9c be 27 8b 93 be 2d bc dc 3e
       -0.0739607 -0.3050085 -0.28817102 0.43112317
0001e0 4a 82 9d bf cc 72 4e bf 6a 5e 28 3e 58 3c 10 bf
       -1.2305386 -0.80643916 0.16442266 -0.5634208
0001f0 a1 ff 8d bf 70 1a e8 bd e3 e2 50 bd 49 3f ac 3e
       -1.1093637 -0.113331676 -0.050997626 0.33642033
000200 39 c2 8b be bd d9 9d be e5 ba 3f 3e b6 bb 59 bf
       -0.27296618 -0.30830184 0.18723638 -0.8505205
000210 f3 d2 a4 be 3c 5f d6 3d 08 e2 00 bd be f1 5b bd
       -0.3219219 0.10467383 -0.03146556 -0.05369734
000220 54 1c ec bd ad e3 ff bb 8d 79 63 be 81 0e 1e 3f
       -0.11528841 -0.0078091235 -0.22214337 0.6174088
000230 1e 65 33 3f 9c ed df be f7 7b 7b 3e 80 9f 2d 3e
       0.7007617 -0.4373597 0.24559008 0.16955376
000240 4b dd 0b bd 76 c1 07 3d df a2 aa bd 60 1f 38 3b
       -0.03414659 0.033143483 -0.083318464 0.0028094873
000250 64 52 8d 3d 65 f4 85 3d bc d3 ef bd 2f d0 d0 3c
       0.069004804 0.06540755 -0.11710307 0.025489895
000260 d2 1a 57 bd 9f d1 25 be 90 fd 4c 3e 6c 98 be bd
       -0.052515812 -0.16193245 0.20018601 -0.09306416
000270 9e c3 a0 bf 2b 0c 83 3e 0e 46 f5 bd 0b 9d 7b 3e
       -1.2559698 0.2559522 -0.119762525 0.24571626
000280 7b 81 8b 3f 17 86 56 bf d7 d5 c1 be cb 88 41 3c
       1.0898889 -0.83798355 -0.3785846 0.011812399
000290 aa ac 2a bf 84 8a d0 3e 46 a8 f6 bd 97 45 8d be
       -0.66669714 0.4073068 -0.12043814 -0.27592155
0002a0 3f 10 81 be eb 15 21 3f b5 20 15 3f 1b 50 90 39
       -0.25207707 0.6292407 0.5825303 0.00027525504
0002b0 41 03 96 3d 2d 8e 53 bd 90 3f a7 bd 2d 4b 36 bd
       0.073248394 -0.05164926 -0.081664205 -0.044505287
0002c0 d1 45 a9 3b 80 e2 85 bd 1a 33 a1 bd 85 8e b3 bd
       0.0051657935 -0.06537342 -0.07871075 -0.08767418
0002d0 da 62 58 3d aa f9 a5 bc 85 c8 e5 bd a0 5c e9 bc
       0.052828647 -0.02026065 -0.11219887 -0.02848655
0002e0 0e c6 05 be fb 91 71 bc f8 7c db bd 6d 69 b8 bd
       -0.13063833 -0.014744277 -0.10717195 -0.09004483
0002f0 7f aa 0d be e2 58 19 be 28 b2 f9 bd c0 75 01 3d
       -0.1383457 -0.14975312 -0.12192184 0.031606436
000300 ff 07 e4 bc e9 fa 8e 3b 6f 64 be 3b ac 23 93 bd
       -0.027835844 0.004363407 0.0058103125 -0.07184538
000310 50 99 e4 3c 2f 56 0b be 6e 07 56 bd 08 27 da bd
       0.027905136 -0.13607095 -0.05225318 -0.10651976
000320 e4 20 15 be 25 7a 2e 3d 80 60 69 bd 3d 21 bc bc
       -0.14563328 0.042596955 -0.056976795 -0.022965068
000330 11 db cc bd e3 7e f3 3c 7a 43 d8 bd 6b 19 8b bd
       -0.10002721 0.02972359 -0.10559745 -0.067919575
000340 2f 03 92 bc d9 dc 9d bc 93 13 95 bd 80 ed 4c bd
       -0.017823784 -0.019270347 -0.07279124 -0.050031185
000350 c3 ac 9e bd 6f 43 46 bd 1c f3 22 be 55 ea ec bd
       -0.077477954 -0.048404153 -0.15913051 -0.11568133
000360 fc 9e 3b 3d 19 12 9f 3d c0 a1 87 3c c2 61 1f be
       0.045805916 0.07767124 0.01655662 -0.15564635
000370 13 ce ed bd df fc 3e 3d 0a e6 aa b9 6a b5 c3 bb
       -0.11611571 0.046627875 -0.0003259632 -0.005972554
000380 97 ed 72 bc 64 e1 81 3c 64 23 e8 bd 1d 8e 5d 3c
       -0.014827154 0.015854545 -0.11334875 0.013522652
000390 d6 2b 09 bc e3 97 5c bd 69 15 33 bd a0 36 c6 bd
       -0.008372268 -0.053855788 -0.04372159 -0.09678388
0003a0 bc 7b 8f bd f7 7b 1d 3d 71 ff 68 bd b5 78 88 bd
       -0.07006022 0.0384483 -0.056884233 -0.06663648
0003b0 9e 95 0e 3d 56 d8 ab 3d 50 ca 56 bd 6d e1 a4 bd
       0.034810655 0.08390872 -0.052439034 -0.08050809
0003c0 0b fc 9f bb b6 19 8c bc 15 af 9b bb be 72 fe bd
       -0.004882341 -0.017102104 -0.004751096 -0.12424229
0003d0 68 f3 a7 3d 1f ff 45 3c 8e 99 74 bd 88 b1 15 be
       0.08200723 0.012084751 -0.059716754 -0.14618504
0003e0 d7 b9 95 3d fe 30 d6 bd 28 24 ca bd 3b f5 a7 bd
       0.07310837 -0.10458563 -0.098701775 -0.08201071
0003f0 81 65 41 3d 45 1a 24 be de 51 d7 bd 57 eb 41 bd
       0.047215942 -0.16025646 -0.10513662 -0.04734358

conv3.bias f4 [10]
000000 54 21 e8 bf bc 92 8e bf 9b 41 c8 bd 90 a0 c9 bf
       -1.8135171 -1.113853 -0.09778138 -1.5752125
000010 bc 84 f0 3e 4e 77 09 bc 09 5e 9c 3f 84 53 35 40
       0.46976268 -0.008390261 1.2216197 2.8332224
000020 ac ac 23 3f 3d 08 1f 40
       0.6393535 2.4848778

conv4.weight f4 [10, 10, 3, 3]
000000 49 07 8c bf 75 f4 93 bf 73 c2 f5 be cf 15 63 3e
       -1.0939723 -1.1558977 -0.47999915 0.22176288
000010 34 5b 56 bf bc 44 59 3c 70 21 e8 3d 6d d9 ac be
       -0.83732915 0.013261016 0.11334503 -0.33759633
000020 3d 96 7a 3d 3b 20 d9 3e cc 9c 99 be ff 81 03 bf
       0.061178435 0.42407402 -0.3000244 -0.51370233
000030 c8 3c 04 3d 4f a7 84 be b1 46 fc 3e d7 9d 66 3e
       0.032284528 -0.25908896 0.49272683 0.22521149
000040 ab 57 81 bf 2f ea 78 3d 2f 9b 7d bc b2 96 00 3e
       -1.0104879 0.06077021 -0.015478893 0.12557486
000050 94 cc 0c 3e bc 23 e0 bb 6f b9 00 bc 8c 65 f3 3d
       0.13749915 -0.0068401974 -0.007856711 0.11884603
000060 ce 18 32 3d da 5b 07 bb 40 d2 4a bd 23 f5 43 bf
       0.043480687 -0.0020654113 -0.049516916 -0.76545924
000070 1c b7 42 3d ae e8 fa be d7 1c ee be e1 1f 9c bf
       0.047537908 -0.49005646 -0.46506378 -1.2197229
000080 a8 8a 24 bf bb 9f 09 bf a7 d4 49 3f 91 5d b3 3d
       -0.6427407 -0.53759354 0.78840107 0.08758081
000090 49 0c db bd 76 97 88 3e 3e 6c 94 3e 5d 17 20 3d
       -0.106957026 0.26678056 0.28988832 0.03908478
0000a0 85 40 54 3f 70 06 88 3e 01 51 a7 3d a4 0e a5 bd
       0.8291095 0.2656741 0.08169747 -0.08059433
0000b0 23 fe 42 bf 7d eb 66 be ae 04 85 3b b6 f0 cf 3e
       -0.7616903 -0.22550769 0.0040593958 0.40613335
0000c0 05 62 2a bf ef 79 9b be b8 ae 91 3e da 71 33 bf
       -0.66555816 -0.30366465 0.28453612 -0.700956
0000d0 1f ce b6 be 00 2c 17 3e de 8e 2e 3e 1b 48 a3 3d
       -0.35704133 0.14762878 0.17046687 0.079727374
0000e0 b9 b7 b4 3e b0 63 45 bf 36 af c1 3e 5a 27 d1 3e
       0.3529642 -0.77105236 0.37828988 0.40850335
0000f0 df 8e 3b be b6 07 08 bf af 81 cb be 07 e2 32 3f
       -0.1831622 -0.53136766 -0.39747378 0.6987614
000100 a8 62 52 3f fb 21 09 bf be 56 5b 3f f1 36 7c 3f
       0.8218179 -0.53567475 0.85679233 0.98521334
000110 56 fb 33 bf a9 31 04 be 51 b0 ca 3d 33 6d 40 bf
       -0.70305383 -0.12909569 0.09896911 -0.75166625
000120 fd dc 21 bf 68 09 25 bf c0 64 b5 3e 82 da 41 3d
       -0.63227826 -0.6446748 0.3542843 0.047327526
000130 55 d3 04 bf 1c 91 20 be 6d 97 dd be 6f d3 e0 3e
       -0.5188497 -0.15680355 -0.4327959 0.4391131
000140 45 c1 5a be c6 d2 0c bf 00 35 d6 3e 40 d8 09 3e
       -0.21362789 -0.55009115 0.4183731 0.13461399
000150 c3 97 05 3f 5f b5 3e 3d 84 db ee bd 6f 7c b3 be
       0.52184695 0.046559688 -0.11662963 -0.35055873
000160 63 d5 b0 be d1 7c 62 bd a0 fe 1a 3d 76 cc 29 3e
       -0.345378 -0.055294815 0.037840486 0.16581902
000170 ca e3 32 3e d5 ce 09 3f ad 22 46 3f 4d 55 0e bf
       0.17469707 0.53831226 0.7739666 -0.5559891
000180 a9 fd ea bd 48 18 fa be a7 18 bd 3f bf fc a2 bc
       -0.11474163 -0.4884665 1.4773148 -0.01989591
000190 d9 6b e7 be ca 1f 99 3e 0d 2d 67 be 56 04 f0 be
       -0.4519947 0.29907066 -0.2257578 -0.46878308
0001a0 cf 83 00 3f e2 ab 47 3d 49 cd 93 bf a7 18 b1 3e
       0.50201124 0.048747905 -1.1547023 0.3458912
0001b0 1e 5f c0 bd 48 53 a2 bd ac 92 0d bd dc 26 b6 bd
       -0.09393142 -0.07926041 -0.034563705 -0.088941306
0001c0 80 b1 51 bd 4f 4b 0d 3d b4 f1 91 bd f9 0d 52 bc
       -0.051194668 0.034495648 -0.07126179 -0.012820714
0001d0 16 13 35 3c eb db c4 3e d9 f9 06 3f 28 a8 1e bd
       0.011051914 0.38449034 0.5272499 -0.038734585
0001e0 87 51 d1 3e 5e fa d2 be 73 91 a2 3e 48 44 8f be
       0.40882513 -0.4120664 0.31751594 -0.27981782
0001f0 33 fb b6 be ec 87 94 bf f5 80 0e 3f 0c f2 b4 be
       -0.35738525 -1.160398 0.5566552 -0.35340917
000200 a3 36 49 3f 7e 6d 6d 3f d2 6e 6f bf 54 da c3 bf
       0.78598994 0.92745197 -0.93528473 -1.5301003
000210 3f 00 4c 3f 11 04 33 bf fb e9 25 bf a6 92 1c bf
       0.79687876 -0.6992808 -0.6481015 -0.6116127
000220 2c 6a 79 bd d2 77 ea be 0e 7d 1d bf d4 83 0d 3e
       -0.06089227 -0.4579454 -0.61518943 0.1381982
000230 09 cc 99 bc c7 0f 56 be 54 8d c9 3e df 3c 84 3d
       -0.01877405 -0.20904456 0.39365637 0.06456923
000240 ee c8 4f bf 61 97 10 3f 11 5a 06 3f ef e8 33 bf
       -0.8116597 0.56480986 0.5248118 -0.70277303
000250 71 57 0a bf f4 c8 5e be 0c a8 4b bf e0 b5 26 be
       -0.54039675 -0.21756345 -0.79553294 -0.16280317
000260 43 9c 07 bd 70 5c 80 be 2e 7a 38 3f 9f c0 fc be
       -0.033108007 -0.25070524 0.7206143 -0.49365708
000270 0c e2 fd bd 1f 02 ac 3e 93 f6 37 3e 65 64 af be
       -0.12396631 0.33595368 0.17965154 -0.34256282
000280 34 40 a7 be 05 91 5f 3e e5 ca 85 3e 68 ca ad 3e
       -0.3266617 0.21832664 0.2613136 0.33943486
000290 a7 7e 39 be 9c 0f d5 be 35 5d 2f be c1 cd 5b bd
       -0.1811472 -0.41613472 -0.171254 -0.05366302
0002a0 d9 7d 9a bd 88 1e 21 bf bb f8 71 3e 8c 63 63 3d
       -0.07543535 -0.6293721 0.2363004 0.055514857
0002b0 0b 7f 4d bd da c0 a9 3e 69 bc 2e bf 69 2d 49 3e
       -0.050169986 0.33154947 -0.6825624 0.19646229
0002c0 e9 88 29 3e ae 07 91 be 50 12 a8 bd 00 9e 7a 3d
       0.16556133 -0.28326172 -0.08206618 0.061185837
0002d0 c5 eb 91 bf ce 6e 9b be b3 c9 94 bc c2 60 22 bf
       -1.1400076 -0.30357975 -0.018162584 -0.6342889
0002e0 e2 9d e9 be 84 58 5d 3f 1f 67 16 bf c1 b6 99 bd
       -0.45628268 0.8646319 -0.587511 -0.07505561
0002f0 c4 7d 3a bd 53 3f 0f 3f 65 c6 01 bf e9 12 98 bf
       -0.045530096 0.55956 -0.5069335 -1.1880771
000300 5f 93 38 3f 69 82 da 3d 6d dc 2e bf 18 b0 0f 3e
       0.7209987 0.10669405 -0.68305093 0.14032018
000310 3d 9a cf 3e c1 97 30 be 34 51 88 bd d7 aa 0f 3d
       0.40547362 -0.1724539 -0.06656113 0.035075035
000320 4e d2 2f 3d e6 78 3b bd 81 5c 53 3d f1 df b7 3c
       0.04292517 -0.045769595 0.05160189 0.02244565
000330 19 70 a1 3b e9 ab c1 bc ce 4d 9c bc 70 e0 7a bf
       0.004926693 -0.023641543 -0.019080069 -0.97998714
000340 69 21 0b bf c8 8f 8b bf fc 32 8e 3f 6d ff 87 be
       -0.54347855 -1.0903254 1.1109309 -0.26562062
000350 ce c6 f5 be e5 f7 83 bf 06 d5 88 bf 5b d2 8d 3e
       -0.48003238 -1.0310026 -1.069001 0.2769955
000360 cb 76 92 3f 03 e3 0c c0 66 7b c3 3e c1 ff 4d bf
       1.1442503 -2.2013557 0.38180083 -0.80468374
000370 99 49 3d be dd d2 d4 3e 42 30 14 bf 02 b9 92 be
       -0.18485107 0.41567126 -0.57886136 -0.28656775
000380 b1 77 09 bf 5b 63 64 3d 42 da 16 be 33 d2 66 bd
       -0.5369826 0.055758815 -0.14731696 -0.056352805
000390 59 1e 3b bf 64 b7 cb 3e 45 34 e0 3d 39 b1 44 bf
       -0.7309318 0.39788353 0.109474696 -0.7683292
0003a0 b6 14 82 3e 40 8a 01 bf 50 c3 17 3f c9 28 e9 3c
       0.25406426 -0.5060158 0.592824 0.02846183
0003b0 1c bd 20 be 63 1f 87 be 64 3a a6 be 35 b1 77 be
       -0.1569714 -0.26391134 -0.32466424 -0.24188693
0003c0 7e 8f a5 3c 4d 96 6e bf b5 cb 96 3e 7c e2 89 bb
       0.020210024 -0.9319809 0.2945229 -0.0042079072
0003d0 54 06 ef bd cf 54 00 bf f5 95 ed 3e b8 00 23 be
       -0.11671129 -0.5012941 0.4640347 -0.15918243
0003e0 d4 83 1c bf ee fb fd be 30 db e3 3e 5a 58 89 3e
       -0.61138654 -0.4960627 0.44503164 0.2682522
0003f0 8f ec 84 3d 0b f6 0e 3f dd d3 1f be db 6c a0 bc
       0.064904325 0.5584418 -0.15608163 -0.019583156

conv4.bias f4 [10]
000000 dd e8 3f 3d ab b4 c5 bd 81 ce 14 be 64 bb 74 3e
       0.046852935 -0.096536 -0.145319 0.23899609
000010 8b b7 4a 3d 7e 61 91 3d 07 2a 0b 3e 18 48 0f 3f
       0.049491446 0.07098673 0.13590251 0.5596938
000020 a9 04 ca bd 8b 10 5f bd
       -0.0986417 -0.054459136

norm.weight f4 [10]
000000 1b 36 eb 3e bb bb d3 3e 85 93 ee 3e e5 74 f4 3e
       0.45939717 0.41354164 0.46596923 0.47745433
000010 35 f0 13 3f 38 df 01 3f 5f 8d 04 3f 6a d7 d5 3e
       0.577884 0.5073123 0.51778215 0.4176591
000020 e4 04 10 3f b6 67 07 3f
       0.5625746 0.52892625

norm.bias f4 [10]
000000 af 8c 11 bf dc bf f8 be f4 fc 0d bf 1f d3 2c bf
       -0.5685529 -0.48583877 -0.554641 -0.67509645
000010 1c bd 2e bf 73 2f 49 bf fe 25 28 bf 85 5a 14 bf
       -0.6825731 -0.78588027 -0.6568297 -0.5795062
000020 ba 69 42 bf 05 53 24 bf
       -0.75942576 -0.6418918

norm.running_mean f4 [10]
000000 c2 25 15 c0 5b 87 85 c0 85 f2 3c c0 0a b5 99 c0
       -2.3304296 -4.172773 -2.9523022 -4.8033495
000010 12 2e 39 c0 5c 98 ef bf a3 fa 1f c0 8e d0 ab c0
       -2.893437 -1.8718371 -2.4996727 -5.3692083
000020 20 dc 7d bf ee b0 26 c0
       -0.9916401 -2.604549

norm.running_var f4 [10]
000000 26 a4 88 41 56 ba 88 41 8f 08 6f 41 8f aa 9d 41
       17.08015 17.090984 14.9395895 19.70828
000010 96 d4 bd 41 da 0b a3 41 9d 81 8a 41 73 0e 67 41
       23.728802 20.380787 17.313288 14.441028
000020 2f 9d 76 41 4a 8a 7a 41
       15.413375 15.658762

fc1.weight f4 [50, 810]
000000 2a 80 80 be 78 6d 2c 3f a7 a9 f3 bd 6f b0 73 be
       -0.2509778 0.67354536 -0.11897593 -0.23797773
000010 3c ed ac bf bb 62 a5 bf 63 f3 81 3e 78 01 d4 3e
       -1.3509898 -1.2920755 0.25381002 0.4140737
000020 05 c7 52 3e d2 e6 30 be a2 33 da 3e 83 4b cf bf
       0.20583732 -0.17275551 0.42617518 -1.6194919
000030 02 35 9a be aa d4 1d bf 50 b8 27 be 27 ab f5 3e
       -0.30118567 -0.61652625 -0.16378903 0.4798214
000040 88 fb 0b 3e da 29 b7 be 25 2e e5 be ff 00 bb 3e
       0.1367017 -0.35774118 -0.44761768 0.36524197
000050 a3 c9 c8 3e 95 6e a1 3e a3 4e 9e bc 6d af 27 be
       0.39216337 0.3152968 -0.019324606 -0.16375513
000060 c5 e7 9d 3e c4 45 a5 3e 83 85 f7 3d e4 01 b2 bf
       0.3084089 0.3227979 0.12086012 -1.3906827
000070 32 78 d4 bd e4 86 27 c0 8e a5 19 3e 9f c8 a8 be
       -0.10374488 -2.617608 0.1500456 -0.32965562
000080 eb 97 f3 bc 28 41 92 3e 07 af 89 be e4 a9 61 3e
       -0.029735526 0.28565335 -0.26891348 0.22037464
000090 32 6f 41 bf 47 07 8f be 18 09 4b bd 21 87 1c bf
       -0.75560296 -0.2793524 -0.04956922 -0.6114369
0000a0 d0 b1 91 be 3f 60 18 3f e6 1b 4b 3d d2 82 07 bf
       -0.28455973 0.5952186 0.049587153 -0.5293399
0000b0 b9 61 df 3d 75 60 75 be e6 f1 0b bd 7f f3 e2 be
       0.10907311 -0.23962577 -0.03416624 -0.44326398
0000c0 5d 82 2f be 6d bb 89 be c9 e9 64 bd 0c 1e dd 3e
       -0.17139573 -0.26900807 -0.055887017 0.43186986
0000d0 c3 d5 66 bf 25 f7 e9 3e 2c 8c 2b be b7 bc ca be
       -0.90169924 0.4569637 -0.1675269 -0.39597103
0000e0 33 07 0d bf 50 2f 0c 3e fe 2d 6b be 45 39 cf 3e
       -0.5508911 0.13689923 -0.22966763 0.4047338
0000f0 6f e4 1f bf 3a d9 58 be 1c 55 c4 3e 7b e4 cc 3e
       -0.62457937 -0.21176615 0.38346183 0.40018067
000100 77 f2 47 3e c5 e1 45 bf b2 df 56 bd 54 f3 d5 3d
       0.19526087 -0.7729762 -0.052459426 0.10446802
000110 8a 68 14 bf 34 9b 4e be 29 cd d4 be 87 e5 2b be
       -0.57972014 -0.20176393 -0.41562775 -0.16786776
000120 97 cd 7b be 62 2e c3 3e ea 53 4f 3e 80 55 01 bf
       -0.24590145 0.38121325 0.20246854 -0.5052109
000130 91 bc 4c 3f d0 91 a9 3d 52 5d 71 bf ec b4 c6 be
       0.7997523 0.08279765 -0.9428302 -0.38809907
000140 97 61 0f be 96 fb 7b 3e f1 f3 1c bf a3 83 07 bf
       -0.14002071 0.24607691 -0.61309725 -0.52935237
000150 34 29 80 3e 93 6b 96 bf 82 11 cd be 91 46 34 be
       0.25031435 -1.1751579 -0.4005242 -0.17605044
000160 52 55 13 bf 3f d3 11 be 0a e2 cc 3d 17 82 d8 3e
       -0.57552063 -0.1424074 0.10004051 0.4228675
000170 e5 6b b2 bf d3 9b 2d bf 5d af ab bd 5e ec d0 bd
       -1.3939177 -0.67815894 -0.08383057 -0.102013335
000180 90 f2 18 3e 91 eb 0d be 5f a6 73 be c9 f9 80 3e
       0.1493628 -0.13859393 -0.23793934 0.2519057
000190 ee fe a7 3e ae 99 c5 bc 8c b2 0f be 4b d5 6a 3d
       0.32811683 -0.024121132 -0.14032954 0.05733232
0001a0 c4 43 0c 3d 99 dd 2b 3d 4d 33 03 be 3d db 03 bd
       0.034244314 0.04195938 -0.12812538 -0.032191504
0001b0 19 84 f2 bd 85 5a 70 be c7 33 2f bf b1 40 b3 bd
       -0.11841602 -0.2347203 -0.6843838 -0.08752573
0001c0 92 87 79 bd 21 bf 43 3a 7c 55 86 bd b2 d2 52 be
       -0.060920306 0.000746714 -0.065592736 -0.20588186
0001d0 a8 a2 eb be 41 68 8a 3c e3 9a 06 be 2e 43 55 c0
       -0.46022534 0.016895415 -0.13145022 -3.3322253
0001e0 a5 9c 53 3f 41 00 91 bd eb 60 30 3f 99 6e df 3e
       0.82660896 -0.070801266 0.68897885 0.43639067
0001f0 c1 d1 03 bf 52 54 1d be a8 49 d9 be 9a 27 1c be
       -0.51491934 -0.15364197 -0.42439008 -0.15249482
000200 92 77 ac bf dc de fa bd 46 87 d4 be bb 30 23 3f
       -1.347399 -0.12249538 -0.41509455 0.6374623
000210 f7 a7 05 3f e3 74 ae be f3 80 44 bf 0f cd 8a bc
       0.5220942 -0.34073552 -0.7675926 -0.016943483
000220 11 e2 3d bf 46 30 74 c0 b5 38 ff be 2e c8 e9 bf
       -0.74173075 -3.8154464 -0.49847952 -1.8264215
000230 ce ec 11 3f 54 69 14 bf 86 cf 8f 3e 8e 9c 3b be
       0.5700196 -0.5797322 0.28088015 -0.1832144
000240 57 22 df 3c 34 9b a2 be e5 fc 14 c0 50 ed 33 3e
       0.027238054 -0.31759036 -2.3279355 0.17570996
000250 37 30 fa bf d9 05 3d 3f 1f 42 5a 3e 80 3c a7 bc
       -1.9545964 0.7383705 0.21314286 -0.02041459
000260 7f 1b 45 3e fd 66 a1 3c d8 e2 cc 3e ca 1a f0 be
       0.1924877 0.019702429 0.40016818 -0.46895438
000270 d6 e6 88 bf 4c 55 42 bf c2 a2 75 3e 45 ad 30 bf
       -1.0695446 -0.759114 0.23987868 -0.6901439
000280 76 79 ae bd 37 ab de 3c 83 31 e3 be 14 c0 bb 3c
       -0.085192606 0.027181251 -0.44373712 0.022918738
000290 21 c3 14 3f 75 90 80 3e bf 1b b7 3e c3 e9 06 bf
       0.58110243 0.25110212 0.35763356 -0.5270044
0002a0 b3 1d dd 3c 90 f6 78 3e 9f be 7e 3e d3 09 2b bf
       0.0269917 0.24312806 0.24877404 -0.66811866
0002b0 da 8e 26 be a6 77 07 3e 2c f7 c1 3c f2 e0 b7 3e
       -0.16265431 0.13229236 0.023677431 0.35913807
0002c0 50 c1 15 bf 53 93 1b 3e 1b 4a a9 3e 95 39 8c 3e
       -0.58498096 0.15192918 0.3306435 0.27387682
0002d0 2d 97 b5 bf f9 17 a8 bd 52 90 b7 3d c2 de ae bd
       -1.418676 -0.082076974 0.08963074 -0.085385814
0002e0 a2 dc f4 3e c6 b4 d9 3e 25 23 f1 3d 3b 8b 83 3e
       0.4782458 0.42520732 0.117742814 0.25692162
0002f0 f9 36 cd 3e 08 7e 8e bd 0f 4e db bc 30 ab 2e bf
       0.40081003 -0.06957632 -0.02677062 -0.6822996
000300 62 5b d9 be 92 45 46 3e d1 ad 82 3e 84 16 3a be
       -0.42452532 0.19362476 0.25523236 -0.18172652
000310 3d 4c e6 3d b1 49 51 be d8 8f 33 bd 3d 0b ee 3e
       0.1124501 -0.20438267 -0.043838352 0.4649295
000320 fc 39 09 bf f7 8a 89 3e e5 0c 00 bd 57 aa 6b 3e
       -0.536041 0.26863834 -0.031262297 0.23014198
000330 5f 7a 7d 3e 76 b9 e6 3e d3 25 9b be 0b 9c 2e be
       0.24753712 0.4506337 -0.30302295 -0.17051713
000340 8a 7a 65 3d 85 c8 b5 bd 45 1e 37 3e 30 b5 62 bd
       0.056025065 -0.08876137 0.1788264 -0.055348575
000350 8d 84 67 3e 8c 56 3f 3f cf ec 0f 3f aa db 59 3e
       0.22609158 0.74741435 0.56220716 0.21275201
000360 74 70 82 bd 13 e6 d0 bd 64 77 53 be 1c f3 8c be
       -0.06369105 -0.10200133 -0.20651013 -0.27529228
000370 3f 53 9f 3c 25 7d 48 3e 0c 84 23 3d 9d 1b 31 be
       0.019448875 0.19578989 0.03992085 -0.1729569
000380 4d 58 97 be 0c 41 37 3d a9 b9 ee 3e 5a 81 2e be
       -0.29559556 0.044739768 0.46626022 -0.17041531
000390 f8 96 2a be 7d af d2 3e 29 65 a6 bc 22 6d b1 be
       -0.16659153 0.41149512 -0.020311909 -0.34653574
0003a0 b9 67 53 3e 68 6a 0c be 70 09 3b bb 9a 4d 03 be
       0.20645036 -0.13712466 -0.002853956 -0.12822571
0003b0 6a f2 45 3e b6 6a 00 3e 51 c5 b7 3d 5a cb cf 3d
       0.19330755 0.12540707 0.08973182 0.10146208
0003c0 a9 ec 90 3e 4d ef f3 3e a0 f6 fa be 24 40 81 3e
       0.28305557 0.4764351 -0.49016285 0.25244248
0003d0 85 58 5a 3d a2 1d 80 3e 31 0b 3c 3e be 28 e6 bf
       0.053307075 0.25022608 0.18363644 -1.7981184
0003e0 fb 38 3b bf 11 be f3 bd d5 3f 41 bf 66 ee 17 bf
       -0.7313382 -0.11901487 -0.75488025 -0.5934814
0003f0 f8 14 57 be 49 25 02 bf df 2e ce bd c4 57 53 3d
       -0.21004093 -0.5083814 -0.10067534 0.05159737

fc1.bias f4 [50]
000000 4d 65 0d 3f 08 ca b7 3f be 4d 6a 3f 24 16 a6 3f
       0.552327 1.435853 0.91524875 1.2975507
000010 e1 28 33 be 62 ff 5d 3f a3 50 3b 3f 61 7f 21 3f
       -0.17496063 0.8671781 0.73169917 0.6308499
000020 81 0f b6 3f 18 01 03 be 03 e9 52 3f 43 05 b0 3e
       1.4223481 -0.12793386 0.823868 0.34379014
000030 bc ad 2b be ae 0d 02 bf 82 70 a3 3f ee 4d 8c 3f
       -0.16765493 -0.50802124 1.276871 1.0961282
000040 e5 0c 98 3e 99 2c 26 3f 75 e6 fd 3e ae 2e 0b 3e
       0.29697338 0.649118 0.49589887 0.13592026
000050 18 e3 8d 3e ba 83 a0 3f 91 49 39 3f 1d b5 a1 3f
       0.2771232 1.25402 0.7237788 1.2633396
000060 f8 0c a6 3f 23 b4 82 3f f1 fc 39 3f 95 ac 00 3f
       1.2972708 1.0211223 0.7265158 0.5026334
000070 64 80 67 3f 38 da aa 3f 1a 8a bb 3d 8a 82 19 3f
       0.90430284 1.3347845 0.091572 0.5996481
000080 e7 33 0c 3f 26 03 ca 3f 23 6e 1f 3f 3f 00 84 3f
       0.54766697 1.5782211 0.6227743 1.0312575
000090 73 2d d8 3f d0 1e 19 3f c7 11 07 40 b2 2c 7b 3e
       1.688887 0.5981264 2.11046 0.24528769
0000a0 d8 33 8f 3e 34 68 17 3f bd e8 10 3f 16 1c b3 3e
       0.2796924 0.59143376 0.5660513 0.34982365
0000b0 3b 36 27 3e 53 dd 0a 3f f7 10 03 3d 12 a3 ca 3e
       0.16329281 0.54243964 0.0319986 0.39577538
0000c0 fd 6b fc 3e 9d 77 9f 3f
       0.4930114 1.2458378

fc2.weight f4 [7, 50]
000000 e6 98 be be 31 cf 77 3e fb 25 61 be 31 99 5c be
       -0.37226027 0.24200131 -0.21987145 -0.21542813
000010 50 e5 91 be 64 e1 d4 be c5 4f 47 be 94 e7 9a 3f
       -0.28495264 -0.4157821 -0.19464023 1.2101922
000020 86 41 79 3e fd 47 ad be fa 65 99 be 90 f3 62 be
       0.24341401 -0.33843985 -0.29960614 -0.22163224
000030 d9 6d 8b 3d 18 2f 16 3f d9 8f 82 be ea b4 9d be
       0.06808061 0.5866561 -0.25500372 -0.3080209
000040 73 a8 42 be d9 75 8f be 90 ca fd be 7b df d8 be
       -0.19009571 -0.28019598 -0.49568605 -0.42358002
000050 e4 64 a2 bf b4 87 33 be a3 75 b4 be ca a2 a0 be
       -1.2687039 -0.17532235 -0.35246 -0.31374198
000060 79 5b b4 be a6 67 71 3d 84 cd be be 5a d9 24 3f
       -0.35226038 0.058936737 -0.3726617 0.6439415
000070 b2 0e 40 be 48 6c 52 3f 1c 02 ec be e3 b0 c4 be
       -0.18755606 0.82196474 -0.4609536 -0.38416204
000080 8e 68 00 3f 3b 8d a4 be d5 20 19 3f b0 86 c8 be
       0.5015954 -0.32139 0.5981572 -0.39165258
000090 5f 39 d0 3e b7 42 74 be f0 00 56 bd 09 1b d3 bf
       0.4066877 -0.23853575 -0.052246988 -1.6492625
0000a0 0e 74 51 be c4 64 88 be 59 cf 45 be 47 25 a0 be
       -0.20454428 -0.26639378 -0.19317378 -0.3127844
0000b0 7b 05 8b be 91 8b a1 be 13 21 95 be 6d 81 ea be
       -0.2715262 -0.31551793 -0.29126796 -0.4580187
0000c0 48 62 03 3f 9e 3b 2a bf b7 c6 42 bf 5b 25 14 bf
       0.5132184 -0.6649722 -0.76084465 -0.578695
0000d0 06 82 94 be ab 2d 25 be 4a 4c e7 3e 12 5b d1 bd
       -0.2900545 -0.16130702 0.4517539 -0.102224484
0000e0 b4 d7 a8 3f 19 e4 89 bf 8a 5f a0 bd b0 5b 88 3e
       1.3190827 -1.0772735 -0.07830723 0.26632452
0000f0 8a 29 e8 be f7 c4 e1 bd 03 52 b9 bd 8a dd 58 be
       -0.45344192 -0.11023896 -0.090488456 -0.2117826
000100 4c 6c f3 be c2 72 f0 be 45 7d 88 be ca 99 fb be
       -0.4754356 -0.46962553 -0.26658073 -0.4914077
000110 b5 e6 c9 be 2d 6c 05 3e 44 db b7 be ea 89 d5 be
       -0.39433828 0.13029547 -0.35909474 -0.41706783
000120 84 fa 03 bf ea 7f 57 3d 2d 51 94 be 83 db 29 bf
       -0.5155413 0.052612223 -0.28968182 -0.66350573
000130 0c f9 64 bf 99 c8 62 3d 89 24 22 bf 54 56 15 bf
       -0.89442515 0.055367086 -0.63337 -0.5833485
000140 38 a5 69 3f 6a 4a 24 bf 2e 7f 6b be 28 ca e0 be
       0.9126773 -0.64176047 -0.22997734 -0.43904233
000150 c5 b8 1b bf af e8 48 be 9f e7 30 bf 65 6b ae be
       -0.6082881 -0.19620012 -0.69103426 -0.3406631
000160 4a d3 70 bb ca 40 b2 bf be 40 bb be 34 b7 bb be
       -0.0036747032 -1.3926022 -0.36572832 -0.3666321
000170 f4 0f 2c be ba 25 dd 3c 60 58 75 bd 86 dc da 3d
       -0.1680296 0.026995528 -0.059898734 0.10686593
000180 2a 85 aa be b1 88 3a bf 4a 51 24 bf e7 1c 87 bf
       -0.3330472 -0.72864825 -0.6418654 -1.0555695
000190 ea 7e 2d bf 15 65 dd bd 7f cc b6 be f1 73 b9 be
       -0.6777178 -0.108102955 -0.35702893 -0.3622127
0001a0 dd 4b 0b be e7 1f a6 be 16 e7 b4 be d1 01 29 bf
       -0.13603158 -0.32446215 -0.35332555 -0.66018397
0001b0 9f 6b e6 be ac 33 b4 3e f3 2f b1 be d0 89 4f be
       -0.45003983 0.35195673 -0.34606895 -0.20267415
0001c0 52 30 f2 bd 90 60 96 be fc 68 a9 39 91 41 ac be
       -0.118256226 -0.29370546 0.0003231241 -0.33643773
0001d0 3e 89 ab be 70 35 65 bc 84 c3 da be 28 6e d9 be
       -0.33503145 -0.013989791 -0.42727292 -0.42466855
0001e0 2d 34 95 bf d3 e9 3d 3e 6a c6 a3 be d2 43 ad bc
       -1.1656548 0.18546228 -0.31987315 -0.021150503
0001f0 8e 4b 45 be 23 20 06 3f c2 7a 02 bf cf 6c 79 be
       -0.19267103 0.52392787 -0.50968564 -0.24357913
000200 d1 41 e1 3e e3 6d 2b bf a2 6f af be de a7 b7 be
       0.43995526 -0.6696455 -0.34264857 -0.3587026
000210 38 87 2a bd 37 d3 95 be 64 d3 99 3e fb 28 29 be
       -0.04163286 -0.29262707 0.3004409 -0.16519539
000220 93 9f ce 3b c0 d9 11 3f 20 20 83 3d 2d 8f 6f bf
       0.006305644 0.56972885 0.06402612 -0.93577844
000230 09 5c af bc 17 6b 68 be 83 b3 4e bb 24 86 a6 be
       -0.02140619 -0.22697102 -0.0031540103 -0.32524216
000240 43 79 6e 3e 91 d5 88 be 8c bd 92 be db 2f a5 be
       0.23288445 -0.26725438 -0.28660238 -0.32263073
000250 b6 9b a7 3e 34 f6 93 3f a9 30 4f 3f 00 9d 1b be
       0.32735986 1.155951 0.80933625 -0.1519661
000260 ae 55 63 be da 60 90 be 02 f9 8b 3c e5 8c b5 be
       -0.22200653 -0.28198892 0.01708651 -0.35459056
000270 08 ce 05 3e 24 fd 2a bf 58 a1 25 3e b6 f5 9b be
       0.13066876 -0.6679251 0.16174829 -0.304609
000280 cb 82 d4 be c3 eb 7b be b5 56 68 bd bd d4 93 be
       -0.41506037 -0.24601655 -0.056723315 -0.28873244
000290 8d e0 31 be a4 63 d4 be a6 8a 07 3f 9a e9 74 3e
       -0.17370816 -0.4148227 0.52945936 0.23917237
0002a0 63 44 f6 be fe d9 dd be 01 c1 cb bf 2d 1e 86 be
       -0.4809905 -0.43330377 -1.5918275 -0.26194897
0002b0 75 74 dc be f1 f7 d1 3e cf c8 5d 3e 14 45 30 be
       -0.430576 0.41009477 0.21658634 -0.17213851
0002c0 86 93 08 3f e3 06 77 be 88 62 a8 bd 88 f5 c9 be
       0.533501 -0.24123721 -0.08221918 -0.39445138
0002d0 62 36 a0 3e 4f 29 f4 be 73 25 35 be c7 6a 07 3f
       0.3129149 -0.47687766 -0.17690067 0.52897304
0002e0 53 ab 57 be fd 3f b9 be 54 24 61 3e de 17 84 bc
       -0.21061449 -0.36181632 0.21986514 -0.016124662
0002f0 04 97 60 3e 77 77 8f bf 7a eb ba 3e d9 9f a0 be
       0.21932608 -1.1208333 0.3650778 -0.31371954
000300 6e c1 9c bd a0 c4 80 3e c3 a3 a2 be 3a 86 8c be
       -0.07654081 0.25150013 -0.31765565 -0.27446157
000310 9b 26 9c be 63 b3 c6 3e 53 b9 9e be c1 f2 04 bf
       -0.30498204 0.38808736 -0.31000766 -0.51932913
000320 3a 53 09 bf c3 ad c7 3e f3 81 04 3f 21 ae 33 3f
       -0.5364262 0.38999757 0.51760787 0.70187575
000330 9e ea bb be 21 80 47 3f 76 82 37 be de 36 1d bf
       -0.36702436 0.77929884 -0.1792086 -0.61411846
000340 3c 48 9f be 55 21 ae be c8 1f 3f bd 2c 7d 9b 3e
       -0.31109798 -0.34009805 -0.04666117 0.30368936
000350 8b fa 88 bd 5a cb 7e be 86 8c 80 be 77 42 c6 bd
       -0.06688412 -0.2488226 -0.2510721 -0.09680646
000360 98 92 98 be d0 47 c3 3e fd d8 21 be b3 88 d0 be
       -0.29799342 0.38140726 -0.1580543 -0.40729293
000370 26 23 a2 bf af c4 80 be 25 dd 5a 3f 9e 34 81 be
       -1.2666976 -0.25150058 0.8549369 -0.25235456
000380 21 07 96 bd c5 d6 aa be e5 81 f4 be 8e 4c 1b be
       -0.073255785 -0.3336698 -0.47755352 -0.15165922
000390 2c 59 b5 bd 64 67 2d bf 3c 38 05 bf f3 6f b0 be
       -0.08854899 -0.67735887 -0.5203893 -0.3446041
0003a0 61 e6 4d be c0 50 7c be 8b 1d bc be de 25 99 be
       -0.20107414 -0.24640179 -0.3674129 -0.29911703
0003b0 ed 96 5e be 76 39 90 be 3b 7c 67 3e 5c fc 83 bf
       -0.21737261 -0.2816884 0.22605984 -1.0311389
0003c0 66 33 7d 3d ad 82 b9 be 7c 80 df 3d 08 5c f2 bd
       0.061816595 -0.3623251 0.10913178 -0.1183396
0003d0 13 b1 d5 3e 0f ba 31 be 0b 7d 96 be 04 a8 73 be
       0.4173666 -0.17356132 -0.29392275 -0.23794562
0003e0 8f c0 51 be 3c db 0a bf 0e 04 81 be 72 07 4c 3e
       -0.20483612 -0.54240775 -0.25198406 0.19924715
0003f0 a5 6b 81 be dc 1f a9 be fb 0d 52 be 91 5f cf be
       -0.2527744 -0.3303212 -0.20513146 -0.405026

fc2.bias f4 [7]
000000 32 6b c2 bd cc 16 49 40 f8 98 7f 3c 51 7b 40 bf
       -0.09493102 3.1420164 0.015600435 -0.75188166
000010 42 cf 97 be 88 fa d7 3e 5b 96 d9 be
       -0.29650313 0.42183328 -0.42497525

localization.0.weight f4 [8, 1, 7, 7]
000000 1b 7d 17 be df c6 82 3c 9e 59 b9 be 62 2a c2 bd
       -0.14793818 0.01596397 -0.36201185 -0.0948074
000010 b3 50 bc bd 93 16 5a bc 78 4a 0c be d4 d3 8a be
       -0.0919508 -0.013311046 -0.13700283 -0.27114737
000020 a8 1e d9 bb 58 b4 b3 3c 4d 91 98 ba fd 36 2c be
       -0.006625969 0.02193658 -0.0011639983 -0.16817851
000030 86 d2 4f bd 1d bd a8 3d d7 2a c5 bd 8f e9 66 be
       -0.05073788 0.082391955 -0.09627312 -0.22550033
000040 47 7c 09 be b7 45 c4 bc e6 9e ac bc bd 57 52 be
       -0.13426314 -0.023959024 -0.021071862 -0.20541282
000050 dc 6e da 3d 7c 80 05 be 71 0d 07 be 29 49 ef bc
       0.10665676 -0.13037294 -0.13188721 -0.02920969
000060 49 70 9b bd 55 d0 7a 3d 9e c6 98 be be 05 88 3d
       -0.07589776 0.061233837 -0.29839033 0.0664172
000070 c6 6b 9e 3d 30 60 9a be 7e 5d 49 be ee 7a fb bc
       0.077354 -0.3015151 -0.1966457 -0.030698266
000080 81 11 c3 be 88 8e 42 be dc 6d 9e bd a2 7c 7e bd
       -0.38099292 -0.18999684 -0.07735798 -0.062130578
000090 5e 91 69 be c3 c8 6e be df 6e 31 be 77 71 24 be
       -0.2280936 -0.23318772 -0.1732745 -0.16058908
0000a0 2f 9a 44 be cf b9 44 be a2 f3 c6 bc 17 21 07 3e
       -0.19199441 -0.19211505 -0.024286095 0.13196217
0000b0 54 f3 27 3e d6 a1 3e be 59 46 dd be 39 ff e5 be
       0.16401416 -0.18616423 -0.43217734 -0.44921282
0000c0 c6 3c cf bd 86 34 cc 3b ba a7 81 be 82 47 6b be
       -0.101190135 0.006231847 -0.25323278 -0.22976497
0000d0 9d cd 68 be 63 a5 cd bb 3b e3 c8 3c d0 09 34 be
       -0.22734685 -0.006275819 0.024522414 -0.17581868
0000e0 c2 d3 01 be 34 73 5b bc 38 e1 21 3b 4b a0 4f be
       -0.12678435 -0.013394166 0.0024700891 -0.2027599
0000f0 43 e9 35 3d 67 08 16 be 6a f3 c5 bd de 2f 32 bd
       0.04441191 -0.14651643 -0.09665568 -0.04350268
000100 5c 71 fc 3d 1f 3d ba bd 29 22 30 be 1b 90 1b be
       0.12326309 -0.09093689 -0.17200531 -0.1519169
000110 bc df ae 3d 83 57 b0 bb 13 2d b6 bc 25 39 94 3e
       0.08538768 -0.005381526 -0.02223829 0.28949848
000120 55 0b 19 3e d4 1c 68 bb c8 a3 92 be 37 57 5f be
       0.14945729 -0.0035417574 -0.2864058 -0.21810614
000130 f0 7b 29 3c a5 45 cb bc fd 72 48 bd cd 33 25 3e
       0.01034449 -0.024813483 -0.048937786 0.16133042
000140 f1 d4 32 be 55 40 02 be 50 95 38 3e aa e3 94 3d
       -0.17464043 -0.12719853 0.18025708 0.07269986
000150 56 a2 e1 bd fc a8 e1 3d 74 93 43 be 39 fd a2 3d
       -0.11017291 0.11018559 -0.19099218 0.07958455
000160 56 40 85 bd 66 48 99 be 95 20 32 be 5b 68 b9 be
       -0.06506412 -0.29938048 -0.17395242 -0.3621243
000170 0b 5f 23 3d 19 c5 05 3d 93 c2 a7 3c 08 67 a9 be
       0.039885562 0.03265867 0.020478522 -0.3308642
000180 33 a4 86 bd 15 2b 98 be 74 b4 1b be 75 f7 b9 3b
       -0.06574287 -0.2972037 -0.15205556 0.005675251
000190 6f 28 15 bd 7b c1 e9 3c bf 9d d9 be d5 4a fb bd
       -0.036415514 0.028534641 -0.42503163 -0.122701325
0001a0 66 13 dd 3c c5 b2 51 3d c7 f0 7e 3e d3 fb 03 3d
       0.026986789 0.05119588 0.24896537 0.03222258
0001b0 be 3d 91 be f0 64 80 bd d6 1a 5f be a1 63 8d 3b
       -0.28367418 -0.06269252 -0.21787581 0.004314855
0001c0 6e 12 0c 3d 8a 8e cc 3d 01 a1 63 3e f7 24 45 bd
       0.034197263 0.09988125 0.22229387 -0.048130956
0001d0 0d 28 0a bf 9f a1 10 bd f0 f9 b3 bd 6e 1e ab be
       -0.5396736 -0.035310384 -0.08787906 -0.33421654
0001e0 1f 65 2f 3d 85 75 15 3e 84 db 42 bc db 52 12 3e
       0.042821046 0.14595611 -0.011893157 0.1428942
0001f0 69 ee 5e be 0e fb ef bd 22 13 04 bd 7c 01 e5 3c
       -0.21770634 -0.11717807 -0.03224481 0.02795481
000200 b8 ea a1 be 28 b8 ba 3d 4e 0e 41 be 5b 7b bd bd
       -0.3162439 0.09117156 -0.18853113 -0.09252044
000210 f3 e3 a2 be b1 28 13 be 3c d6 57 bd 14 b4 35 be
       -0.31814536 -0.14370991 -0.052694544 -0.17744476
000220 8f 9d 60 be e1 f4 0b be a5 db 87 be bb 1d 9a bd
       -0.21935104 -0.13667633 -0.26534763 -0.07525202
000230 5d 2e 49 be 18 24 68 bd 4d 30 7c 3c 29 19 ec 3b
       -0.19646592 -0.056675047 0.015392375 0.0072051478
000240 4c 56 1e ba f3 2b 5b 3d 25 df 14 3e eb 91 14 3e
       -0.0006040081 0.05350871 0.14538248 0.14508788
000250 21 79 3a be 30 16 0d 3e 82 75 c5 bd 7e ef 0b be
       -0.1821027 0.13777995 -0.096415535 -0.13665578
000260 50 ab 7e be 55 8d ba 3b 5e 42 8c bd 1e 87 dc 3d
       -0.24870038 0.0056931176 -0.06848596 0.10767959
000270 ac 07 26 3e 46 10 a7 3d 37 92 fb 3b c3 a3 c9 bd
       0.16213864 0.08157401 0.0076773423 -0.09845688
000280 49 aa 0f 3e 9d 15 01 3e 56 01 b6 bd e1 53 24 3e
       0.14029802 0.12605901 -0.088869736 0.16047622
000290 35 3e cb 3d d4 37 5b 3d a0 46 2b be 2c 58 08 3e
       0.099239744 0.05352004 -0.1672616 0.13314885
0002a0 76 0d 90 bc f9 46 61 3d 00 69 a0 3d 41 97 01 be
       -0.017584544 0.054999325 0.07832527 -0.12655355
0002b0 3c a1 b5 3d 2b b3 d6 bc 08 6b 25 bd 2a 87 8e 3d
       0.08868644 -0.02620848 -0.040385276 0.06959374
0002c0 2c cb d6 bc 2f f1 a3 bd f4 54 60 3d 18 11 7b be
       -0.026219927 -0.080049865 0.054768518 -0.2451824
0002d0 f3 1c 6f 3d 1c a0 93 bd 16 8f 03 3e c8 25 0b be
       0.058377218 -0.07208273 0.12847552 -0.13588631
0002e0 59 4d 9d bd a0 1b 30 be e9 6a 0d bd c1 65 d0 be
       -0.076807685 -0.17198038 -0.034525786 -0.40702632
0002f0 2e 7a c2 bd 15 36 2d 3e 31 c4 e4 3c fd 08 8d 3d
       -0.0949596 0.16915162 0.027925583 0.0688648
000300 ce 76 2f be 04 68 43 be 2e e4 ad bd 5e 73 50 be
       -0.17135164 -0.19082648 -0.084907874 -0.20356509
000310 49 05 a8 bc 67 74 5d be d8 08 c1 be f9 9a d3 3c
       -0.020510333 -0.21626435 -0.3770206 0.025830733
000320 2e b5 61 3e 93 e8 f1 3d d0 3f 2b be f0 01 06 3e
       0.22041771 0.11811938 -0.16723561 0.13086677
000330 a6 be 0c be e1 4a 95 be 6f a4 f0 be 8c c3 0c 3e
       -0.13744602 -0.2915869 -0.47000453 0.1374647
000340 36 ea 97 3d cf 3c 62 3e 94 76 24 bd 54 37 89 3e
       0.07417719 0.22093509 -0.040152147 0.26800025
000350 1e 94 6f 3d 4b 80 37 bc 71 54 48 be 6d d1 66 bd
       0.058490865 -0.011200021 -0.19563462 -0.056352068
000360 17 98 73 3e a8 08 2d 3d 67 f2 f9 bd 67 ee 26 be
       0.23788486 0.042244583 -0.12204438 -0.16301881
000370 45 d9 ae 3e 03 12 1e bd f0 2f 3b be cc 2d 4c be
       0.34150138 -0.038591396 -0.18280005 -0.19939345
000380 38 ee 46 be e7 15 ab 3d 69 bb 9c be 6c c4 79 3d
       -0.1942681 0.08353787 -0.30611733 0.060978338
000390 cc a5 89 3d 08 6c 3d be 5b 1e b7 be 3a 40 83 3d
       0.06721076 -0.18498242 -0.35765347 0.064087346
0003a0 b8 3f 08 bf ff 5d 31 be c1 ab a6 3e 8a dd c0 bb
       -0.5322223 -0.17321013 0.32552913 -0.0058857845
0003b0 85 67 15 3d 6b 78 aa bd 23 d8 d8 3d 7b b6 2d 3d
       0.036475677 -0.08323749 0.105881 0.042410355
0003c0 40 ea 1d 3e 4c 83 f4 bd 35 64 25 3e ab 20 c3 be
       0.1542139 -0.119391054 0.16151507 -0.3811086
0003d0 90 6b 9d 3e 52 bc 92 bd 70 22 92 3e 86 97 62 3e
       0.30746126 -0.071648255 0.285419 0.22128114
0003e0 62 a7 b6 bd 5d 48 b2 3d 27 b6 15 bd ab d9 aa 3d
       -0.089186445 0.087052085 -0.036550667 0.08342298
0003f0 85 97 0b be 58 db eb bd a6 ee 61 3d fc 02 96 3c
       -0.13632019 -0.11516446 0.055159234 0.01831197

localization.0.bias f4 [8]
000000 f8 05 33 be 50 28 c9 bd 3f e2 ef be c3 c1 f6 bd
       -0.17482746 -0.09822142 -0.468523 -0.12048676
000010 2f 70 c0 be 25 e2 3b bf f9 53 8f be 1c cb 80 3d
       -0.3758559 -0.73391944 -0.27993754 0.0628874
