Speaktrum_by_SOVA_Final.pt (torch, 274842 bytes, 24 tensors)

conv1.weight f4 [10, 1, 3, 3]
00000000: 187b eebf 6266 bebf 28cf b5bf b1aa 3abe
00000010: 03ee 083f 975b 68be 47bb e83e 9858 d23f
00000020: 5098 5140 ecc1 4d40 563b 91bf 01e5 0a3e
00000030: e8a4 a53f 996b ffbf a2ba c2bf b2e7 6140
00000040: 5b8c 60bf 1679 18c0 8612 eb3e 0510 653f
00000050: 7eae a93f 092b 103f 4b97 1440 c4e6 12bf
00000060: 290d cb3e 9d4c 0640 dcbe 8e3e 9eb7 a83e
00000070: d5f7 3040 d0c8 4d40 b884 e43e 3956 25c0
00000080: 2f00 9ebe eb13 3d40 afc1 9abf 8b2b 32c0
00000090: 3304 69bf e227 b23f 57cb 7740 88ff a5bf
000000a0: cc70 babf 12b0 b43f c6b3 c2bf 1f5a 2e3f
000000b0: 9955 abbf 2cab 98bf 4ab2 f9bf 3ca4 1bc0
000000c0: 9d15 f7be 0aba 893f a248 4bbf e2c0 8b3f
000000d0: d612 c03f 63f9 31c0 d946 2940 d213 343f
000000e0: 1b4c 063f fe18 b03f 606c 6cbe af36 2ec0
000000f0: 0143 9bbf e58d 273f 8b04 81be fc96 1cbe
00000100: bcdc 713d 9454 84bd 96d7 3a3e cb9b 963d
00000110: fa4b d43c bbc5 65be 39b2 183d a7dc 253e
00000120: 238f 25bf e25d b3bf 2414 a8bf 330b 71bf
00000130: 9af8 aabf 964c 4c40 517b 0e40 103a e13f
00000140: 418e 5940 6b6d e33e 5731 2240 79f0 e53f
00000150: 9d34 ce3f 919b 673e e224 183e 7d39 2040
00000160: 52fe c63f 2fda 31bf
-1.8631315 -1.4874995 -1.4203844 -0.18229176 0.5348818 -0.22691189 0.4545538 1.6433287
3.2749214 3.214961 -1.1346233 0.1356392 1.294095 -1.9954711 -1.5213206 3.5297666
-0.87714165 -2.3823905 0.4591257 0.8947757 1.3256376 0.56315666 2.3217342 -0.5738337
0.39658478 2.098426 0.2787999 0.3295259 2.7651265 3.2153816 0.44632506 -2.5833876
-0.30859515 2.9543407 -1.2090358 -2.7839077 -0.9102203 1.3918421 3.8717859 -1.2968607
-1.4565673 1.4116232 -1.5211112 0.68106264 -1.3385497 -1.1927238 -1.9507535 -2.431899
-0.48258677 1.07599 -0.79407704 1.0918238 1.5005748 -2.7808464 2.6449492 0.70342743
0.5245988 1.3757627 -0.23088217 -2.7220876 -1.2129823 0.6545089 -0.2519878 -0.15291971
0.0590484 -0.064614445 0.18246302 0.07353934 0.025915135 -0.2243871 0.03727934 0.16197453
-0.64671534 -1.4013026 -1.3131146 -0.94157714 -1.3357117 3.1921744 2.2262766 1.7595844
3.3993075 0.44419417 2.5342615 1.7964011 1.6109806 0.22617938 0.1485782 2.5035088
1.5546362 -0.69473547

conv1.bias f4 [10]
00000000: 0276 a3be 327e 22c0 afcb cebe 7046 20c0
00000010: 9f2a 2fbf ba5c a1bf 1998 4e3f 8e64 53bf
00000020: 0a68 17c0 06f5 913d
-0.3192597 -2.5389524 -0.40389773 -2.5042992 -0.6842441 -1.2606423 0.8070083 -0.8257531
-2.365725 0.07126813

conv2.weight f4 [10, 10, 3, 3]
00000000: 657b 76be 3704 afbf d1aa 4d3f b856 b53f
00000010: 351a 93bf 8d9e 72bf 6d49 f0bf 48a9 03c0
00000020: 36b5 dcbf 6c55 343f 75b2 453f f0d6 c53f
00000030: 80f7 1540 4149 9d3f d7e5 f5bf f29e a9bf
00000040: 569f b43e 5727 59c0 2918 793e 928c 00be
00000050: a28e 9f3f 967e 2940 f4bf 9f3d fc57 8b3f
00000060: 8d27 d5bd c23a 81bd 7493 96be b342 443f
00000070: 053b bfbf 2c9f 3cbe 2bbd 4cbd d374 25c0
00000080: 28a0 1740 b338 88bf 417d a23f 3e0e 8bbf
00000090: 4f7c 05c0 f088 95bf f542 c2bf 0fe6 4ebf
000000a0: 2dd0 65bf d406 c53f b9a9 6f3f 2466 b93c
000000b0: 41e0 58bf 1b98 933f 5d46 8a3f 5bb5 1940
000000c0: 9691 cabf 2f02 6dbf 73af aa3f 1149 423f
000000d0: ee15 183f b298 993f 6548 17c0 1790 14bd
000000e0: d089 a2bf c819 15c0 2c55 43bf 2675 383e
000000f0: 9f59 593f 6c73 803f 9c73 6b3f bd66 87be
00000100: 61f6 d83d 5bf5 bbbd 3ae4 5abe 1a11 01bd
00000110: ad49 5fb7 7a2e 67be 7cb7 03be a7e4 d5bc
00000120: b93d 9fbf ab60 ddbd 5474 afbf 962e f43f
00000130: 7336 723f 8359 a63f 00ce de3f b20e 773e
00000140: 515f 1640 0190 9abe 910d fc3f af65 1a40
00000150: a3b7 803f bae5 c73f cd29 2740 413e 66be
00000160: 9375 95bd 696d 5d3f 4586 81bf d455 6abf
00000170: 5e0f 4640 3ba4 cb3f 56db a43e aae8 1740
00000180: 9d09 fabf a431 68bf 0491 92be 85a8 b83f
00000190: 68ca b63f 2065 373d 679a 0b3e 2298 583f
000001a0: 7d5c 01c0 82d8 7040 a7d7 f13f 0e99 edbf
000001b0: 9637 b1bb e0cf 82bd 1f4c 98bf 7975 1940
000001c0: 3371 0e3f 2955 d0bf 5c31 99bb 10a8 093f
000001d0: ac02 b5be acd6 d83f 4ac8 7dbf c91f 1bc0
000001e0: 1121 28c0 3b66 58c0 40f7 8540 8844 d43f
000001f0: 5024 07bf 0ab3 783f 1110 84bf 7419 0dbf
00000200: 7b06 8440 790c 423f fc7b ec3f b063 09bf
00000210: 3b3e dd3f da2a 2cc0 c74a bfbf 4dc4 20be
00000220: 5b04 94bf 75b6 6740 adc1 9bc0 a082 23c0
00000230: 61fb a7bf 5453 3c3f 9030 abbf b05f d93e
00000240: e9ff 9bbf 34f4 3940 be6a 0a40 34b5 993e
00000250: e83e 0f3f 41cc e83f 6040 a1be 69d5 b93d
00000260: 7ab5 003f f8a3 88be a867 933e 22ca fd3e
00000270: 642d b1bc 103b 83be 495a e43d 1a18 f13d
00000280: 8621 9f3c c88c 643d f738 d4bd 5401 6ec0
00000290: 259b 45bf bcee 65c0 d432 38c0 2e1f e5bf
000002a0: 104d d0bf 8011 9cbe 4183 c9bf 85e9 1440
000002b0: 900e 883f 43ed 49bf 5b4b de3e 8fb8 1c3f
000002c0: 4161 9ebf c2a1 8abe f14e ae3e dbaf 793e
000002d0: 2829 f63e debf 623f ebbe 473f f38a 22c0
000002e0: eb9f a13f 7545 c9bf c620 74c0 bfdb 0cc0
000002f0: bfe6 debf 728d 4140 f8aa c73f e8a6 8a3e
00000300: b54e 77be 9121 13c0 b70b e1bf e635 e8bf
00000310: b360 72c0 baae b3c0 be00 bb3f 41b5 0fc0
00000320: 6f06 d7bd 0f92 c5bd 5f39 5ec0 0c50 34c0
00000330: b9fe 47bf 4e32 e4bf b1dc ccc0 5cc8 ffbf
00000340: a594 9bc0 7261 f83f 7981 0540 9d95 98bf
00000350: 0a53 93c0 92be 1c3e 6060 4740 4ad8 7bbf
00000360: fa4a 1a3f 9d9d 67bd 133d dcbe 47af e03f
00000370: 644c 043f 2fab 77c0 addf 3dbf 06d3 73bf
00000380: 03e0 92c0 8b34 af3f e9cf c53d e6f8 b23d
00000390: fca2 373e bcdb 94bf c6e4 433e 65e0 2fbf
000003a0: b5f5 debf 784a 5ec0 40c6 a53f c5b6 0bbb
000003b0: 3d9e c83f c859 663f 72f9 1ebf 0b2d 34c0
000003c0: 1591 c53f 85e7 943f 40af 4340 f01e 04bd
000003d0: 8621 5abe 95fe a73c cd9e 113e ee5d 033d
000003e0: 140c adbd d484 bbbd ba03 373c 0f12 e1bd
000003f0: 16b9 3c40 3d75 47c0 6fcf 3cc1 76b3 61c0
-0.24070509 -1.3673161 0.8033877 1.416709 -1.1492373 -0.9477318 -1.8772408 -2.057207
-1.7242801 0.70442843 0.7722543 1.5456219 2.3432312 1.228798 -1.9210767 -1.3251631
0.35277814 -3.393026 0.24325623 -0.12553623 1.2465403 2.6483512 0.07800284 1.0886226
-0.10407934 -0.06310035 -0.29409373 0.76664275 -1.4939886 -0.18420094 -0.049985092 -2.5852554
2.3691502 -1.0642303 1.2694474 -1.0863721 -2.0857122 -1.1682415 -1.5176684 -0.8081979
-0.89770776 1.5392709 0.9361835 0.022631712 -0.84717184 1.1530794 1.0802723 2.401694
-1.5825679 -0.92581457 1.3334793 0.7589274 0.5940846 1.1999724 -2.3637936 -0.036270227
-1.2698307 -2.3296986 -0.76301837 0.18013439 0.84902376 1.0035224 0.9197328 -0.2644557
0.10593868 -0.09177657 -0.21376124 -0.03151045 -1.330899e-05 -0.22576323 -0.12862962 -0.026110006
-1.2440711 -0.108094536 -1.3707376 1.9076717 0.9461433 1.2996067 1.7406616 0.241267
2.3495677 -0.3018799 1.969164 2.4124563 1.0056041 1.5616982 2.6119263 -0.22484685
-0.07297816 0.8649507 -1.0119101 -0.91537213 3.094688 1.5909494 0.3219859 2.3735757
-1.9534184 -0.90700746 -0.28626263 1.4426428 1.428052 0.044774175 0.13633119 0.84607136
-2.02127 3.7632146 1.8893937 -1.8562334 -0.0054082377 -0.06387305 -1.189823 2.397795
0.5564148 -1.6275989 -0.0046750735 0.5377207 -0.353536 1.6940513 -0.9913374 -2.423815
-2.6270182 -3.3812397 4.186432 1.6583414 -0.52789783 0.9714819 -1.0317403 -0.55116963
4.125791 0.7580028 1.8475337 -0.53667736 1.7284616 -2.6901155 -1.4944695 -0.15699883
-1.1563829 3.6205113 -4.867392 -2.5548477 -1.312359 0.7356465 -1.3374195 0.42455816
-1.2187473 2.90553 2.162765 0.3002106 0.5595536 1.8187333 -0.31494427 0.09073908
0.5027691 -0.26687598 0.2879002 0.49568278 -0.02162809 -0.25631 0.11150033 0.11772175
0.019425165 0.055798322 -0.10362428 -3.718831 -0.77189857 -3.5926962 -2.8781023 -1.790014
-1.6273518 -0.304821 -1.574318 2.326753 1.0629444 -0.7887766 0.43416867 0.61219114
-1.237343 -0.27076536 0.34044603 0.2438349 0.48078275 0.88574016 0.7802569 -2.5397308
1.2626928 -1.5724322 -3.8145003 -2.2009122 -1.7414168 3.0242581 1.559905 0.27080464
-0.24151118 -2.2989237 -1.75817 -1.8141448 -3.787152 -5.615079 1.4609601 -2.2454379
-0.10499274 -0.09646999 -3.4722517 -2.8173857 -0.7812305 -1.7827852 -6.40194 -1.998302
-4.861895 1.9404738 2.0860274 -1.1920658 -4.6038866 0.15307072 3.1152573 -0.98376906
0.60270655 -0.056546796 -0.43015346 1.755349 0.5167906 -3.8698232 -0.7416943 -0.9524387
-4.589845 1.368791 0.09658796 0.0873888 0.17933267 -1.1629558 0.19130239 -0.68701774
-1.7418734 -3.4732952 1.2951126 -0.0021318656 1.567329 0.89980745 -0.62099373 -2.8152492
1.54349 1.1633154 3.0575714 -0.032256067 -0.2130185 0.020507136 0.14220734 0.032072
-0.08449569 -0.09156194 0.011170322 -0.109897725 2.9487967 -3.1165307 -11.800643 -3.5265784

conv2.bias f4 [10]
00000000: f7fb 1b41 03c8 ca40 b3a7 e440 96a4 a6be
00000010: d31e d53f 3d11 0ec0 3076 0bbf 898d c740
00000020: 0832 b3be 0fd9 b2be
9.749015 6.3369155 7.145471 -0.32547444 1.6650032 -2.2198021 -0.54477215 6.2360272
-0.34999108 -0.34931228

conv3.weight f4 [10, 10, 3, 3]
00000000: 996d f4bf 2d0b c8bf 4bd3 d83e 2131 a03e
00000010: fc08 ca3d c763 b13d 1caf 6940 0285 f0be
00000020: 8f70 1f3f a3e7 38c0 6db4 f9bf cbf8 2cbf
00000030: 419d 4940 f7a1 813f c333 8c3f c609 8040
00000040: 923e 4b3f 3b83 303e 5643 aabd cf98 773e
00000050: bfc2 253f 8942 ccbf cd52 3c3e 0572 85bf
00000060: 5d76 17c0 f301 9240 dcc8 8240 c7df dc3d
00000070: 3fe8 993d ca15 a1be bd59 283d ade0 d1bd
00000080: 3f84 a4bd c0cf c23a 49c8 c4bd dcb9 5dbd
00000090: 59ce 11bf 1de3 f5bf be5b fdbe dc36 b8be
000000a0: d266 89c0 a7df 0040 8efc e33e e90e 6ebf
000000b0: 98d5 793f 5c9e bfbf 110b 1ec0 1ff2 57bf
000000c0: 07b0 a0be ccfc 75bf 007f abbf dfda 3a40
000000d0: 96b6 03bf 6d14 1b3f 3395 f43d bf1b 873c
000000e0: 1b60 433e c56d 123e 2405 94bd 8b3b 053e
000000f0: 8e7f 8ebd a724 04be 270a d03d 40ca 153f
00000100: 9a0c 873f dbe9 563f 2dbc 1f40 314b 1e3e
00000110: 7970 0fc0 a294 3640 14f6 8fc0 add7 40c0
00000120: 8b87 f2bd d702 4dbe aa44 62be a08e 433d
00000130: 7277 87be 87d1 f43c b549 ffbd e481 3bbe
00000140: f9de 19be 77d1 af3e 3b4d 80be c24d 2cbe
00000150: 8c7e 523e 7f6b d8bc b4aa 49be 51b5 993c
00000160: 7d16 1fbe a25d 04be 3306 aabd 5037 bfbd
00000170: 463e 1ebe 43e9 b33c 2012 0fbe 599a a4bd
00000180: ce2e fbbd 1af2 91bc 46ec 36be 2598 77be
00000190: c7c9 c4bd 6ec3 13be 3ad5 40be 5665 9fbd
000001a0: 19c1 8d38 e712 58be 5db9 dbbd 144d 8cbc
000001b0: 5f5e 1ebe fb50 26be 272b 29be 65be 48be
000001c0: 862d 5ebe f112 33be f2c6 55be c7c3 85be
000001d0: 6070 79bd 1088 da3b 4897 8ebc 9e2b 213d
000001e0: df59 883d c783 8f3d 34f4 b83c e346 963d
000001f0: b453 ccbd 787e 9cbc 4858 e3bd 241e 41be
00000200: a1f2 72be f5a7 b6bc 634a d6bd 0b59 a4bd
00000210: 2347 c4bd 63dd ab3d d30a f13b 43fd 15be
00000220: be90 f4bc 17e1 18bd 9769 8dbd ca85 0b3d
00000230: 50c6 88bd 6b05 cdbd bbdf edbd 1385 dbbc
00000240: c09c 943c c285 273d f258 6f3d 75fe bd3d
00000250: b310 17bd 73dc 95bd 9f22 b1bd 9df4 423d
00000260: 4872 63bc e793 f9bd 0530 b8bd 14e8 97be
00000270: 2932 01be fd91 09be 18d3 6bbe 8cf4 a7be
00000280: 8bbd 16be 8ba3 b73d 2220 6b3d ae60 133d
00000290: 8bca ae3d 7057 e4bc dbf2 903d 23d5 c2bd
000002a0: 6447 dbbc 222d 013d 64bd bb3c f0a7 1dbc
000002b0: a190 b1bd debf 82bc a5a1 cf3d 91b0 d13d
000002c0: 624f 7cbd c629 93bc e5c8 cbbd 685b ac3d
000002d0: c3ae f8bd 1d2d e2bd d736 173c 2e3c abbd
000002e0: 8cc2 cebd 42bb 5ebd 32a0 22be f818 3dbd
000002f0: 7f06 343b bee6 07bd 508c 76bd d895 ffbd
00000300: 7216 4e3d fdec 8cbd 1d87 74bc 6972 db3c
00000310: ceb2 00be 4da4 acbd 7d92 0bbd 2bb7 fbba
00000320: 7da2 febd 7b7f 97bc 813e ebbd 33f8 f93b
00000330: e817 f23c ba48 9e3d de27 8cbd ce9e 0ebd
00000340: cbbf 04be 5fad 173d 35e5 2bbd e042 45bc
00000350: 6bdc 63bd 8d6b a23d c2c8 dc3b 439e c93c
00000360: b344 f2bd 6589 8abe 07f8 88be af9a 713d
00000370: bff6 08bd c657 92be fd42 fe3c 6559 13bd
00000380: 7bfa 10be f587 003d bf1a 1dbc b1a7 0ebd
00000390: 7603 55bd ce31 26be 9bed d3ba addb d0bd
000003a0: d54d 463a 393d 10bd cf4f 983c d03e 1cbd
000003b0: a8e1 a83b a337 31bd 90e6 ab3d e706 adbd
000003c0: ff73 9d3d 70ee 57bd 4d31 1bbc f43f 54be
000003d0: cf7f 38be 6dc2 23be 8ac6 eabd 8666 093c
000003e0: eeab 26bd 9a11 5ebc 1316 90bd 0351 26be
000003f0: 4274 bdbd a0fd 66bd 5e96 c7bd cf63 803d
-1.9095947 -1.562841 0.42348704 0.31287482 0.09864995 0.08661609 3.6513128 -0.46976477
0.62281126 -2.889138 -1.9508187 -0.6756713 3.150223 1.0127553 1.0953296 4.001193
0.7939235 0.1723756 -0.083136246 0.24179386 0.64750284 -1.5957805 0.18390961 -1.0425421
-2.3665993 4.562738 4.087019 0.1078487 0.075150006 -0.31461936 0.041101206 -0.10247932
-0.080330364 0.001486294 -0.09608514 -0.054132327 -0.56955487 -1.9209934 -0.49484056 -0.35979354
-4.2938013 2.0136507 0.4452862 -0.929915 0.97591543 -1.4970202 -2.4694254 -0.8435382
-0.31384298 -0.9608886 -1.3398132 2.9196088 -0.5145048 0.6057804 0.1194252 0.016492723
0.1907963 0.14299686 -0.07227543 0.13010995 -0.06957923 -0.12904607 0.101581864 0.58511734
1.0550721 0.83950585 2.4958603 0.15458371 -2.2412398 2.8528218 -4.498789 -3.0131638
-0.11842259 -0.20020615 -0.22096506 0.04774344 -0.26458317 0.029885067 -0.124652304 -0.18311268
-0.15026464 0.34339496 -0.25058922 -0.16826537 0.20556086 -0.026418446 -0.19694024 0.018763216
-0.15535922 -0.12926343 -0.08301964 -0.09336722 -0.15453443 0.021961814 -0.13971758 -0.08037252
-0.12264787 -0.017815638 -0.17863569 -0.24179132 -0.096087985 -0.1443002 -0.1883134 -0.07783
6.759371e-05 -0.2110096 -0.107287146 -0.017126597 -0.15465687 -0.16241829 -0.16520368 -0.1960388
-0.21697053 -0.17487694 -0.20876673 -0.2612593 -0.060898185 0.006669052 -0.01740612 0.039348237
0.066577666 0.070075564 0.022577383 0.07337739 -0.099769026 -0.019103274 -0.11100823 -0.18859154
-0.23725368 -0.022296885 -0.10463407 -0.08024796 -0.09583881 0.083918355 0.0073560267 -0.14647393
-0.029854175 -0.037324037 -0.06904905 0.034063138 -0.0667845 -0.10010799 -0.11614939 -0.026796853
0.01814115 0.040899046 0.058434434 0.092770495 -0.03688116 -0.07317438 -0.086491816 0.047596563
-0.013882227 -0.12186413 -0.08993534 -0.2966925 -0.12616791 -0.13434596 -0.23029745 -0.32803762
-0.14720742 0.0896674 0.05740369 0.035980873 0.08534726 -0.027873725 0.07077571 -0.09513309
-0.02676744 0.031537183 0.022917457 -0.009622559 -0.08670164 -0.01596063 0.10138253 0.102387555
-0.061599143 -0.017964255 -0.09950427 0.08415872 -0.12142708 -0.11043761 0.009229383 -0.08361088
-0.100957006 -0.0543778 -0.15881422 -0.04616639 0.0027469692 -0.033179037 -0.060192406 -0.12479752
0.050314374 -0.068811394 -0.014924792 0.026787953 -0.12568209 -0.084297754 -0.03407525 -0.0019204369
-0.12433336 -0.018493405 -0.11486531 0.0076284646 0.029552415 0.07728715 -0.068435416 -0.034819417
-0.12963788 0.037030574 -0.041966636 -0.01203987 -0.05563013 0.0793067 0.0067377994 0.024611598
-0.118295096 -0.2705795 -0.2675173 0.05898541 -0.03343844 -0.2858259 0.031037802 -0.035973925
-0.1415805 0.03137966 -0.009588896 -0.03482789 -0.052005254 -0.16229936 -0.0016168834 -0.1019815
0.00075646985 -0.035214636 0.018592743 -0.03814584 0.0051538534 -0.04326595 0.08393586 -0.08448582
0.0768814 -0.052717626 -0.009472203 -0.20727521 -0.18017505 -0.15992136 -0.114636496 0.00838626
-0.04069131 -0.013554001 -0.0703546 -0.16241841 -0.0925069 -0.05639422 -0.09745477 0.06269037

conv3.bias f4 [10]
00000000: 56c9 b740 a2a6 32be ff00 b9bd 37d2 3241
00000010: 8552 4cbd 4686 793d ce80 07be 44d8 1241
00000020: 1f19 cfbd 4cba 73bd
5.743327 -0.17446378 -0.09033393 11.176322 -0.049883384 0.06091907 -0.13232729 9.177799
-0.10112213 -0.05950384

conv4.weight f4 [10, 10, 3, 3]
00000000: 4866 643f b997 bcbf 8b4a a9bf 0f43 393f
00000010: 792f f7be 075c bebe 1606 0cbe a74c b43d
00000020: cdb4 5dbf a91e 2ebd b6ed cbbd 2f8a 19be
00000030: 6178 743c a9e8 85bc 5703 953d f99a e83c
00000040: 12b0 34bd 7ec0 2b3d c10b 1c3d 8c2c 5fbd
00000050: 6fd2 4cbc 3021 893d 051c 6d3c b355 0abd
00000060: f855 8e3d 0e20 453c 5227 e7bb e56c f2be
00000070: f37a 02c0 a41f 5dc0 4f8b a63f a887 1ec0
00000080: 3fa2 b9bf 1b6b 0f3f 23b0 7040 25fa dc3f
00000090: 1232 5f3d d5a7 5b3d 5d88 a33b 133e 7b3d
000000a0: 87b0 dd3b 69e7 28bd 1d0d fdbc 3656 f63d
000000b0: 0ddd 5a3c 9863 9fbd 242b 18bd 5d48 f1bc
000000c0: 7bb6 003d 5608 f83b 29bf d53c bbfb 973d
000000d0: 6182 58bd 6a01 3d3e 9e3b 303d 1942 543d
000000e0: f2df 94bd 1e0e 853d 8c30 43bd 7b65 963d
000000f0: f085 85bd 4c25 c1bc 6c68 663d 5a91 67c0
00000100: e6c8 0fc0 9310 0240 5519 3140 b192 83bf
00000110: df87 e63e 27de 9b3f ebf7 6540 fadb 93be
00000120: 2cef 20bd c819 d73d 9220 08bc 6fea 8bbd
00000130: e343 1d3e acb9 3f3d be81 953d 3992 cf3d
00000140: e632 32bd 1705 c93a 68a9 d0bc dae4 43bd
00000150: c48a 323d 9a12 6b3d 7b82 dc3d f261 ecbd
00000160: 8664 1e3d 26cd 2b3b 6181 543e 8cba 8b3c
00000170: bff2 53bc e8d8 8ebc 3ca6 bebb e9a3 3d3d
00000180: 603e a6bd 1566 c5bc 1262 1ebc ae91 7f3d
00000190: ebc8 7dbc 204d cb3d a24f 633d d0ac 59bd
000001a0: c50b aabd 98a8 623c 482f 3f3d 2574 9fbb
000001b0: 4524 b6bd 972e 4ebe 1f94 0fbd f7d3 27bd
000001c0: 93c8 853c 0161 46bd 9945 fd3d 8f8c 9d3d
000001d0: fd22 1f3d 75d3 1cbd e121 68be d0a7 91be
000001e0: 6048 35be f88d 7cbe 71bc d4bd 85f7 6fbe
000001f0: 0697 85be 682f be3c b177 f7bc b0d5 4cbd
00000200: 7942 393d 49a1 e9bc 16d7 c1bd 101b 273d
00000210: d2d4 a83d 0ff2 d13d 7fc2 26bd 3bea f73c
00000220: 9879 43bb f80c 833d f015 353d 46d1 dabc
00000230: 4eee 06be 216c 01bd ce79 813d 1ca2 6d3d
00000240: 537a cb3c c1b6 a4bd 2084 533d 9c4f 153e
00000250: ff0c ba3d 946e 96bd e4f0 f3bd 4625 d83d
00000260: b5aa ffbc ac0b 1dbf 8410 01bf 4621 09bf
00000270: c912 e7be 9df0 e3be 2862 99be 7e86 15bf
00000280: f3ce bfbe 78a0 eebd 3a6b e7bd 8bf4 fa3d
00000290: 2008 873d 58df 6b3d 71e3 bf3d 1041 923c
000002a0: 0606 ab3d 388d a7bd 6bd8 e5bd 5eaa 05be
000002b0: b59e 8a3d 9df0 62bd cabb 43bd 54e9 e1bd
000002c0: 36ef 4dbd 77f2 233d c0f0 263d 7984 e63c
000002d0: 3e56 e1bf f943 8ac0 3aa2 b3c0 ec46 903f
000002e0: 5efe 943f 5ab1 803f 17fa f73f 8b8f a53f
000002f0: 516d ef3f 8505 083c a5bb 41bd 3378 1c3e
00000300: 1c82 103e 4a9c 093e 7435 2a3d 6003 bd3c
00000310: 5f5d 8a3e 26e7 f73d b5b9 1c3d a54f a53c
00000320: ef80 143d dd54 59be ddf9 d83c 4de7 58be
00000330: 9e3b 9bbd dc32 d6bd ed46 7ebe 93aa ee3f
00000340: 3046 2fc0 198c f0be f12b 1cc0 7e16 6ec0
00000350: a80b ca3f 2ce8 29bf b634 023d a50a 71bf
00000360: 7a3a c43d 28c1 b73c 7818 7c3d 476a 613d
00000370: 5c4c aabd 1cfd 2dbd 6bd8 5b3d 6100 983d
00000380: ab33 ac3d 9d38 3dbe 50e6 7d3d 7144 d0bd
00000390: b6cc 1e3d db93 42bd c1c9 a83d a9be be3c
000003a0: d597 71bd 18bd cc3c 06fb 303c 5ee8 d23d
000003b0: fa2f 6bbd 6f4d a3bd f897 7d3c a28e 40bd
000003c0: 359f 0abe 0524 5e3d e040 e5bc 7959 4fc0
000003d0: baa4 d9bf 764e 84bf 374a cbbf 9d49 b23f
000003e0: 9aad 09c0 f57e 633f 406d da3f dfc4 a6bf
000003f0: 58d0 0d3e 4a4b 5e3d bf05 5b3d 295a a5bd
0.8921857 -1.4733802 -1.3225874 0.7236795 -0.48278406 -0.37179586 -0.13674197 0.08803683
-0.86604005 -0.04250971 -0.09957449 -0.14994119 0.014921279 -0.016346293 0.07276028 0.02839421
-0.044113226 0.04193162 0.038097147 -0.054485843 -0.012501343 0.06695783 0.014472012 -0.033773135
0.06949991 0.012031568 -0.007054248 -0.47348705 -2.0387542 -3.4550562 1.3011264 -2.4770298
-1.4502639 0.56022805 3.7607505 1.7263838 0.05449111 0.053626854 0.004990621 0.061338495
0.0067654285 -0.041236315 -0.030890042 0.12028162 0.013358367 -0.07782668 -0.037150517 -0.02945345
0.031424027 0.007569353 0.026092129 0.07421061 -0.052858714 0.1845757 0.043025605 0.051820848
-0.07269277 0.06496833 -0.04765372 0.073435746 -0.06519687 -0.023577355 0.05625193 -3.6182466
-2.2466369 2.0322616 2.7671711 -1.0279142 0.45025536 1.217717 3.5932567 -0.28878766
-0.039290592 0.10502964 -0.008308547 -0.06831824 0.15357928 0.04680793 0.07300137 0.10135312
-0.04350557 0.00153366 -0.025471404 -0.04782567 0.04358937 0.057390787 0.10767075 -0.11542119
0.038670085 0.0026214807 0.20752479 0.017056726 -0.012936293 -0.017437413 -0.0058181565 0.046298895
-0.08117366 -0.024096528 -0.0096669365 0.06239479 -0.015489797 0.0992682 0.055495866 -0.053143322
-0.08303026 0.013834141 0.04667595 -0.0048661404 -0.088936366 -0.2013496 -0.03505337 -0.04097363
0.016330993 -0.048432354 0.1236679 0.07692825 0.038851727 -0.0382876 -0.22669174 -0.28448343
-0.1770339 -0.24663532 -0.10387505 -0.23434265 -0.26091784 0.023215964 -0.03020844 -0.050008476
0.04522941 -0.02851929 -0.094648525 0.040797293 0.08243717 0.10251247 -0.04071283 0.030263057
-0.0029827114 0.06398958 0.044210374 -0.026711117 -0.13176844 -0.03159726 0.063220605 0.058015928
0.024838602 -0.0804267 0.051639676 0.1458115 0.0908451 -0.0734531 -0.119111806 0.10553984
-0.03120933 -0.61345935 -0.50415826 -0.53566396 -0.4513152 -0.4451951 -0.299577 -0.58408344
-0.37462577 -0.11651701 -0.11299749 0.12253674 0.065933466 0.057586044 0.09369553 0.01785329
0.08350758 -0.08181232 -0.11222919 -0.13053271 0.06768552 -0.055405248 -0.04778651 -0.11030832
-0.050276957 0.040026154 0.04075694 0.02813934 -1.7604444 -4.3207974 -5.613553 1.1271644
1.1640127 1.0054123 1.9373196 1.2934431 1.8705236 0.008302097 -0.047298092 0.15280227
0.14112133 0.13438526 0.041554883 0.023072898 0.27024361 0.12104635 0.03826304 0.020179579
0.036255773 -0.21223779 0.026486332 -0.21181984 -0.075797305 -0.104589194 -0.24831744 1.8645805
-2.738659 -0.46981886 -2.440182 -3.7201228 1.5784807 -0.6636989 0.03178855 -0.9415687
0.09581466 0.022430971 0.061546773 0.055032995 -0.08315346 -0.042477712 0.05367319 0.07421947
0.084082924 -0.18478628 0.06198722 -0.10169304 0.038769446 -0.047504287 0.082416065 0.023284273
-0.05898269 0.02499251 0.010802036 0.10298227 -0.0574188 -0.07973754 0.015478127 -0.047011025
-0.13537295 0.05423357 -0.027985036 -3.239836 -1.7003396 -1.0336444 -1.5882024 1.3928715
-2.1512208 0.88865596 1.706459 -1.302883 0.13849008 0.05427102 0.053472277 -0.08073837

conv4.bias f4 [10]
00000000: 7739 a3bc a2f8 193e 5149 ffbd ae25 d9bd
00000010: 6a53 efbd 1020 8c3d 0888 933d 9a64 243e
00000020: 6f7a ce3c 1337 a5bd
-0.019924862 0.15036252 -0.12465156 -0.1060289 -0.11685832 0.06842053 0.0720368 0.16054001
0.025204865 -0.08067145

norm.weight f4 [10]
00000000: 0dd6 8f3e 06a7 1a3e ea31 1e3f f875 e43e
00000010: c574 ad3e a150 fa3e 49ec 0c3f a4a0 8d3e
00000020: 7264 dd3e 61d4 2f3e
0.28092995 0.15102777 0.6179491 0.44621253 0.3387815 0.4888964 0.5504804 0.27661622
0.43240696 0.1717086

norm.bias f4 [10]
00000000: 44ed 2bbf 83ff 18bf f495 59bf 34f7 00bf
00000010: f299 3bbf a320 27bf 978b 32bf fa1c 13bf
00000020: 6446 49bf 8a44 36bf
-0.67158914 -0.5976488 -0.84994435 -0.503772 -0.73281777 -0.65284175 -0.6974425 -0.5746609
-0.7862303 -0.7119833

norm.running_mean f4 [10]
00000000: 7b65 76c3 a72a b4c4 8942 84c5 d85f a3c5
00000010: b30c 9245 f187 31c5 d4a5 91c5 0e76 20c4
00000020: 8e9f 20c5 4e66 ddc4
-246.39641 -1441.3329 -4232.317 -5227.9805 4673.5874 -2840.4963 -4660.7285 -641.8446
-2569.9722 -1771.197

norm.running_var f4 [10]
00000000: 390d 654a eab5 8849 ad21 594b ad97 f54a
00000010: 1391 524b a1a6 b24a 2f48 1e4b 616f 634a
00000020: 2e30 e34a a49e bc49
3.7527822e+06 1.1199332e+06 1.4229933e+07 8.0475745e+06 1.3799699e+07 5.8540325e+06 1.0373167e+07 3.7262962e+06
7.444503e+06 1.5451725e+06

fc1.weight f4 [50, 810]
00000000: eea2 5140 a34a 3540 da56 cdbf ea4a 85c0
00000010: 3156 68c0 99eb 4ebe 4557 1dbf 85e2 953f
00000020: a426 953f d0d4 d03f f613 6abf 86c2 d8bf
00000030: 2ebc 3ebf 2cf6 863f 0c78 5fbf 7741 e6bf
00000040: bce7 e6bf 0d42 39bf 5b1c 18bf 398d 16bf
00000050: ce74 113f c50a e83d e507 a8bf 6636 1abf
00000060: 1d9b 98bf 14c1 033f 3f37 14bf 1151 503f
00000070: 408f e1be 5c8e b0be 7013 aabf 80f4 6fbf
00000080: 79f4 95bf 5961 3bbe bc29 f33e 2270 5e3f
00000090: b8a7 c03f 74a2 f1bf b673 f6bf ad9b 96be
000000a0: bd11 6f3f 5e6b d83e 72d0 973e 13e8 3040
000000b0: 837f 143f 01a7 34c0 8b44 5040 2b89 4d40
000000c0: 6b33 e6bf e768 8cbe 1a30 b73c 0849 b4bf
000000d0: 0efe 71c0 6db3 1bc0 2b63 b0be 7dbc 5a3e
000000e0: 1919 cb3e a718 543f 604a a43f b915 ad3f
000000f0: 452a b03f a826 6dc0 ea3c 5b3d f07e 9bbf
00000100: 3967 d1bf 5c2e fdbf d4d6 d23f 0b50 733e
00000110: 6b24 ab3e 195b 01c0 3cd7 1dc1 c0a2 03c0
00000120: c362 b7be 7286 03c0 3e0c 5a3f d80c e23f
00000130: 4415 183f a67a f83d ba45 1d3f e09a 4f3f
00000140: e5f6 1ebd e26f 16bc b09b 39bc f887 65bc
00000150: 5200 0bbd 7c4f afbc dc4b dabb ca5b e5bb
00000160: 56d8 f3bc 5cd5 75bd 31a4 d0bb d663 f23c
00000170: d7ef 80bc 13e7 7fbd 52e0 65bd 5fa9 4cbd
00000180: c46e 81bd c85c f23b 5149 dabc caf3 acbc
00000190: 9862 7bbd 2aec 8dbc d882 5dbd a5de 42bb
000001a0: 8541 25bd 311c 28bd 6072 29bd 0a97 3d3d
000001b0: 70a5 2cbd 872f 1dbc b99b febc 800f 6fbd
000001c0: b75e 843d c8e3 a2bc fbb4 9cbc e808 fcbc
000001d0: cc18 dabc e70b 3dbd 0796 3dbd c87f 45bd
000001e0: 1180 7dbd 8067 76bd ee0c 1d3d b5a9 6abd
000001f0: da6d b7ba b625 57bd db1c 83bd eb2d 80bd
00000200: 7d56 abbc 5b12 50bd 1973 b6bb 0c83 9dbc
00000210: 42a8 13bc 973a b4bc c206 153c cb71 4a3d
00000220: 21cc 733d 7df8 923a 5d39 533d 72ab 28bd
00000230: e04d 80bd e35a 81bb 1022 febc f4ae 6bbd
00000240: af8a a2bb 13e9 f7ba 3e39 e6bc 6661 d03c
00000250: 29d7 33bd 1d48 70bd 2c6f 42bc 4e71 933a
00000260: 2050 87bc 07d8 e03c df79 e5bb 6645 48bd
00000270: c401 92bc 07ee 7cbc 6dc8 2b3d f935 d4bc
00000280: fac1 febb 6d26 72bd 9fb7 c2bf c75b 413f
00000290: 2e7b b1bf 414e 04c1 e544 f3bf 77d3 84c0
000002a0: 565c f2bf 2299 d6bc bed0 c53e 0f34 05bf
000002b0: 2538 cc3e e838 d23e 0f66 d03f 8e53 2cbf
000002c0: 5b7c a7bf 5d56 cbbe 1476 07c0 f1f1 e93e
000002d0: 5755 133e cbfb 86bf 0213 623e b74c 3d3f
000002e0: 6254 f0bf 428f c1bf 1527 0fbf 3931 cfbe
000002f0: 1523 ee3e 370d c0c0 fbc4 533f e459 d43e
00000300: 8564 05c0 85ca fabd 6fc8 1abf 16bc 0a3f
00000310: f51e e63e e135 38bd adbf debe 835e 9abf
00000320: b351 97bf cde6 0140 beff 1840 5cbc 1e40
00000330: cbf8 d3bc e142 cebf a6a6 9f3e 7474 a2bf
00000340: 78f1 3c3f 0222 8240 8073 b13f c80c 413f
00000350: cbc2 66bf 848f 63bf 209f 5a40 0a7d c4c0
00000360: 5f06 b6bf 03c5 a8c0 1cfb 55c0 b2e0 1abf
00000370: de2f 9abe 77bd 4ebf 5929 e33f 12d3 7fbf
00000380: 6c3d bbbe b42f 32c0 3dfc cac0 5075 5abf
00000390: 83a3 0040 6c57 94be 2caa 99be 1b22 2240
000003a0: 1acc 5fc0 e1ae 2ebf 7b6f 2bc0 ba87 b2bf
000003b0: 9039 2ebf 7c20 08bf 5552 ba3f 1eab 5d3f
000003c0: 39ec 593f d67d 1640 1199 5340 0178 943d
000003d0: 311e 19bf aaf9 2e3f 5a06 bf3e 6dda 263f
000003e0: 9ef0 2040 f00a 863f fc6c 3ebe e688 b2be
000003f0: 3a4a dfbe 4e54 65bd c1c2 3e3f 1d23 adbe
3.2755694 2.8326805 -1.604213 -4.165395 -3.6302607 -0.20207061 -0.6146129 1.1709753
1.1652417 1.6314945 -0.9143671 -1.6934364 -0.7450589 1.0543876 -0.8729255 -1.7988728
-1.803947 -0.7236641 -0.59418267 -0.5880924 0.56818855 0.11330179 -1.3127409 -0.60239255
-1.1922337 0.5146649 -0.578968 0.813737 -0.44054604 -0.34483612 -1.3287182 -0.9373245
-1.1715232 -0.18298854 0.47492778 0.8688985 1.5051184 -1.8877702 -1.9254062 -0.29415646
0.9338644 0.42269415 0.2965122 2.7641647 0.5800707 -2.822693 3.2541835 3.211497
-1.7984442 -0.27423784 0.022361804 -1.4084787 -3.7811313 -2.4328263 -0.3445066 0.21360965
0.39667585 0.82850116 1.2835197 1.3522254 1.37629 -3.7054844 0.05352489 -1.2148113
-1.6359626 -1.9779773 1.647181 0.23761003 0.33426222 -2.0211852 -9.865047 -2.0568085
-0.35817537 -2.055081 0.8517493 1.766017 0.5940745 0.12132768 0.6143452 0.81095695
-0.038809676 -0.009181948 -0.011328623 -0.014009468 -0.033935852 -0.021400206 -0.006661875 -0.0069994675
-0.029766243 -0.06001793 -0.0063672294 0.029588621 -0.015739365 -0.06247623 -0.05612213 -0.049966212
-0.06319955 0.0073963143 -0.026646288 -0.021112341 -0.061373323 -0.017324526 -0.05407986 -0.0029734757
-0.040345687 -0.04104251 -0.041368842 0.04628662 -0.04214996 -0.009593851 -0.031080114 -0.05836439
0.06463378 -0.019884005 -0.019129267 -0.030765966 -0.026623152 -0.04615393 -0.046285655 -0.048217565
-0.06188971 -0.0601573 0.03834241 -0.05729075 -0.001399453 -0.0525262 -0.06401988 -0.06258758
-0.020915264 -0.050798755 -0.00556792 -0.019227527 -0.009012284 -0.022000594 0.0090958495 0.049424928
0.059520844 0.0011212971 0.051568378 -0.041179128 -0.062648535 -0.003947602 -0.031022102 -0.057539895
-0.00496038 -0.0018914066 -0.028103467 0.025437068 -0.043906365 -0.058662523 -0.011867326 0.0011248977
-0.016517699 0.02744676 -0.0070030536 -0.04889431 -0.017823108 -0.0154376095 0.041939188 -0.025904642
-0.0077745887 -0.059118677 -1.5212287 0.75530666 -1.3865716 -8.269105 -1.90054 -4.1508136
-1.8934429 -0.026196066 0.3863582 -0.5203256 0.39886585 0.4105904 1.6281146 -0.67314994
-1.3084825 -0.39714327 -2.116582 0.456924 0.14388023 -1.0545591 0.22077563 0.7394518
-1.8775752 -1.5121844 -0.5591901 -0.4046724 0.4651114 -6.001613 0.82722443 0.4147483
-2.0842602 -0.12245659 -0.6046209 0.54193246 0.44945493 -0.044973258 -0.43505612 -1.2060093
-1.1821808 2.029712 2.3906093 2.4802465 -0.02587547 -1.611416 0.3118183 -1.2691789
0.7380595 4.0666513 1.3863373 0.7541013 -0.9014098 -0.8889086 3.4159622 -6.1402636
-1.4220694 -5.2740493 -3.3434515 -0.6049911 -0.30114645 -0.8075785 1.7746993 -0.9993144
-0.365703 -2.7841616 -6.343291 -0.85335255 2.00998 -0.28972948 -0.30012643 2.5333316
-3.4968324 -0.68235594 -2.6786792 -1.394767 -0.68056583 -0.5317457 1.4556376 0.8658923
0.8512607 2.3514304 3.3062174 0.072494514 -0.59811693 0.6834971 0.37309533 0.6517704
2.514686 1.0472088 -0.18596262 -0.3487007 -0.43611318 -0.055988602 0.7451592 -0.33815852

fc1.bias f4 [50]
00000000: 4b89 8c3e 0fc2 73be 07da 0fbf b43a 923f
00000010: 4fef 563e beff cebd 674b 31be 88ce ad3e
00000020: dd93 80be ad9f 4f3e dee2 993e 1130 323f
00000030: 1a15 9fbe 6564 5ebe 1781 0ebe 2c70 6e3f
00000040: 6761 60be f595 59bf dcf7 113f 309f 42be
00000050: 00dc 90bf 05f8 ab3b 40d8 a6bd ad4c 153f
00000060: b499 643f 1e96 9ebd 4984 0fbd 0bc5 583f
00000070: d1da 713f d3aa 003f 088c d33e 74c5 3abe
00000080: dc25 223e 3f40 31be 7252 06c0 7409 243f
00000090: 2577 663f b9f8 ed3e 5b8b 943f 9787 5b3f
000000a0: 42cc 60be 6739 24be ead7 3a3f 8b72 4cbf
000000b0: 2d8c 21bf 8721 863f 079f 08bf 39cd 9b3f
000000c0: f220 76bf 94b5 8b3f
0.27448496 -0.23804496 -0.5619206 1.1424165 0.20989726 -0.10107373 -0.1731392 0.33946633
-0.2511281 0.20275755 0.30055898 0.69604594 -0.31070787 -0.21717985 -0.13916431 0.9313991
-0.21912156 -0.8499444 0.5701883 -0.19006038 -1.1317139 0.005248072 -0.08146715 0.5832012
0.8929703 -0.07743476 -0.035038266 0.84675664 0.9447451 0.5026066 0.41317773 -0.18239385
0.15834755 -0.17309664 -2.098782 0.64076924 0.9002555 0.46478823 1.1605028 0.8575377
-0.21952918 -0.16037522 0.7298571 -0.7986228 -0.63104516 1.0478982 -0.53367656 1.2172004
-0.9614402 1.0914788

fc2.weight f4 [7, 50]
00000000: 9d7b bbbe 0d70 b43d 3c82 91be 50ec f3be
00000010: 3667 87be 4b9d 07bf 2e97 c9be 524c 0cbf
00000020: 98c8 543d 809d 10be 59f6 eebc 8deb d63e
00000030: f66d 5dbe 200f 8f3c 2d54 9abd 89b2 ce3d
00000040: 9b84 fc3b d03d 80be e1b4 c03e a96c 81bc
00000050: d427 87bd e096 02bf b665 5ebe 10c5 bfbd
00000060: 682e 313e 813b 53bf 69e5 c8ba 71cc 013f
00000070: 4327 dbbe 68b4 c5be bc89 3ebf 289f 70bd
00000080: 317d 06be 3a45 8bbd b615 dabc 728f b7be
00000090: d15c b1bd 6d23 15bf c939 b3be 4b9b 2fbe
000000a0: 7e77 07be 1fb2 d9be 4c6a d83e 65c5 bd3c
000000b0: f205 883d ed86 e3bd ba07 58be 8b08 4dbe
000000c0: 7e4e 2bbe b565 ecbe 599f 2cbf 03ce b53d
000000d0: 99d9 66bf 8a57 193e 7d7a 1abf 2b69 bebe
000000e0: 0fc7 e5be ba83 56bf d195 7439 dd37 0fbf
000000f0: bc64 2d3f 2930 2bbd 72da dfbe c701 6f3d
00000100: b487 b4bc 4620 6fbe a9ef 5bbe 7a9d 79be
00000110: 2254 b6be 431d 15be 797a 8ebf 9736 d7be
00000120: b743 e8be 6c58 af3e 67ec 5cbf 83c9 22bf
00000130: ab11 e13d 4dfb 5bbc 19dd 5d3f b101 bbbe
00000140: 60d5 93bf 296f 55be 20f3 fbbc 3097 c23d
00000150: 7ed6 41bf 848b 933f 47ad abbe cef6 86bf
00000160: aaa0 0cbf 52a0 b63e 4525 183d 6198 c6be
00000170: bd81 9dbe 7779 80be c729 8a3e 186c d0be
00000180: 7f82 6abf 9d93 dabe 7cde b7be 5c7c 6dbe
00000190: 6b19 d03c e751 a0bd 77c0 dabe e870 a2be
000001a0: 772b 18bf 8ca3 f63e c7bd b0be cafa e73d
000001b0: 3a1a 7aba 0f0a 34bf 97d6 cdbe 2319 03be
000001c0: 4d91 02be ddbe 08be 3456 8a3d dc79 9bbe
000001d0: f631 87bd b7ad 23be 0608 84be e57e 913b
000001e0: dd95 5e3e 0202 bcbe 415b 703e 9774 acbd
000001f0: cd9c 3b3d c9fa 30bf 06df 87bd 95f5 00bf
00000200: cd1d b7be f1dd b33d b07b 953d bdc4 cbbd
00000210: 6339 01bd 5e0d 2f3d 6374 20bf 9d41 a1be
00000220: bf6a 30bd 336a 08bf 1514 ecbe bbad 103d
00000230: f69e 183d c5f3 04bf 9444 9cbe a102 b0be
00000240: 6cbf a8be 1782 4fbe 47f0 1abf d4b6 083f
00000250: 1fc0 06be 0808 b9be 12ef 1ebd 1467 813d
00000260: 8d79 f3bd 94bb aabe 8577 11bf feee cebb
00000270: 6975 533e 8cb1 b8be cb1e f33c 7676 0dbf
00000280: ad55 01bd aa1f 8dbd 8fd1 a2be d1ee c5bd
00000290: c013 28bd 999c 493e 3ec5 043d 3339 6abe
000002a0: ac3c b2be 2b1f 5c3d e733 c0be 1fb7 03bf
000002b0: 56b6 55be f9c7 773d 21ff c93d 1335 04be
000002c0: f448 dfbd fe6f acbe 5e48 1b3e 65a1 c6be
000002d0: 4f14 39bf 79e1 6ebe aa88 49bd acfb 563c
000002e0: 2285 e8be d482 c8be 174c 4a3c dc0a 19bf
000002f0: 6c2f e8be dd2d 123e 3200 9cbc 70e2 04bf
00000300: 1cb8 8cbe 988e a4be dba5 86be 0d7b 173e
00000310: 97eb c13d e76c 9dbe 870e 963e 4f65 c9be
00000320: 0bcd bebe f5f6 28bc 7d99 41be 0b48 81be
00000330: 9aa7 7dbd 0997 e9be 4fac 8fbe ef55 0fbf
00000340: 861b c33d 7733 0fbf 01e4 b3be bf95 25bd
00000350: 2538 aebd 72f4 20bc b9e2 adbc fb42 40be
00000360: 8ca7 5dbe 77df 85be 6b5c a0be e7f2 da3b
00000370: 0d05 a3be 9b3d fdbc 9750 06be 44be b1be
00000380: 4a9b 203e 003c 30bf 5b29 3ebd 562e e0be
00000390: bce7 11bc 7f50 463e 5a13 30bf 1dd6 83be
000003a0: ea6b 9b3e 58cc b43d 73ee 2fbf 9028 d43d
000003b0: c893 093e 0d07 f0be bcbd bcbe 74ae dbbd
000003c0: 5a9e 93bd 5539 1f3e f85d 87be 098a aebe
000003d0: a86e a6be 4394 42be 5068 a73e 7f41 8ebe
000003e0: deac c1bd f3aa ac3e aa96 0dbf 979f ecbd
000003f0: e89a bdbe 5369 c7bd 7c03 bbbe ee95 15bf
-0.36617747 0.088104345 -0.28419673 -0.4764123 -0.2644593 -0.52974385 -0.39373153 -0.54803956
0.051949114 -0.14122581 -0.029170202 0.41976586 -0.21623978 0.017463267 -0.075355865 0.10092647
0.0077062375 -0.2504716 0.37638 -0.015798884 -0.065993935 -0.51011467 -0.21718487 -0.093637586
0.17302859 -0.8251267 -0.0015327159 0.5070258 -0.42803392 -0.38614202 -0.74428916 -0.058745533
-0.13133694 -0.06800313 -0.02662168 -0.35851628 -0.086602814 -0.5825718 -0.35005024 -0.17149083
-0.13229176 -0.42518708 0.42268598 0.023165414 0.06641759 -0.111097194 -0.21096697 -0.2002279
-0.16729161 -0.46171346 -0.67430645 0.08877184 -0.9017578 0.149748 -0.6034315 -0.37189612
-0.44878432 -0.8379475 0.00023325464 -0.55944616 0.67731833 -0.041793976 -0.43721348 0.058351304
-0.022037365 -0.23352155 -0.21478142 -0.24376479 -0.35611063 -0.14561944 -1.1131126 -0.42033836
-0.45364162 0.34247148 -0.8629822 -0.6358873 0.10989698 -0.013426614 0.86665493 -0.36524728
-1.1549492 -0.20843185 -0.03075558 0.09501493 -0.75717914 1.1526952 -0.33530638 -1.0544069
-0.54932654 0.3566919 0.037144918 -0.3878813 -0.30763045 -0.2509267 0.26985 -0.4070747
-0.9160537 -0.42690745 -0.3591193 -0.2319197 0.025402745 -0.07828122 -0.42724964 -0.31726766
-0.5944132 0.4817165 -0.3451979 0.11327131 -0.0009540651 -0.7032785 -0.40202782 -0.12802558
-0.1275074 -0.13354059 0.06754723 -0.3036641 -0.06601326 -0.15984236 -0.2578737 0.004440176
0.21736856 -0.36720282 0.2347231 -0.08420675 0.045803834 -0.6913267 -0.06634335 -0.5037473
-0.35764924 0.08782566 0.07298982 -0.09949634 -0.03154887 0.042737357 -0.6267759 -0.3149537
-0.04307055 -0.5328705 -0.4610907 0.035321932 0.037260972 -0.5193446 -0.3052107 -0.34377006
-0.32958543 -0.20264469 -0.60522884 0.53403974 -0.13159226 -0.3613894 -0.038802214 0.06318489
-0.11888418 -0.33346236 -0.56823 -0.006315111 0.20650257 -0.36072958 0.02967777 -0.5525888
-0.031575847 -0.06890805 -0.31800506 -0.09664691 -0.04103446 0.19688644 0.032414667 -0.22873382
-0.34811914 0.05374066 -0.37539598 -0.51451296 -0.20870337 0.060493443 0.09863115 -0.12910871
-0.109025866 -0.33679193 0.15164325 -0.3879501 -0.72296613 -0.23328198 -0.0492026 0.013121527
-0.45414072 -0.39162314 0.012347243 -0.59782195 -0.4534868 0.14275308 -0.019043062 -0.51908016
-0.27484214 -0.3214004 -0.26298413 0.14793034 0.09468763 -0.30747148 0.29307958 -0.39335105
-0.3726581 -0.010312785 -0.18906207 -0.25250277 -0.061927415 -0.45623043 -0.2806115 -0.559905
0.09526734 -0.55937904 -0.3513489 -0.040426012 -0.085068025 -0.009823905 -0.021226274 -0.18775551
-0.21645945 -0.26147053 -0.3132051 0.0066817882 -0.3183979 -0.030913165 -0.1311668 -0.34715474
0.15684238 -0.6884155 -0.04642616 -0.43785352 -0.008905347 0.19366644 -0.6877953 -0.25749293
0.3035577 0.08828038 -0.6872322 0.10359299 0.1343528 -0.4688038 -0.36863506 -0.10726634
-0.072079375 0.15549214 -0.2643888 -0.34089687 -0.325063 -0.1900187 0.32696772 -0.27784345
-0.094568 0.33724174 -0.5530802 -0.11553877 -0.37032247 -0.09736886 -0.36526096 -0.584319

fc2.bias f4 [7]
00000000: 7fa8 f7bd 789c d3bf 93ff 9d3d 1965 df3e
00000010: 6b86 c53c 7a2d 26bd 3f3d 623e
-0.12092685 -1.6532125 0.077147625 0.4363182 0.024111947 -0.040570714 0.22093676

localization.0.weight f4 [8, 1, 7, 7]
00000000: 289e 4e3d 7ec0 123d 11ed 183e 5703 bbbd
00000010: 3567 753d c131 05bb 41b0 0cbd ed1c e33c
00000020: 170e 033e 4abe 99bd 3102 573b 312a 013e
00000030: c2ad 2abd c024 cdbd bce9 4cbd e9e2 dbbd
00000040: 8ef5 da3d 21d0 e7bd 8c4f fa3c 3b39 3a3d
00000050: be08 6bbd c79b b2bb cd0d 68bd f27a 8fbd
00000060: ab59 b73c 470b b2bd d923 66bd cf85 1c3e
00000070: bfa6 c2bb f96c c0bd a9c4 403d 2838 0dbd
00000080: 0cf5 3a3c cee1 503d 11d8 a83d 908b f53d
00000090: c8de eabb 493a 003e 13a9 1b3d ea64 b4bd
000000a0: 9ccc dc3d b001 d33d cf10 01be aac6 ba3d
000000b0: e3f3 dcbd c7ba 3abd 4184 d53d 1f38 6ebd
000000c0: 0fdb 613d b029 0c3e 0dd7 80bd f5ce 07be
000000d0: 6552 6abc 3b95 5b3c 1b78 d2bd f91f cdbd
000000e0: fe18 cbb9 0630 84bd 3252 f93d 4608 b1bd
000000f0: e75c 0e3e 4500 e63b bbdd 783d 339b cdbc
00000100: f62e b9bd 773c 6cbd 95be d43d e6ed 133d
00000110: 51f3 833c 21fc 1bbd b4b9 d2bc 09e4 8f3d
00000120: 109e c83c df78 20bd ed42 dd3d 183a 313d
00000130: 9b42 e7bd c9b6 6c3d 553b de3d 2780 e8bb
00000140: 9c54 d03d fe74 15bd 0aba 36bc b361 5dbd
00000150: 29fe c8bd af0c c2bd 3a07 48bc abb5 0f3c
00000160: 7418 ca3d 269f b43c 987f 073e 5a31 8bbd
00000170: 2e54 c43d 1551 a63d 0e76 3d3e 93d8 9c3d
00000180: e4e1 6bbd 747d bc3b 2c11 b03d 89bc 8b3c
00000190: 80e7 e8bd 001c b93d da55 013e 64e1 82bd
000001a0: 8b6b 92bd b7f3 023d 7f6a 0a3c 0e0b 133e
000001b0: 7129 033d 8d90 393d 1bb8 e3bd 8887 6cbd
000001c0: fbc2 c3bd 6dca 4cbd dd6e 8a3b c7d4 253e
000001d0: feb2 de3b cb73 243e 86c1 b43d bcad 48ba
000001e0: c805 613d b5b4 0f3d 08ac 8d3d d3f8 87bb
000001f0: 6d1d 68bd 9768 74bd 801d 8c3d 1f5d d1bd
00000200: de76 a53d f454 99bd 54d8 a03d f6c2 a13d
00000210: 91cb 0fbc 18e2 1939 7ed1 53bd 8fb8 f13d
00000220: 54e4 383d 0e0b 81bd d56c 8a3d c71e b93d
00000230: ea9f 863c f0f7 b23d 237f 2bbd 11b4 8a3d
00000240: b80c 13bd 12fb 6f3d 1bd9 c93d 4f11 83bd
00000250: 7fa7 cdbb b5dd 28bd f44c 0abd d1de 0f3e
00000260: 4524 673c b7cb 4ebd a3ad fb3d 6d36 1a3e
00000270: d790 113e 72a0 55bd df11 a2bd 7b52 93bc
00000280: 6432 c8bd 83fa d2bd eb20 153e 44d8 813d
00000290: e4a8 a93d 808e 18bd 80c8 8dbd db9d 9ebc
000002a0: aca4 17bd 922a f6bc 7c95 d73d 414a 343a
000002b0: ce46 d13d 5c7c 1c3e 43c5 12bd eeae cabd
000002c0: 716a 183e 8319 b93b caf9 4fbd 28a9 87bc
000002d0: 4392 1fbd 665a 4fbd 4cf1 f1bd f9d6 a23d
000002e0: 8257 773d 481c c73d f128 993d df64 a03d
000002f0: dc9f dbba d7a2 733c e593 46bd 87e4 0e3e
00000300: c53a 033e f755 6d3d c238 b8bc b5ab d0bd
00000310: 71ba cabd 4051 96bc c67f 243d eb2a cfbd
00000320: dad2 debb 8f29 eebd 64c6 81bd da03 8c3d
00000330: b151 eabd 328d bcbd cf6e c93d c43b d13c
00000340: bb4c 083d 737a 2cbd 2346 263d 7a38 4dbc
00000350: 4598 a3bd 8e7d 5e3d 925c c33d 028d 973d
00000360: 2aee c7bd 123d 083e 5f27 9ebd 78ae 11bc
00000370: 8584 f53d 3504 b43d aa91 fd3b 1478 88bd
00000380: 44bd 463c 4f83 8fbd f207 b9bd 2f80 dc3d
00000390: bedc a5bc 7339 b4bd 9b7c 51bb f423 dfbd
000003a0: e78a b33d b768 a33d adee 743d 7d11 8a3d
000003b0: 0770 7d3c 06c6 49bd 3a50 8abc 6e92 86bd
000003c0: 0552 21bd dbfe 02be 79ab 5cbd 5281 e43d
000003d0: 3336 dabd ae6b 043e 1059 b6bd 9b74 e23d
000003e0: 51d3 eebc 8432 0b3c e1f1 bf3b 4b02 b6bd
000003f0: 631c e73c a1ea ca3d 7891 9ebb 8dec 90bd
0.0504438 0.035828106 0.14934184 -0.091314964 0.05991288 -0.0020323845 -0.034347776 0.027723754
0.12798344 -0.07506998 0.0032807703 0.12613751 -0.041669615 -0.10016775 -0.050027594 -0.10736639
0.10691367 -0.11318994 0.030555509 0.045464735 -0.057381384 -0.005450699 -0.056653786 -0.07005872
0.022381624 -0.08693557 -0.05618653 0.15285419 -0.005940288 -0.09395785 0.04706255 -0.034477383
0.011410963 0.050996594 0.082443364 0.1198951 -0.007167671 0.12522234 0.03800304 -0.0880831
0.10781214 0.10303056 -0.12604068 0.091199234 -0.10788705 -0.04558828 0.10425616 -0.05815899
0.05514055 0.13687778 -0.06291018 -0.13262542 -0.014301871 0.013402279 -0.102768146 -0.10015864
-0.00038737798 -0.06454472 0.12173881 -0.08644156 0.13902627 0.007019075 0.060758334 -0.025098419
-0.0904216 -0.05767485 0.10387913 0.03611555 0.016107233 -0.038082246 -0.025723316 0.07025916
0.024489433 -0.03917777 0.10803781 0.043268293 -0.11292001 0.057791505 0.108511604 -0.007095355
0.10172388 -0.036488526 -0.011152754 -0.05404825 -0.09814102 -0.094750755 -0.012208754 0.00877134
0.09867945 0.022048544 0.13232267 -0.067965224 0.095863685 0.08120934 0.18502066 0.07658496
-0.057588473 0.00575226 0.08597025 0.017057674 -0.1137228 0.09038544 0.12630406 -0.06390646
-0.071494184 0.031970706 0.008448242 0.14359686 0.032021943 0.04530387 -0.111191 -0.05774644
-0.09558674 -0.049997736 0.0042246417 0.1619445 0.00679624 0.16059797 0.08825974 -0.0007655283
0.054937154 0.035084445 0.06917578 -0.004149535 -0.056668688 -0.059670057 0.06841564 -0.102228396
0.08079313 -0.07486907 0.07853761 0.07898514 -0.008776561 0.00014675444 -0.05171346 0.1180278
0.045139626 -0.06300937 0.06759039 0.090390734 0.016433675 0.087386966 -0.041869294 0.06772626
-0.0359008 0.05858905 0.09855863 -0.06399786 -0.0062760706 -0.04122706 -0.033764794 0.14049841
0.014107768 -0.050487246 0.12288978 0.15059824 0.14215408 -0.052154966 -0.07913565 -0.017983666
-0.09775236 -0.103016876 0.14563338 0.063400775 0.082841665 -0.037245274 -0.06923008 -0.01936238
-0.037022278 -0.030049596 0.10526559 0.000687752 0.10218583 0.15281814 -0.035832655 -0.098966464
0.14884354 0.005648793 -0.050775327 -0.016560152 -0.038957845 -0.05062332 -0.11813602 0.07951159
0.06038619 0.09722191 0.07478512 0.0783174 -0.0016756016 0.014870367 -0.048480887 0.13954364
0.12815388 0.05794331 -0.022488002 -0.101890005 -0.09898842 -0.01834929 0.040160917 -0.10115608
-0.006800038 -0.116290204 -0.06336668 0.06836672 -0.11441363 -0.09206618 0.09835588 0.025541194
0.0332763 -0.042108964 0.04059423 -0.012525672 -0.079880275 0.054318957 0.09539141 0.07399942
-0.09762223 0.13304546 -0.07722353 -0.008891694 0.11988167 0.08789865 0.007738312 -0.06663528
0.012130085 -0.07007467 -0.090347186 0.107666366 -0.02024686 -0.0880002 -0.003196514 -0.108955294
0.08766728 0.07978957 0.05979793 0.06741617 0.015468604 -0.049261115 -0.016883958 -0.06570898
-0.03938486 -0.12792532 -0.053874467 0.111574784 -0.10654869 0.12931702 -0.08903706 0.11057397
-0.029153498 0.008495931 0.0058576916 -0.08887156 0.028211778 0.09908033 -0.0048391186 -0.070763685

localization.0.bias f4 [8]
00000000: 521d d5bd 56b2 f53d 9fcd 1abe 42ae 40be
00000010: b827 a0bd 26ad d53d 3157 17be b501 69bd
-0.10405983 0.119969055 -0.151175 -0.18816474 -0.07820076 0.10433416 -0.14779355 -0.056886394

localization.3.weight f4 [10, 8, 5, 5]
00000000: cbf5 89bd 2f23 afbd dfa0 15bc 1cd9 0cbb
00000010: 4dc8 5ebd 9844 8dbb 40b5 98bd cd1a 69bd
00000020: ffa7 c3bd 6937 0b3a 9f3b 05bd 019e 7ebd
00000030: e6b3 3cbd a8e0 97bd 6932 353c 6585 cebd
00000040: c47a 4cbd 5753 e43a 8b0a 2dbd ff6b 2a3d
00000050: 4b84 67bd b6a2 62bd 7b1b aa3c c00b 0bbd
00000060: 1817 43bb 51d8 c4b8 2a90 01be e863 8fbd
00000070: b69b a1bd 1911 82bc 6b5e d6bd 8def 5abd
00000080: 3d71 b5bb c04b 04be b82a 35bd e36b aabd
00000090: 02f4 0bbd 2127 3dbc 8c2f c8bc 665c 3bbd
000000a0: 29f1 2cbd 9367 d5bd d9d8 b7bd f863 d9bd
000000b0: 3a4d 1bbd 85f8 b5bc 6f4d babc b0b6 4abc
000000c0: 3218 d3bd bb49 93bd a0c6 4cbc a5cd c6bb
000000d0: bd96 d23c 2834 db3c fd16 9d3d 441d ab3c
000000e0: 86ad 7bbd 6247 193d df75 27bd 1f00 773d
000000f0: b5af dc3c 226d 113d 160b abbc b583 2c3d
00000100: 9118 cf3c c8a0 d43c 826d d3bc 3a76 343d
00000110: e425 793d 5cfe 1bba a57b 1f3d 05ca 58bd
00000120: 479e 10bd 62d7 ea3b b3c6 073d 08b3 49bd
00000130: 4959 6a3c ea79 403c 55f8 26bb e5b1 a7bd
00000140: 6dd3 4bbd 8993 c63c 5855 29bd 4e38 96bd
00000150: ce92 b43c be0a 753c 1252 263d a1b2 e73b
00000160: 1baa 95bd 6c23 1bbc 58c7 1b3c 613a 0ebc
00000170: 080f f3bc 3116 2c3d 6624 d4b9 ff52 66bb
00000180: 342a 38bc 4f39 b9bc c5e4 70bd be28 58bd
00000190: 9f58 d43b 4fde 2fbd d9d3 5b3d abd2 65bd
000001a0: 7359 173d a982 d23c a921 40bd 6131 6fbd
000001b0: 7f86 a43b eb10 6cbc 8d01 373d c62b 9fbd
000001c0: f4d6 e33c 41ae 90bd 5d5e 403c 4904 1b3d
000001d0: b415 55bb 31e8 09bd 5ad6 e0ba c3e1 d8bc
000001e0: b7c7 e5bc 6150 1fbd 6f91 043d 3001 463d
000001f0: a61e 77bd 41b9 b03c 1b5b dbbd 10b7 45bc
00000200: e3d4 73bd 48af 1f3c d8ea 0ebd fb59 59bd
00000210: 3dca a7bd e83d cabd 4c5d cdbd 1cef 9dbd
00000220: 2cdc c4bd 2051 abbd 0fda 73bc 59cb 86bc
00000230: db71 b2bd 1543 7fbd d8fd 6bbd 0b67 72bd
00000240: 79bb 2ebd 92eb dcbd 5ac9 a8bd 9775 833c
00000250: bd81 c6bd 7668 8dbd 8797 2abd cb3c 88bc
00000260: a4a0 29bd 33b3 58bd c1c3 92bd e508 873c
00000270: e6bd 433c a961 e63c beca 513b e834 173d
00000280: 2cfc 21bd 9ab2 b3bc 8230 bdbb 294d a2bd
00000290: 58a3 67bd ae23 973c f32d 9bbb a65b a3bd
000002a0: 3021 07bd 8703 64bd f34a c73c c27b 4d3d
000002b0: fb88 9d3c e50d 4a3d 80f0 653d a7e8 823b
000002c0: 9570 76bc 1b26 6a3c 10c5 e0bd 23a0 75bd
000002d0: 40aa b5bd 2459 4d3c 9786 b3bd 4fb5 87bd
000002e0: bec2 2ebd 5b1a debd cafa 1bbb 99db 05bd
000002f0: 8228 91bd ce69 74bd def1 0d3d 995f b2bd
00000300: 15df 6cbd 75a2 0b3d 0add e43c bf56 5ebc
00000310: b669 8bbd bd52 443d eacb bcbd 7cce 5ebd
00000320: ed7a 20bd 5db0 50bd af4a 71bd be50 97bd
00000330: 3cf9 4ebd b5e7 d7bd 2c62 993c 3b54 2d3d
00000340: c6aa d6bc 4d52 acbb ab93 59bd 7676 8f3c
00000350: 17b0 2e3c 79ef b03b e0e4 8dbc 51c0 93bb
00000360: 3006 463d 7043 f9bc 3aec fa3c b8f9 0d3c
00000370: 639d 6d3c 08d1 c4bd 9c6a d7bd d1db d83c
00000380: 1859 2bbd 7ce0 23bd 3d1a d63b 1dd2 76bb
00000390: 4db2 b0bc feaa cebd 4841 f43c 1a5a 55bc
000003a0: 405d cebc 16c1 7c3c 43e1 f5bd 643e 86bd
000003b0: 1ba5 7bbd bd86 6fbd 6d11 b1bd 0555 a8bd
000003c0: b3d2 5fbd a006 f8bc 6e35 b3bd e033 24bd
000003d0: 8fc0 1ebd 4a92 d3bc ca83 a6bc b30a f1bc
000003e0: 44ea e9bd d47a da3b 66c7 7dbd 1b78 a4bc
000003f0: c4f8 293c 9b34 97bd 13fc 87bd b471 ebbb
-0.067363344 -0.085516326 -0.009132593 -0.0021491712 -0.05439024 -0.0043111555 -0.07456446 -0.056910325
-0.09553527 0.0005310686 -0.032527562 -0.062162403 -0.046070002 -0.07415897 0.011059382 -0.10084037
-0.049921766 0.0017419857 -0.042246383 0.0416069 -0.05652265 -0.055330954 0.020765057 -0.033946753
-0.0029768404 -9.3863004e-05 -0.1265265 -0.070014775 -0.07891028 -0.015877293 -0.104672275 -0.05345111
-0.0055371807 -0.12919521 -0.044230193 -0.08321359 -0.03416825 -0.011544974 -0.024436735 -0.045742415
-0.042222176 -0.10420146 -0.08976907 -0.10614771 -0.037915446 -0.02221323 -0.022742001 -0.012372658
-0.10307349 -0.07191797 -0.012498528 -0.006066995 0.025706643 0.026758268 0.076704 0.020887978
-0.06144478 0.03742159 -0.040883895 0.06030285 0.026939252 0.035504468 -0.02087931 0.042117793
0.025280269 0.025955573 -0.025809053 0.044058062 0.06082715 -0.0005950683 0.038936276 -0.052927036
-0.035307195 0.007166789 0.03314848 -0.049243003 0.014303514 0.011747817 -0.0025477607 -0.081882276
-0.04976218 0.024240272 -0.041341156 -0.07334958 0.022042658 0.014956174 0.040605612 0.007070855
-0.07307836 -0.009468894 0.0095079765 -0.008680911 -0.029670253 0.04201335 -0.0004046291 -0.0035144684
-0.011240531 -0.022610335 -0.05881192 -0.05277323 0.006480291 -0.04293662 0.05366883 -0.05610911
0.03695054 0.02569707 -0.0469071 -0.0583967 0.005020916 -0.01440833 0.044679213 -0.07772021
0.027812459 -0.07064486 0.011741248 0.037845884 -0.0032514157 -0.0336687 -0.0017153725 -0.02647484
-0.028049333 -0.038895015 0.03236526 0.048340976 -0.060331963 0.021572711 -0.10710736 -0.012067571
-0.059529196 0.00974638 -0.034891933 -0.053064328 -0.08192871 -0.09875089 -0.100275606 -0.07711622
-0.09612307 -0.08365083 -0.014883532 -0.016454386 -0.087131225 -0.062319834 -0.05761513 -0.0591803
-0.042659257 -0.10787119 -0.0824153 0.016047282 -0.09692714 -0.0690469 -0.041648414 -0.01663055
-0.041412964 -0.052905273 -0.07166243 0.016483733 0.011947131 0.02812274 0.0032011713 0.03691569
-0.03954713 -0.02193575 -0.005773605 -0.079248734 -0.05655226 0.01844963 -0.004735702 -0.07976465
-0.032990634 -0.055667426 0.02432773 0.050166853 0.019230356 0.049329657 0.05613756 0.0039950195
-0.01504149 0.014291312 -0.10975087 -0.05996717 -0.08870363 0.01253346 -0.08765905 -0.06626379
-0.04266619 -0.10844871 -0.0023800605 -0.032680128 -0.070878044 -0.059671216 0.03465449 -0.0870964
-0.057829935 0.034090478 0.02793743 -0.013570487 -0.06807272 0.047930468 -0.09218581 -0.054396138
-0.03917973 -0.050949443 -0.058909114 -0.07388447 -0.050530657 -0.105422415 0.01872357 0.042316657
-0.026204478 -0.0052588345 -0.053119343 0.017512541 0.0106621 0.005399641 -0.01732105 -0.00450901
0.048345745 -0.030427665 0.03063022 0.008665495 0.014502856 -0.09610182 -0.10518381 0.026472004
-0.041833013 -0.040009007 0.0065338896 -0.0037661858 -0.021569395 -0.10091208 0.029816285 -0.01302197
-0.02519095 0.015426895 -0.12005856 -0.06554869 -0.061436754 -0.058478106 -0.08645902 -0.08219341
-0.054644298 -0.030276597 -0.08750425 -0.040088534 -0.038757857 -0.025826592 -0.020326514 -0.029424047
-0.11421636 0.0066674743 -0.06195774 -0.020076802 0.010374252 -0.073830806 -0.06639876 -0.0071851853

localization.3.bias f4 [10]
00000000: dcfb 1bbc 0c12 ea3b f45c a3bb 9ec7 6ebc
00000010: 65b6 b7bd 0067 b8bd c5ae 7c3c f00e 3abd
00000020: 212b 04bd 7c4c 67bd
-0.009520497 0.0071432646 -0.004985446 -0.01457396 -0.08970336 -0.09004021 0.015422528 -0.0454244
-0.032267693 -0.056469426
