Speaktrum_by_SOVA_Latest-Trained.pt (torch, 274842 bytes, 24 tensors)

conv1.weight f4 [10, 1, 3, 3]
000000 79 a0 02 bf a2 32 f3 bf ec be c5 bf d5 7d bc be
       -0.5102611 -1.8999827 -1.544889 -0.36814752
000010 61 86 d6 40 34 11 ad be c2 b6 d5 3f 92 0f 03 40
       6.7039037 -0.33802187 1.6696398 2.0478253
000020 bd 06 7e 40 ee 62 15 bf d4 ca c0 40 06 10 02 41
       3.9691613 -0.5835408 6.0247593 8.128912
000030 1d e7 81 bf c9 7b 84 40 57 27 2a c0 b7 1a 0d c1
       -1.0148655 4.1401105 -2.658651 -8.819022
000040 e3 03 95 c0 3a 1d 42 c1 8e 77 9d 40 cb 3f 22 40
       -4.6567245 -12.132135 4.920844 2.5351436
000050 a9 8f 32 c1 03 5b 60 c0 f2 70 90 3f 78 02 0f 40
       -11.160073 -3.505555 1.1284468 2.2345257
000060 b8 f5 26 c1 5c 34 23 3f fa 44 c4 40 67 9b f4 c0
       -10.43499 0.6375177 6.13342 -7.64397
000070 59 39 f0 c0 12 81 f3 3f 6a f6 53 c0 b9 ec 88 c0
       -7.5070004 1.9023764 -3.311915 -4.278897
000080 8b cc 48 c0 f5 18 b8 bf 69 f4 da bf 12 b3 ea c0
       -3.1374843 -1.4382616 -1.7105838 -7.334359
000090 02 de 10 41 f0 b4 6a 3f 19 e8 56 c0 66 1a dd 40
       9.054201 0.9168234 -3.357916 6.9094725
0000a0 0d 6b 11 40 79 f1 b6 c0 99 1a 77 3f 47 74 77 bf
       2.2721589 -5.7169766 0.9652496 -0.966618
0000b0 33 4e d0 c0 55 0b 11 41 73 23 b8 40 80 75 b1 bf
       -6.509546 9.065267 5.7543273 -1.3863983
0000c0 24 71 a9 3e a7 22 3c 40 17 f4 64 bf 53 46 64 40
       0.33094132 2.939615 -0.8943495 3.5667922
0000d0 2c af 96 40 57 60 4a 3f 67 b3 bc c0 c9 33 08 c0
       4.7088833 0.7905325 -5.8968997 -2.1281607
0000e0 64 b5 39 40 aa 51 a5 c0 c6 d1 b6 c0 52 56 f9 bf
       2.9016962 -5.1662188 -5.713107 -1.9479468
0000f0 09 69 a8 c0 3e 37 82 bf 42 8f 8b c0 05 e2 e6 bf
       -5.2628217 -1.0173109 -4.3612375 -1.8037726
000100 d4 b4 bb 40 51 c3 1f 41 32 25 87 40 1c 22 9d 40
       5.8658237 9.985185 4.2232904 4.9104137
000110 19 40 98 40 0f 91 9d c0 3a 10 78 c0 f4 80 85 c0
       4.7578244 -4.9239573 -3.8759904 -4.1719913
000120 ee 81 0c c1 b2 cb a5 c0 43 f7 46 41 dd 72 3e bf
       -8.781721 -5.181115 12.435367 -0.7439402
000130 78 6d 4c c0 cc dd 22 be ee b1 e5 40 73 0d f8 c0
       -3.1941814 -0.15904921 7.17797 -7.7516418
000140 57 bf 3a c0 6e 4f 8d bf 1c c3 47 3f 33 e2 f6 3f
       -2.9179285 -1.1039865 0.7803209 1.928778
000150 f8 06 61 40 2b 85 66 c0 a8 38 03 c1 d4 6d 33 c1
       3.5160503 -3.601878 -8.201332 -11.2143135
000160 5b 2a 59 bf 1d 35 ed c0
       -0.84830254 -7.4127336

conv1.bias f4 [10]
000000 37 1f c4 40 e5 e3 f8 c0 dc a3 4a c0 09 31 9d c0
       6.1288104 -7.777819 -3.1662512 -4.9122357
000010 31 08 c5 3f e0 0e 87 c0 3f 47 d0 be 00 34 e0 c0
       1.5393125 -4.220566 -0.40679356 -7.0063477
000020 e6 7c 98 c0 2d 6d bc c0
       -4.7652464 -5.888327

conv2.weight f4 [10, 10, 3, 3]
000000 be 43 d5 40 86 12 db 3b cf 53 9b 40 f4 67 02 3f
       6.6645193 0.006685558 4.8539805 0.5093987
000010 a0 e0 f3 bf 52 79 10 c0 9b 70 f8 3e f0 3e 94 40
       -1.9052925 -2.2574048 0.4852341 4.632683
000020 a5 e6 84 40 2a ac ff bf 6d 03 17 c0 d1 4e dd c0
       4.153155 -1.9974415 -2.359584 -6.915871
000030 29 5c 08 c1 c3 6d 63 40 7a 1e 6e 41 5b 53 3f 40
       -8.5225 3.5535743 14.882441 2.9894626
000040 12 6b 88 40 5c 22 d4 40 03 8e 22 40 22 c6 73 40
       4.26307 6.6291943 2.5399177 3.808968
000050 cb 1c 7a 40 e3 33 f4 bf f9 5c 16 c1 0a e8 2f c1
       3.9080074 -1.9078335 -9.397698 -10.99415
000060 a4 29 5e 40 35 34 49 c0 be 16 89 40 63 4e 85 c0
       3.4712915 -3.1438115 4.284026 -4.1658187
000070 f9 0f 28 bf 12 c6 8b 40 1f 58 10 c0 35 ee 25 be
       -0.6564937 4.3679285 -2.2553785 -0.1620415
000080 9c e3 12 41 75 0a b9 40 20 9c 88 c1 29 73 c5 40
       9.180569 5.7825265 -17.076233 6.1703076
000090 3c 79 15 c0 6b 13 62 40 2d d3 8b 40 bf 70 06 c0
       -2.3355246 3.5324352 4.3695283 -2.1006315
0000a0 fb 43 62 bf 65 b7 60 bf 3c 33 a9 3f fc a7 c1 c0
       -0.8838498 -0.8777984 1.321876 -6.051756
0000b0 55 f4 68 3f 43 f4 c6 40 db dd d3 bf 8a 85 00 41
       0.9099782 6.217317 -1.655208 8.032602
0000c0 f5 c2 5f 3e c6 f2 21 c0 86 8e d6 bf 20 00 1e c0
       0.21851714 -2.5304427 -1.6762245 -2.4687576
0000d0 52 9a 9c 40 f0 e7 a3 3f 3e 09 83 40 76 ec c6 40
       4.893838 1.2805157 4.094878 6.216365
0000e0 5c 10 fd 3f 5b fd b0 c0 da 4d 8d bf c5 50 c0 c0
       1.9770617 -5.530927 -1.1039383 -6.0098596
0000f0 b1 f0 63 c0 75 45 0f 40 c7 19 06 41 7a 89 a7 c0
       -3.5615656 2.2386143 8.381293 -5.235532
000100 56 59 f8 bd 9c b7 68 3f 37 d6 79 c0 50 ce 8c c0
       -0.121264145 0.90905166 -3.9036996 -4.4001846
000110 f6 7c 24 c0 3a 46 80 40 a8 06 fc bf 12 00 c2 40
       -2.570127 4.0085726 -1.9689531 6.0625086
000120 5c 9c 55 40 1b d7 16 41 9e be e4 bf b2 37 0b c1
       3.3376684 9.427516 -1.7870672 -8.7010975
000130 1a ba 90 c0 2b 44 bb c0 f0 f4 2a bf 25 22 6a c0
       -4.5227175 -5.8520713 -0.66779995 -3.658334
000140 46 de a4 c0 98 75 2f 40 6b 2c 29 c1 fb ec 7b bf
       -5.152133 2.7415524 -10.573344 -0.9840848
000150 96 a6 d9 40 4f 06 85 c1 0d 22 d7 c0 c9 5a e8 c0
       6.801585 -16.62808 -6.7229066 -7.261082
000160 16 e0 4e c1 22 3c cb c0 2f 5a 9b 40 73 e1 04 c1
       -12.9297085 -6.3510904 4.8547587 -8.305041
000170 e1 23 35 bf 57 4b 21 41 49 9b 9d c0 85 de a2 c0
       -0.7075787 10.0808935 -4.9252057 -5.089663
000180 28 5c 38 3f a3 1c 86 40 b4 ff 95 bf 14 34 f2 c0
       0.7201562 4.1909957 -1.1718659 -7.568857
000190 51 af 9a 3f 5f d8 4d c1 2e c7 29 c1 8e 91 b0 40
       1.2084752 -12.865325 -10.611128 5.517768
0001a0 3d 41 ea bf 77 57 eb bf cc 0e bc c0 6f 1f 07 c1
       -1.8301159 -1.8386067 -5.8768063 -8.445174
0001b0 c6 51 d5 c0 09 af 26 c0 c2 28 9d c0 fb eb 9f bf
       -6.666232 -2.6044333 -4.9112253 -1.249389
0001c0 e9 7a 09 41 f5 0d c8 40 78 8e 2b c1 6b c3 83 40
       8.592507 6.2517037 -10.722282 4.1176047
0001d0 8a b6 9d 40 11 a0 07 41 ac 17 47 40 e5 e8 c5 c0
       4.9285326 8.476579 3.1108198 -6.1846795
0001e0 7c 9d 6d 3f 96 6b cf 3f bc 49 72 40 2d b1 45 40
       0.9281843 1.6204708 3.7857504 3.088939
0001f0 95 8e 34 40 5d 0a 1f c0 20 91 61 3f 8b 6a 8c bf
       2.8212025 -2.4850075 0.8811207 -1.0970014
000200 38 78 92 c0 75 40 2d 40 62 84 09 40 83 05 dc 40
       -4.577175 2.7070591 2.148705 6.875673
000210 b9 74 0b 40 23 64 0e 40 fc 13 ea 40 78 4f 00 40
       2.1789992 2.2248619 7.3149395 2.0048504
000220 9b cf 84 c0 91 46 04 3f 0d 2a 5c 3f 5e 63 df 40
       -4.1503425 0.51670176 0.86001664 6.98088
000230 af b3 86 c0 31 57 44 40 4d 76 89 40 1c ac d5 bf
       -4.209434 3.0678217 4.295691 -1.6693149
000240 4f 4c 14 40 65 15 6a bf ba fd 11 c0 be 2b a8 40
       2.3171575 -0.91438895 -2.2811112 5.2553396
000250 31 2c 56 bf 18 77 45 c0 88 4b 6d 40 40 93 a2 c0
       -0.8366118 -3.085394 3.707735 -5.080475
000260 08 17 34 40 9c 14 f1 40 5f ea 28 c0 08 06 a7 bf
       2.8139057 7.533766 -2.6393049 -1.3048716
000270 b3 1c 60 41 7e 9c a3 c0 49 37 06 40 dd f5 a4 40
       14.007007 -5.112853 2.0971243 5.1550126
000280 bb 47 55 3f ac a6 20 3f 1d b0 c9 3f d1 a7 1e c0
       0.83312577 0.6275432 1.575687 -2.4789927
000290 62 3a d7 c0 fc 9d f4 c0 34 f4 58 c1 12 73 84 c0
       -6.725877 -7.644285 -13.55962 -4.1390467
0002a0 d9 bc 05 c0 93 dc 54 c1 1d 7f d7 bf f8 7d 71 40
       -2.0896513 -13.303851 -1.6835667 3.7733135
0002b0 57 d5 3f c0 f0 17 98 3e 19 38 8b 3f 40 44 b4 bf
       -2.9973962 0.29705763 1.0876495 -1.4083328
0002c0 61 cc e2 c0 06 35 bf 40 af c3 59 41 d4 1b 57 c0
       -7.0874486 5.9752226 13.610274 -3.3610735
0002d0 67 e7 ba 40 64 80 bc c0 18 1e 28 be dd 92 b2 c0
       5.8407474 -5.8906727 -0.1641773 -5.5804276
0002e0 c6 74 e0 c0 cb 2d 42 3f 01 68 07 c1 20 91 ad c0
       -7.0142546 0.75851125 -8.462892 -5.4239655
0002f0 25 e2 3f 40 f4 76 73 41 02 94 13 40 ce fa 83 40
       2.9981778 15.216541 2.3059087 4.124366
000300 0b 2c 3b 3f 8c d7 e7 40 ea 63 4f 40 a9 19 57 c0
       0.7311408 7.245062 3.2404733 -3.3609412
000310 58 70 e4 40 e6 e4 fd 3f 36 fd 95 c0 f1 73 49 bf
       7.138714 1.9835479 -4.6871595 -0.7869254
000320 1d 41 1a bf 89 a8 2c c0 e5 7f 4d 40 e7 47 7f c0
       -0.60255605 -2.6977866 3.210931 -3.9887636
000330 a0 20 15 c0 d3 4f 5c 40 23 f5 d0 c0 a1 46 f9 40
       -2.3301163 3.442372 -6.529924 7.7898717
000340 b5 aa 40 40 8e be ff bf 45 a2 23 be 0c be 2f c0
       3.0104191 -1.9980028 -0.1597987 -2.7459745
000350 77 1a 93 40 45 8e 7e 40 c9 60 19 c0 c4 b8 83 40
       4.5969806 3.9774334 -2.3965323 4.1163044
000360 cd 41 d0 40 d3 92 14 40 b3 0e 20 40 e6 58 bf c0
       6.5080323 2.3214614 2.5008972 -5.979602
000370 66 9e 23 c1 3a f3 66 40 04 e5 2b c0 c0 47 52 c1
       -10.2261715 3.6085954 -2.685853 -13.142517
000380 35 84 9b c1 89 f4 0d 41 ad d4 0e bf 50 80 47 be
       -19.439554 8.872201 -0.5579327 -0.19482541
000390 c9 c8 02 41 ab a2 6d 3f ed 67 b8 be 12 74 8a c1
       8.17402 0.92826337 -0.3601679 -17.306675
0003a0 fb 9a b1 40 f0 4e 11 41 74 8a 78 c0 3c aa 8a 40
       5.5501685 9.081772 -3.8834505 4.3332806
0003b0 46 36 f4 3f 50 cb 83 40 91 a1 21 bf 13 70 ae 3f
       1.9079063 4.1185684 -0.63137156 1.3627952
0003c0 77 32 6c 40 1b 0c 5b 40 1f 92 be 3c fe 2c 75 c0
       3.6905801 3.4226139 0.023263035 -3.830871
0003d0 58 3a 8b c1 7c 2c 89 40 30 be d6 3f 92 6a 16 c1
       -17.403488 4.28668 1.6776791 -9.401018
0003e0 05 f6 ba bf a3 b6 4c 41 d6 5f e1 3f 5e ab 11 c1
       -1.4606329 12.794589 1.7607372 -9.104338
0003f0 6c 2b c6 bf 1a 68 02 40 e2 52 59 c0 ce e0 b4 40
       -1.5482001 2.0376039 -3.3956838 5.652442

conv2.bias f4 [10]
000000 e0 a5 99 41 98 d0 04 41 0e 91 b4 c0 e3 62 16 c1
       19.205994 8.300926 -5.642707 -9.399142
000010 80 7d 3d bf 21 9c c1 be 5b 11 5f 41 a3 83 b4 41
       -0.7401962 -0.3781443 13.941737 22.564276
000020 e4 9d 66 41 f1 67 be 40
       14.4135475 5.950188

conv3.weight f4 [10, 10, 3, 3]
000000 a8 6c 19 3c 9a 53 3a be be 31 25 bd d9 f4 cf 3c
       0.009364285 -0.18195954 -0.04033064 0.025385307
000010 51 20 25 be 08 d4 5b be 2c 7b 4c bd 23 f8 3a be
       -0.16125609 -0.21467602 -0.049922153 -0.18258719
000020 6d 8c 94 be eb 5e 4e be 5a 0d 65 bb 3a 17 6e 3d
       -0.29013386 -0.20153396 -0.0034950585 0.05812762
000030 1e c4 ae be 03 75 97 bd 7b ed 04 bd de 3a 15 bf
       -0.34134 -0.07395365 -0.03245304 -0.5829295
000040 3e 1e 6e be 17 34 d8 3d 17 86 7b 3d 8b 79 4f bd
       -0.23253724 0.1055681 0.061407175 -0.05065302
000050 3c a8 8c bd af 7a 2d be 92 51 18 bd d2 08 77 bc
       -0.06868026 -0.16941331 -0.037187167 -0.0150777865
000060 d9 43 8d be 5a 46 5e 3d fe 3e 19 bd 20 4b 2b 3e
       -0.27590826 0.05426631 -0.03741359 0.16727877
000070 aa 91 63 bc b9 7e 17 3d e6 c2 ab 3d 77 27 81 be
       -0.0138897095 0.036986087 0.08386783 -0.25225422
000080 b1 66 d2 be 69 df fb 3d fe a9 e6 bd 90 fb 96 be
       -0.41093972 0.122984715 -0.11262892 -0.29488802
000090 5d 25 bc bd de 47 0a bd db a1 83 3e 44 26 8d bd
       -0.09186814 -0.033759944 0.25709423 -0.06892064
0000a0 a9 95 47 bc ab 18 4d 3e a1 c2 e6 ba 32 01 8b be
       -0.012181678 0.20028941 -0.0017605611 -0.2714935
0000b0 65 a9 91 3e 2c 0d 2f 3b 78 37 fc bd 6a fe cc bd
       0.2844955 0.0026710732 -0.12315267 -0.10009463
0000c0 89 b0 b0 3c b0 64 ee 3d 0a 8c bf bd c9 f3 94 bb
       0.021568554 0.11640298 -0.09352882 -0.004545663
0000d0 bd e6 99 bd 6c 03 be bd 55 a7 91 bd 10 25 86 3d
       -0.07514713 -0.092779964 -0.07111994 0.06550038
0000e0 b0 00 bf be 88 d1 a6 be ea 53 ae bd 20 fc 81 be
       -0.37305212 -0.32581735 -0.08512099 -0.2538767
0000f0 0a 5d e2 be 6b f1 8d be 79 10 48 be 06 42 87 3e
       -0.44211608 -0.2772325 -0.19537534 0.2641756
000100 11 e9 3c 3d ca 2e 84 bd 67 f0 4b be 70 57 0e bc
       0.046120707 -0.06454237 -0.19915925 -0.008687839
000110 7f af 95 be ed aa 84 bb 8f c8 b6 bd 9a 7d 67 be
       -0.29235455 -0.0040486963 -0.08924972 -0.22606507
000120 09 d5 45 3b 43 cf 5d bd 31 6a dd bd 4e 47 28 3c
       0.0030186793 -0.05415274 -0.1081127 0.010270907
000130 11 5b 25 be 16 0a 44 be f0 bd 3c be bb d3 c4 be
       -0.1614802 -0.19144472 -0.1843183 -0.38442788
000140 95 5f 54 be 1f 7d 2b be 50 d2 30 be 07 08 8b 3d
       -0.20739587 -0.16746949 -0.17267728 0.067886405
000150 07 de f3 bd 4f e1 9f 3d f3 56 3f be 50 57 0c be
       -0.11907583 0.07806646 -0.18685512 -0.13705182
000160 c3 85 09 be 19 ca dc bd c6 fd d2 3f 5b 07 84 40
       -0.13429932 -0.107807346 1.6483696 4.125898
000170 56 f6 7f 40 f3 90 b5 c0 f4 b1 9b 40 1a 61 97 40
       3.9994102 -5.673944 4.865473 4.730603
000180 b6 8e 29 41 df 67 8d c0 b6 38 2e 41 18 c4 77 3f
       10.597342 -4.4189296 10.888845 0.9678359
000190 17 d4 f5 c0 6e 76 49 c0 21 2e 4c 40 2e 51 37 41
       -7.68214 -3.1478534 3.1903155 11.457319
0001a0 22 31 32 be 70 c2 b7 be 52 b7 bd 40 b9 d8 1c c0
       -0.17401555 -0.35890532 5.928628 -2.4507277
0001b0 94 d3 15 40 c2 fc 1b 41 ce 85 17 40 e3 5f 21 c0
       2.3410387 9.749208 2.3675418 -2.5214775
0001c0 c3 63 a0 3f 99 7f 46 3f 3e 65 4b 3f 10 e9 23 40
       1.2530445 0.7753845 0.7945136 2.5611
0001d0 ba 3f 01 40 5c 65 37 c0 52 b4 36 c0 34 6e d1 3f
       2.0195146 -2.8655615 -2.8547559 1.6361756
0001e0 61 70 90 bf 1e 9e 01 c1 de 37 09 41 85 59 01 c0
       -1.1284295 -8.101103 8.576139 -2.0210888
0001f0 9f 18 d4 c0 e1 60 28 40 32 62 a0 3f 15 03 10 40
       -6.6280055 2.630913 1.2529967 2.250188
000200 84 07 f4 40 00 e4 2b c0 ce 5b d9 40 18 f4 f3 c0
       7.6259174 -2.685791 6.7924566 -7.6235466
000210 77 2d 03 c1 e3 53 81 c0 c7 03 a7 c0 d0 a3 e5 3d
       -8.1986 -4.04149 -5.219211 0.112128854
000220 1f 19 4a be 48 fe 80 bc 64 f7 89 be 67 73 fb ba
       -0.19736145 -0.01574625 -0.26946557 -0.0019184173
000230 3b a4 1c be 11 25 f8 3d bd 01 40 be 47 27 1d 3e
       -0.15297024 0.12116445 -0.18750663 0.15347014
000240 b3 6c 82 40 78 74 24 bf a3 6c 97 40 89 7f a4 40
       4.075769 -0.6424022 4.7320113 5.1405683
000250 09 c6 07 be b0 a7 1f bf 32 2a e3 3f c7 ac 47 c0
       -0.13259138 -0.62365246 1.7747252 -3.1199205
000260 f7 c3 fd bf c9 9a 6b 40 78 1a 8f 40 e3 39 85 be
       -1.9825429 3.6813223 4.471981 -0.26020727
000270 cc 78 76 bf bb 02 fe bf 96 38 ee c0 e4 f0 be 3f
       -0.9627807 -1.9844583 -7.4444075 1.4917264
000280 eb 70 ae c0 46 21 de c0 da 4f 1d 40 82 3d f3 3f
       -5.451284 -6.9415617 2.4579988 1.9003146
000290 e8 a4 3c bf f4 45 73 3f 0a 31 10 40 62 8e 1c bf
       -0.73689127 0.95028615 2.252993 -0.6115476
0002a0 74 8d 8c bf 77 2a 0e 40 a7 46 79 40 87 33 c0 be
       -1.0980668 2.2213418 3.8949373 -0.37539312
0002b0 fb 60 c3 3e aa cc 2e c0 b7 58 a1 3e e9 7f 18 40
       0.38159928 -2.7312417 0.31512997 2.382807
0002c0 4d 9d 90 40 66 fb 94 c0 c4 39 9d 40 6c d4 cd c0
       4.5192018 -4.6556883 4.9133015 -6.4321804
0002d0 44 b8 0b bf cc da 04 c0 0f f2 3a c0 55 79 97 c0
       -0.5457804 -2.0758543 -2.921024 -4.733561
0002e0 47 d4 17 40 4c 01 5a c0 e3 bc 35 bf ed 01 cf 40
       2.3723314 -3.4063292 -0.70991343 6.468985
0002f0 7e 69 d6 3e da 79 fe 3f 9b 55 12 c1 e7 07 0c c1
       0.4187736 1.9880936 -9.1459 -8.751929
000300 f5 9d 7c 40 09 4f 5d be e2 17 42 40 80 3c 93 3f
       3.947141 -0.21612181 3.0327077 1.1502838
000310 cf 0f 9f 40 48 3a 11 40 71 af 67 40 f0 8a b3 c0
       4.9706798 2.2691822 3.620083 -5.61071
000320 54 68 84 c1 97 ed 73 c0 cb fb 6f c1 4b 27 70 3f
       -16.550941 -3.8113763 -14.998973 0.93809956
000330 d1 ea 64 40 90 4c 52 c1 51 31 1e c1 49 e7 30 3f
       3.576832 -13.143692 -9.88704 0.69102913
000340 cb 4c 33 41 af 7b 9d 40 90 02 5f 40 44 c6 8a 40
       11.206248 4.921348 3.4845314 4.3367023
000350 bd 3e 22 c1 7e 6b 21 40 be 0a d4 c0 5f 53 7b 40
       -10.140317 2.5221858 -6.6263113 3.9269636
000360 b5 38 15 c1 78 a5 5e c0 d9 2f 93 40 98 e4 5d 41
       -9.3263445 -3.4788494 4.599591 13.868309
000370 e2 0f 23 41 40 cb 7f 41 04 d9 89 40 65 40 35 c0
       10.191378 15.987122 4.307741 -2.8320553
000380 1d e2 bf 3e 17 76 a6 bd 7e d6 0e 3e 57 6e 7d 3e
       0.37477198 -0.081279926 0.1394901 0.24749123
000390 da ed 38 3d 48 5d 4c be f4 ed 4c be ba fd 7e be
       0.045148708 -0.19957459 -0.20012647 -0.24901477
0003a0 a3 8f 02 3d 8c 80 3f be fa 52 b9 3f 71 cf f3 40
       0.031875264 -0.1870138 1.4478447 7.6190724
0003b0 7b 74 b6 40 db 00 14 c0 99 65 1d 40 34 64 38 c0
       5.701719 -2.3125522 2.459326 -2.881116
0003c0 bd 94 2b 40 5c 93 9c be ad 66 22 41 e3 9d a2 40
       2.6809533 -0.30581176 10.150067 5.0817733
0003d0 dc c5 51 40 b9 20 15 c0 c2 5a f4 bf 97 91 96 c0
       3.2777014 -2.3301222 -1.9090197 -4.705272
0003e0 83 91 58 41 7c ad 24 c0 c5 28 1d 40 00 3d b1 40
       13.535525 -2.5730886 2.4556134 5.5386963
0003f0 0d a1 83 40 26 ca 0b c1 1f 23 b0 be 83 09 87 40
       4.1134095 -8.736853 -0.34401795 4.219911

conv3.bias f4 [10]
000000 32 dc e5 be 63 ea aa 42 03 49 e8 40 2f 7d b5 c1
       -0.44894558 85.45779 7.2589126 -22.686125
000010 3a b7 50 3c c4 f1 ea 41 f9 3e aa bf 13 6f ec 41
       0.012738997 29.36805 -1.3300468 29.554235
000020 91 91 b2 c1 c7 f8 4b 42
       -22.321077 50.992947

conv4.weight f4 [10, 10, 3, 3]
000000 8a 7d c9 bd 93 78 c6 ba 4f f6 ca 3d 50 20 50 3e
       -0.09838398 -0.0015142135 0.09910261 0.20324826
000010 f4 a3 1e bd fa f8 51 3e be 6b 95 bd e2 57 c5 3d
       -0.038730577 0.20505133 -0.07295941 0.09635903
000020 c1 16 0b 3e 2f c1 0c be fb 73 72 40 11 7e 6f c0
       0.13582899 -0.13745569 3.788329 -3.7420695
000030 bd a1 9b 40 72 85 4c c0 ca ff 7b c0 37 74 16 bd
       4.8634934 -3.1956449 -3.9374871 -0.036731925
000040 24 5c f9 3e 04 27 0a c1 45 aa 18 41 63 98 85 3f
       0.4870311 -8.634525 9.54157 1.043713
000050 ce 22 d2 3e 61 ac 45 40 65 30 be c0 dc 6e 9a 40
       0.4104218 3.0886462 -5.9434075 4.8260326
000060 9a 13 3a 40 05 78 d0 c0 40 89 e6 c0 9e a5 1d 41
       2.9074464 -6.514651 -7.204254 9.852934
000070 be 98 67 40 61 c8 6a 40 1a 90 52 40 61 01 3b c1
       3.6186976 3.6684802 3.2900453 -11.687837
000080 1b ae 9e 40 ca eb 41 40 19 76 16 c1 da 5e 59 3f
       4.958753 3.0300164 -9.403832 0.84910357
000090 65 36 13 3e 5d 91 21 be c0 d1 e7 bd 67 48 c1 bc
       0.14376219 -0.15778108 -0.113193035 -0.023594094
0000a0 c5 fc ad bd 40 4d 5f be 2a 56 65 3c 19 e4 0d be
       -0.084954776 -0.21806812 0.013997594 -0.13856544
0000b0 1e 52 42 be 8c 1d 05 bd be 75 09 40 3b 8f ad bf
       -0.18976638 -0.03249888 2.1478114 -1.3559335
0000c0 2e 49 79 40 0c 97 fa 3f f2 53 ce c0 d1 bd 9b c0
       3.8950915 1.9577346 -6.447747 -4.866921
0000d0 b0 0d a4 3f 74 af 28 c1 55 8f ce be 84 24 14 c0
       1.2816677 -10.542835 -0.4034373 -2.3147287
0000e0 34 42 92 c0 cf 8c 98 c0 1d 7f 21 40 7f 32 cc 40
       -4.5705814 -4.7671885 2.5233834 6.381164
0000f0 b5 a0 e1 3e 10 6e a0 bf 9a a6 05 c0 41 ec d8 c0
       0.44067922 -1.2533588 -2.0882936 -6.7788396
000100 2d 1f 47 c1 bc 18 06 c1 92 4a bb be e4 32 3d c0
       -12.445111 -8.381039 -0.3658033 -2.956231
000110 12 d9 b6 40 a9 13 ad 40 72 52 9f c0 1f 9b f4 3f
       5.713998 5.40865 -4.978814 1.9109839
000120 08 be 55 3f 4a ac ef 40 95 a0 d3 c0 9e e9 b0 3e
       0.8349309 7.4897814 -6.6133523 0.34553236
000130 30 af 9f c0 9f 97 19 c1 bd 0a 8e c0 79 0f 17 c0
       -4.990135 -9.599517 -4.438811 -2.3603194
000140 5a 12 a6 bf b2 77 a8 c0 9a 81 65 c0 09 be 2f 41
       -1.297435 -5.2646112 -3.5860353 10.983895
000150 02 06 d3 40 d2 d6 c7 be 4e 7e 06 3f 80 94 f7 3f
       6.5944834 -0.39031082 0.52536476 1.9342194
000160 a1 f3 f8 3d b7 22 08 c1 04 4b fd 3d 6d 2d 98 3e
       0.121558435 -8.508475 0.12367824 0.29722157
000170 e2 50 3c 3e b0 e3 0b 3e 48 8f 17 3e 15 1c ce 3e
       0.1839023 0.13661075 0.14800751 0.402558
000180 20 f9 bb bc 7e 22 33 3d bd a5 87 3e ef a5 47 c1
       -0.02294594 0.043734066 0.26493636 -12.478011
000190 4d 2c 35 40 d6 d8 fa c0 58 ee 09 c0 15 30 3b 40
       2.830829 -7.838969 -2.1551723 2.9248097
0001a0 3d 3f 19 3f df 21 ab bd 19 30 08 41 b1 83 18 c0
       0.5986212 -0.0835607 8.511743 -2.3830378
0001b0 53 74 a1 40 de 9e 20 41 21 df 99 be ef ce c9 c0
       5.0454497 10.038786 -0.30053046 -6.3065104
0001c0 92 44 a2 40 53 8d c0 bf a1 5b 99 40 c0 1a 14 c1
       5.0708704 -1.5043129 4.792435 -9.256531
0001d0 e5 db 0e c1 63 8b 1b bf dd d5 c1 40 c1 d1 87 c0
       -8.928685 -0.6075956 6.0573564 -4.2443547
0001e0 95 87 cf c0 61 b8 87 40 3f 0c d5 40 6d fc c9 c0
       -6.4853005 4.241257 6.657745 -6.3120637
0001f0 eb c2 e6 40 95 d9 e6 40 ca 6e 19 3e 92 a2 07 3c
       7.2112937 7.2140603 0.14983669 0.008278506
000200 26 80 19 bd 9f be 99 3c ca a0 65 3d 45 83 ed bb
       -0.037475727 0.018767653 0.056061544 -0.0072483146
000210 14 87 36 3d 47 97 2c 3d 4a 7a c0 3c d0 03 55 c0
       0.044562414 0.042136457 0.023495812 -3.3283577
000220 a5 2f d7 c0 a4 05 89 be a4 d6 1c 3f 32 37 e7 bf
       -6.724566 -0.26762116 0.61265016 -1.8063719
000230 a7 f5 89 c0 da 53 58 3f f8 52 b1 c0 1a b3 fd 3f
       -4.311237 0.8450295 -5.541378 1.9820282
000240 ce 5a 33 c1 e3 d7 1e 40 eb 41 15 c1 6f c2 52 40
       -11.209669 2.4819267 -9.328593 3.2931173
000250 85 a6 d0 40 d8 01 82 c0 5b d8 4b 40 16 f9 8e 3f
       6.520327 -4.062725 3.1850803 1.1169765
000260 7b 02 8e c0 e1 82 cc c0 5f fa 6f c0 96 4e e2 3f
       -4.437803 -6.3909764 -3.7496564 1.7680233
000270 ab 31 98 bf 20 6d 91 40 b8 43 6b 3f 12 a6 b5 c0
       -1.1890157 4.544571 0.91900206 -5.6765223
000280 bd 8b a3 40 87 66 43 40 f0 27 73 40 c4 23 9e c0
       5.110808 3.0531328 3.7993126 -4.941866
000290 87 c7 a2 bf 6e bc 85 40 5d 66 86 40 e8 23 a8 40
       -1.2717141 4.1792517 4.1999955 5.254383
0002a0 70 81 b9 c0 86 ed 0f c0 59 10 8d c0 f3 83 8d c0
       -5.7970505 -2.2488723 -4.4082456 -4.422357
0002b0 e9 8a 43 3f 19 fe 90 c0 bb 3b dd be bd 65 9f bf
       0.76383835 -4.531018 -0.43209633 -1.2452923
0002c0 89 0a 44 c0 e0 c7 86 40 c7 5f bf bf c5 64 ae c0
       -3.063143 4.211899 -1.4951104 -5.449801
0002d0 74 a0 34 3d 47 d1 36 3e 99 28 a2 bd cb 7f 66 3e
       0.044098333 0.1785327 -0.079179 0.22509687
0002e0 c8 43 21 3e 04 f2 87 3e a6 27 5d bb 32 5f ef 3d
       0.15748513 0.2655183 -0.0033745556 0.11688079
0002f0 f6 40 88 3c f5 9f 20 be bc d1 81 c0 75 03 c2 bf
       0.016632538 -0.15686019 -4.0568523 -1.5157305
000300 dc 5d 27 c1 17 07 1b 41 7f d1 3d 40 fe 2b 85 c0
       -10.460415 9.689231 2.9659116 -4.16162
000310 7b 33 e6 bf bf fe 3e 3f dd da b4 bf a3 c7 9e bf
       -1.798446 0.7460746 -1.4129292 -1.2404674
000320 00 79 23 40 95 f1 01 c0 bf a5 ae c0 32 e1 ca 3e
       2.5542603 -2.03037 -5.4577327 0.39624935
000330 2d 24 ea 40 48 b9 23 40 8c fe 22 3f 98 9a 85 c0
       7.316916 2.5581837 0.6366966 -4.1751213
000340 b0 3b 5f 40 5f 94 1a 41 d5 3f e4 c0 d2 ba 89 c0
       3.488018 9.661223 -7.132792 -4.304055
000350 3e 87 1e 40 f3 24 c8 3f 07 35 d4 40 54 3b f1 40
       2.4770045 1.5636276 6.631473 7.538492
000360 8c c2 85 bd d3 54 24 3d 1c 75 9f bd 81 c7 a5 bd
       -0.065312475 0.040119957 -0.07786009 -0.08094693
000370 e7 b6 53 3d 2e 02 0e be 4b b2 3d bd bd a9 6f 3d
       0.0516881 -0.13868019 -0.04631261 0.058511484
000380 ba 98 42 3b 01 12 5f 40 59 ae 83 3e 26 32 0a c1
       0.0029693083 3.4854739 0.25718954 -8.637243
000390 b8 90 91 bf bc 8d 25 3f 7f 81 26 c0 f6 08 f8 3f
       -1.137229 0.64669394 -2.6016538 1.9377735
0003a0 5c c2 96 c0 4d 7d f1 3f 12 24 fe c0 af 75 d8 3f
       -4.7112255 1.8866364 -7.941903 1.6910914
0003b0 f4 ec 89 c0 ec 8f 32 c1 75 60 33 c1 bf 32 1b 41
       -4.310175 -11.160137 -11.211049 9.699889
0003c0 48 dd 0f 41 79 7d fa bf 8f 04 f2 3e 1d 06 97 c0
       8.991524 -1.9569541 0.47269103 -4.7194963
0003d0 50 4f b6 40 14 28 6a 41 07 02 e6 3f 49 7a 4e c0
       5.6971817 14.634785 1.7969369 -3.2262137
0003e0 a9 86 8c 40 24 74 e5 40 0e dd 8d 40 c5 35 13 c1
       4.391438 7.1704273 4.433234 -9.200627
0003f0 52 39 1e c1 f6 10 cd c0 93 fb cb bf c3 bc 0b 41
       -9.888994 -6.4083204 -1.5936149 8.733584

conv4.bias f4 [10]
000000 af 26 82 bd 44 4d 37 bd d7 87 1e bd 3c 3b 86 3d
       -0.063550346 -0.04475142 -0.038703766 0.06554267
000010 a1 38 01 be c3 a5 05 3e e6 ca a6 bd c9 b8 8b bd
       -0.12619258 0.13051514 -0.081441686 -0.06822354
000020 ce 8a f7 bc f0 b8 d7 bc
       -0.030217554 -0.026333302

norm.weight f4 [10]
000000 fe a0 ce 3e 37 be c1 3e 0d 96 ba 3e d7 2b bd 3e
       0.40357202 0.37840435 0.36442605 0.3694751
000010 cd b2 c0 3e e5 e9 a8 3e 8a 96 da 3e f4 ca 09 3f
       0.37636414 0.32990947 0.42692977 0.53825307
000020 ed 23 f6 3e 1c ed 00 3f
       0.48074284 0.503618

norm.bias f4 [10]
000000 4e 31 2f bf 58 f5 2f bf 65 47 1d bf 83 85 17 bf
       -0.6843461 -0.6873374 -0.61437064 -0.591881
000010 b2 92 43 bf 28 3e 3e bf 39 09 21 bf f2 60 47 bf
       -0.76395714 -0.7431359 -0.629047 -0.778823
000020 f1 64 45 bf 50 a5 54 bf
       -0.7710715 -0.83064747

norm.running_mean f4 [10]
000000 48 33 a1 c8 29 5b 63 c8 77 8a 37 c7 c5 b4 92 c8
       -330138.25 -232812.64 -46986.465 -300454.16
000010 01 83 03 c7 10 16 e3 47 c4 44 9f c8 f5 50 df c8
       -33667.004 116268.125 -326182.12 -457351.66
000020 cb 49 b8 c8 22 2a db c8
       -377422.34 -448849.06

norm.running_var f4 [10]
000000 bd 9d dd 50 eb f4 bb 50 0e 7c fd 50 b7 96 fc 50
       2.9744818e+10 2.5227123e+10 3.4022126e+10 3.3901885e+10
000010 ab dd e8 50 03 f5 ab 50 fd 0d 0f 51 f0 38 60 51
       3.125473e+10 2.3079688e+10 3.840094e+10 6.0189245e+10
000020 7e 28 a9 50 45 65 4a 51
       2.2704026e+10 5.433015e+10

fc1.weight f4 [50, 810]
000000 fb 38 1d bf f4 59 97 bf f7 b3 36 bf 52 aa cb be
       -0.6141507 -1.1824327 -0.71368355 -0.39778382
000010 ac b0 9d 40 1d 6b 07 c0 0f 75 dc c1 e0 53 03 c1
       4.9278164 -2.1159127 -27.557158 -8.207977
000020 4d 89 3d c2 e6 b0 cc 3e ed 66 2d c0 d2 b0 ae c0
       -47.384083 0.39978713 -2.709407 -5.4590845
000030 92 04 23 3f 90 e8 90 3e 55 31 59 40 19 c8 83 40
       0.6367885 0.2830243 3.393636 4.118176
000040 ce b5 04 c1 4b 7a 8a c0 5e 7a 06 bf c8 a3 e4 3f
       -8.294386 -4.3274283 -0.5253047 1.7862482
000050 08 86 20 c0 cd 8a 28 c0 b8 61 1f 40 96 2b 2c bf
       -2.5081806 -2.6334717 2.4903393 -0.67254007
000060 b3 44 40 40 a6 de 7d c0 24 fd 04 c1 48 0b 00 bf
       3.004193 -3.9667144 -8.311802 -0.50017214
000070 5a d1 4c bd ed d1 a2 c1 6a 3e 40 c0 63 ab 66 3f
       -0.05000434 -20.352503 -3.0038095 0.90105265
000080 89 1f da c0 99 3c 3c 40 4b 64 3d 40 87 11 39 c2
       -6.8163495 2.9411986 2.9592464 -46.267117
000090 b7 d7 90 bf 0c 83 41 c0 36 16 72 c0 c7 e2 ac be
       -1.1315831 -3.0236235 -3.7826056 -0.33766767
0000a0 c8 33 9b c0 56 49 87 3f 6b ce 6a 3f 98 6e 7e bf
       -4.850071 1.0569255 0.9172122 -0.993875
0000b0 83 a0 46 bf d6 7b 95 bf 40 60 24 40 92 80 b9 40
       -0.7758867 -1.1678417 2.5683746 5.7969446
0000c0 57 bf fe 3d 17 d0 7b 40 0f 32 6b bf 7d 4c 77 40
       0.12438839 3.9345758 -0.9187326 3.8640435
0000d0 e5 47 a9 c0 18 91 86 c0 35 ee 12 40 55 8e e9 3f
       -5.290026 -4.2052116 2.295789 1.8246561
0000e0 65 5c 6c 40 b6 df d8 3f 38 b7 1f 40 a5 59 6c 40
       3.6931393 1.6943271 2.4955578 3.6929715
0000f0 25 fd 84 3f ef 9d 10 bf 7c f1 90 40 85 3a 3a 40
       1.0389754 -0.5649099 4.529478 2.9098217
000100 4f a8 26 3f b6 ec 8c 3e 4d ae a1 c1 ef 4a 76 3f
       0.6510057 0.27524346 -20.210108 0.9620809
000110 8f c3 80 3f 29 5e a2 3e ea 89 eb 3f c1 86 2d c1
       1.005968 0.31712463 1.8401463 -10.845399
000120 c2 1d 0a c0 d9 08 f8 bf 7e 44 d5 c1 93 ed cf bc
       -2.1580663 -1.93777 -26.658443 -0.025381839
000130 a9 1d e3 be c5 3e ee 3f 19 d8 18 40 23 6b 98 3e
       -0.44358566 1.8612906 2.3881896 0.2976924
000140 28 84 25 c0 29 ef 97 bf 44 34 38 3d df 65 84 40
       -2.5861912 -1.1869861 0.04497172 4.1374354
000150 94 8d fb c0 d6 1a 0d c1 70 2a 9c c0 d3 f6 35 c1
       -7.8610325 -8.819052 -4.8801804 -11.37276
000160 f5 f1 7c c1 39 f3 fb bf 07 da f0 3e 4b af b7 c0
       -15.809072 -1.9683601 0.47041342 -5.740148
000170 8e 38 70 c2 8b 88 39 c0 51 96 f0 3e 27 0c 09 40
       -60.05523 -2.898959 0.46989682 2.1413667
000180 b8 58 40 c1 1c 59 65 40 5e e5 8b c0 3a c6 ab 3f
       -12.02166 3.5835638 -4.371749 1.3419869
000190 3c b7 5e bf b5 45 3f 3e 82 5d 0b 3f 58 06 9f 3f
       -0.86998343 0.18678935 0.54439557 1.2423811
0001a0 71 87 bc c0 f9 a1 15 40 83 68 f1 3f a1 ea c6 3f
       -5.8915334 2.338011 1.886002 1.5540353
0001b0 77 0c 6d c0 13 27 d1 be f4 ad 1c c0 9d af ed 3d
       -3.7038858 -0.40850124 -2.4481173 0.11605761
0001c0 18 c2 1f 40 a7 99 89 be f3 ef 0e c0 43 c9 cb 3e
       2.4962215 -0.2687504 -2.2333953 0.39801988
0001d0 0c a1 2d bf 0e 78 2d c0 02 62 be 3f ea eb d0 3f
       -0.67823863 -2.7104526 1.487366 1.6321995
0001e0 31 a7 a0 bf 1f ee 09 c0 93 29 eb c0 4f 98 84 c2
       -1.2551023 -2.1551588 -7.348825 -66.29748
0001f0 24 f4 98 c1 27 02 a4 bf 42 1f b9 bf 64 82 cb 3f
       -19.11921 -1.2813157 -1.4462664 1.5899167
000200 c1 67 3b c0 94 13 a7 3f 17 0a 70 40 ce ed 9b c2
       -2.9282076 1.305285 3.7506158 -77.96446
000210 e1 4a 17 bf 65 91 e5 c1 36 7c 33 c2 af 11 84 c0
       -0.5909863 -28.695993 -44.8713 -4.1271586
000220 37 4c f8 c0 7c 29 5a 3f 58 f8 9c bf 15 46 06 c0
       -7.7593036 0.8521955 -1.2263288 -2.0980275
000230 3a d4 4e c0 fa 90 b8 40 40 45 18 3e 70 04 f6 c0
       -3.2317033 5.7676973 0.14870167 -7.6880417
000240 cb 70 fd be 29 18 e2 3f c1 dd 8a 3f 9d f2 34 be
       -0.49500117 1.7663623 1.0848924 -0.17670675
000250 93 8c cb bf 7f d8 77 c1 30 ab 1f c0 2d ed 59 c2
       -1.5902275 -15.4903555 -2.4948235 -54.481617
000260 52 45 29 40 65 fa a3 bf 99 b8 73 be f4 3a ed be
       2.644856 -1.2810789 -0.23800887 -0.4633404
000270 e4 f2 a3 bf b1 1f 05 c1 67 61 03 c1 0d b5 cf c1
       -1.2808499 -8.320237 -8.21128 -25.963404
000280 00 8e 30 c0 74 a3 91 3f ec 65 98 be 45 b8 5c 40
       -2.758667 1.1378007 -0.2976526 3.448747
000290 b4 e8 c5 bf 68 4c 31 c1 9b 2b a3 40 66 8a 62 3f
       -1.546164 -11.081154 5.099073 0.8849243
0002a0 23 e4 91 c2 5a 6b eb bd 96 bd 19 bf 4d 47 7e 3f
       -72.94558 -0.11495085 -0.6005491 0.99327546
0002b0 37 9f d9 3f 14 29 a2 3f 9d 81 30 40 6a aa 9a 40
       1.7001714 1.2668786 2.757911 4.8333025
0002c0 1e 56 89 40 6b 4c 21 c1 08 98 6b c0 02 33 f2 be
       4.2917624 -10.081157 -3.6811543 -0.4730454
0002d0 b8 c2 d9 3d 95 16 20 40 7e c2 a0 3d 84 e4 1e bf
       0.10632843 2.5013783 0.078495964 -0.6206744
0002e0 c1 cd 96 c0 d7 81 6e bf 20 68 a3 be 73 bf f1 bf
       -4.7126164 -0.9316687 -0.3191538 -1.8886551
0002f0 16 c3 92 c0 fc 92 eb bf 4e 52 2b c0 db 2f 5e c0
       -4.586314 -1.8404231 -2.6768985 -3.4716709
000300 ab 4d ae 3e 10 b7 36 c0 1b 7a ff bf 55 26 3e c1
       0.3404363 -2.8549232 -1.9959139 -11.884358
000310 73 1d ac 3f 93 94 10 c0 eb b0 f0 bf be fa c1 bf
       1.3446487 -2.2590683 -1.8803991 -1.5154645
000320 58 96 f8 3e 7b 27 0f 3e cf b4 a2 c1 74 b6 9a 3f
       0.48552203 0.13979904 -20.338285 1.208693
000330 bb ab bd 3f 22 89 6b c0 b3 99 38 bf 5f d0 88 c1
       1.4818033 -3.680245 -0.72109526 -17.101744
000340 e7 be 75 bf 9f d3 34 40 b4 3d 9f 40 b8 f4 03 40
       -0.9599442 2.8254163 4.976282 2.0618114
000350 82 bf f3 3f 9a cf 50 3f 51 b2 0b c1 6a 8e f5 bf
       1.9042819 0.81566775 -8.731034 -1.9184086
000360 88 e4 8a c0 b9 fe 15 c0 59 1c 29 c0 d2 28 a2 c0
       -4.340397 -2.343672 -2.6423552 -5.067483
000370 ee 76 46 bf 55 9e 5c c1 79 17 85 c0 d1 1d 82 c1
       -0.7752522 -13.788655 -4.1591153 -16.264559
000380 08 ee 81 c0 ba fe ad 3e ce 93 c1 40 29 f0 44 c2
       -4.0603065 0.33983403 6.0492926 -49.23453
000390 74 ec a9 bf 6f 7b 80 c1 cf 87 72 c0 55 81 b3 be
       -1.3275285 -16.06027 -3.789539 -0.3505961
0003a0 65 34 64 c1 f7 41 93 3f 5e bb 59 40 3c 58 ee 40
       -14.262792 1.1504506 3.402061 7.448271
0003b0 f3 95 3c 40 34 c8 98 40 43 26 b4 3f 3e 72 8e c0
       2.9466522 4.774439 1.4074177 -4.4514456
0003c0 c5 37 2c c0 1a c5 11 bf 62 45 8d 3f 8d ef 98 40
       -2.690904 -0.5694138 1.1036799 4.779242
0003d0 a1 21 78 c0 48 aa 8b c0 23 9f eb 3f 41 fc f5 bf
       -3.8770525 -4.3645363 1.840794 -1.9217607
0003e0 c7 d1 c9 3e 67 12 97 bf 09 8e 11 bf b1 4e 2d bf
       0.3941786 -1.1802491 -0.56857353 -0.676982
0003f0 9e 47 4a 40 26 b3 cf bf 4d 27 e6 c0 b2 5a 03 bf
       3.1606212 -1.6226547 -7.1922975 -0.51310265

fc1.bias f4 [50]
000000 3b 82 e5 3e 2f b4 86 bd 5f 6d 39 be 41 45 8a be
       0.4482592 -0.06577336 -0.18108128 -0.27005962
000010 23 81 64 3f ed 8d 1f bf e4 ae a3 3f 85 21 d9 be
       0.89259547 -0.62325937 1.2787747 -0.42408386
000020 2a 58 4b 3f ee 81 01 bd 77 6e b3 3e 8c 60 45 3e
       0.794314 -0.03161805 0.35045215 0.19275111
000030 54 c2 8e 3f 88 96 85 be 4c b0 28 be fb 33 95 3f
       1.1153054 -0.2609141 -0.16473502 1.1656488
000040 1a f7 50 3f 3e e0 38 bd 67 92 e8 be 0f 04 29 3f
       0.8162705 -0.04513573 -0.45424196 0.6602182
000050 d1 b0 ca 3f d9 49 b2 3f 88 c0 53 be 4a 8b e2 3f
       1.583521 1.3928787 -0.20678914 1.7698758
000060 63 e5 85 3f 78 09 e8 be d9 bc 98 3f c9 ab ac 3f
       1.0460628 -0.45319724 1.1932632 1.3489925
000070 71 54 9b 3f d4 0c 2f 3f 01 29 ad 3d 98 75 d9 3e
       1.2135144 0.6837895 0.084550865 0.4247253
000080 4a c2 8e 3f 63 1b b5 bd da 3e 41 be 23 3c 2a 3e
       1.1153042 -0.08843114 -0.18871632 0.16624503
000090 e3 d3 8d 3f ed 57 b1 3f 8c a8 4e bc 78 5d 6f be
       1.1080288 1.3854958 -0.012613427 -0.23375499
0000a0 80 13 99 be 91 43 4d be cc 83 81 3d 29 4c 9a 3f
       -0.2989769 -0.20045306 0.063239664 1.2054492
0000b0 6e d2 e1 3e 2f 4e 8d 3e e9 9a 48 3f 2b 34 c0 3f
       0.44105858 0.27598712 0.78361374 1.501592
0000c0 24 be 7d 3f bf ac ae 3f
       0.99118257 1.3646468

fc2.weight f4 [7, 50]
000000 d5 59 23 bf 10 9d a8 bc 4b 54 32 be c1 87 ac be
       -0.6380895 -0.020582706 -0.17414968 -0.33697322
000010 12 52 cf be f4 36 12 3d 43 68 83 be 34 1c 39 bf
       -0.40492302 0.03569694 -0.25665483 -0.7230866
000020 94 aa c5 be 52 8a a2 3d 74 9e d9 be d0 98 a0 be
       -0.38606703 0.07936539 -0.42503703 -0.31366587
000030 46 5a e1 be 33 f0 04 3c 35 3a 96 bd af 98 1e bf
       -0.44014186 0.008113909 -0.07335321 -0.61951727
000040 50 9c a9 bf 0c c2 6c 3d 85 3b c2 bd 3f 58 98 be
       -1.3250828 0.057802245 -0.09484009 -0.29754826
000050 04 08 12 be c4 72 46 bf f1 08 60 3c b3 bd 2c bf
       -0.1426087 -0.7751887 0.013674007 -0.6747696
000060 11 bd e6 be 8c 54 ab bd 31 7d d4 3d 59 49 e9 be
       -0.4506612 -0.083657354 0.10375441 -0.45563772
000070 3c a6 c7 be 58 6a 81 3e 9e 0d 60 bf ce 6a fc be
       -0.38994014 0.25276446 -0.8752078 -0.49300236
000080 9c 5f 18 bf 17 68 64 bd c4 fb 29 bf 6a f9 ed 3a
       -0.5952089 -0.05576333 -0.6639979 0.0018155996
000090 02 aa a1 3d 05 78 69 bf 82 33 47 bd c7 46 d0 bd
       0.078937545 -0.9119876 -0.048633106 -0.1016975
0000a0 68 de 03 3d c3 a5 8d bf 4e 81 b6 3d cd d5 20 be
       0.032194525 -1.1066211 0.08911382 -0.15706559
0000b0 8d 6f ba be b6 69 66 be dc 8b 04 bf da df 96 3c
       -0.36413231 -0.22501263 -0.5177591 0.018417288
0000c0 7a bf ed be 1f 2c 54 bf a8 e7 16 3f c1 c0 e4 bb
       -0.46435148 -0.82879823 0.5894723 -0.006980986
0000d0 fc c5 98 bd 02 9a f3 bd e6 ca d4 be fb f1 59 be
       -0.074596375 -0.11894609 -0.4156105 -0.21283714
0000e0 92 30 ca be 1a df 35 bf 35 27 98 be ff a4 aa 3d
       -0.3949018 -0.7104355 -0.29717413 0.08332252
0000f0 ce d8 eb be 77 5f 1a bf 2b 9b 03 bf 7e e2 7a 3d
       -0.46063846 -0.6030192 -0.5140864 0.061251156
000100 0c 91 ef 3c a8 db 35 bf 3f e5 ab bf e1 7a d6 3d
       0.029243968 -0.71038294 -1.3429335 0.10472656
000110 6e d1 50 be b7 84 c5 be 29 fb 2e bf 12 95 99 bf
       -0.20392391 -0.38577816 -0.6835199 -1.1998618
000120 53 2d 81 bd 53 6f 98 bf e6 75 ff be ab c5 31 be
       -0.06307473 -1.1908973 -0.49894637 -0.1736056
000130 b2 ad 8f be da ea b5 be 6b bf 00 3e 79 89 28 be
       -0.28062207 -0.3553074 0.1257302 -0.16458692
000140 13 9f 80 bf c3 4a 1e bf 07 9f 33 bf d2 af c2 3d
       -1.0048546 -0.6183283 -0.7016453 0.09506191
000150 b4 56 45 bf 63 19 96 be ba 39 e8 be bc a6 98 bf
       -0.77085423 -0.29316244 -0.45356542 -1.1925883
000160 64 be b0 3d e2 7e 99 3d 45 e1 8a 39 05 bc 98 bf
       0.08630064 0.07494904 0.0002648925 -1.1932379
000170 ee d9 ce be 2a 45 f4 be d8 21 c3 be 05 ad 05 bf
       -0.40400642 -0.47709018 -0.38111758 -0.5221713
000180 8f 21 33 bf 95 9d a6 bf c5 6f 6c 3e a0 de 34 bf
       -0.6997308 -1.301684 0.23089512 -0.706522
000190 89 c1 2f bf 07 ca 00 bc da 67 39 be fb c7 24 be
       -0.68654686 -0.007860667 -0.18106022 -0.16091911
0001a0 5d 9f c0 be 66 59 97 be 7b 85 90 be d5 de 55 bf
       -0.37621585 -0.29560393 -0.28226838 -0.8354314
0001b0 df 94 06 bd 0f bc 34 3d 3f 48 ea be cb f6 0e bd
       -0.03285682 0.04412466 -0.45758244 -0.03490333
0001c0 13 6b cf be 8a ed 6b bd 2f ed af 3d 05 06 22 bf
       -0.4051138 -0.05759958 0.08590161 -0.63290435
0001d0 94 96 ad bf 75 3e 26 bd ac 2a cb be 00 89 18 3e
       -1.3561578 -0.040586907 -0.39680994 0.14896011
0001e0 2b 1e 0b bf 75 e1 83 bf af 8a 2e ba 0d e4 8b bf
       -0.5434291 -1.0303179 -0.00066582387 -1.092897
0001f0 e5 5c cb be aa ee 8f bc 6a fb a5 be ab 99 f0 be
       -0.3971931 -0.017569859 -0.32418376 -0.4699224
000200 70 d1 df be b0 cf 72 bd ac 34 6f bf 4f 3c ed be
       -0.43714476 -0.059280097 -0.93439746 -0.46335074
000210 58 79 14 bf a8 20 23 3e b6 54 98 be 30 69 2e be
       -0.57997656 0.15930426 -0.2975213 -0.17032313
000220 e6 f2 0d be 49 29 d6 be 29 0d 62 bd ea 52 15 3e
       -0.1386219 -0.41828373 -0.05518833 0.1458241
000230 d7 b1 a4 3c 46 4f 8c bf a5 60 89 be 98 da 8f 3e
       0.020104332 -1.0961692 -0.26831546 0.2809646
000240 93 9e af be 24 f3 41 be b7 c9 06 bf 09 b1 a7 bc
       -0.3430067 -0.18940407 -0.5265154 -0.02047016
000250 c6 0c 13 bf cc cf 9f be 67 d4 0e bf 5e 2d 93 bd
       -0.57441366 -0.31213224 -0.5579285 -0.071863875
000260 75 5a 2f 3d 52 d4 c6 be 26 64 c4 be 7f 91 bf 3c
       0.042810876 -0.38833863 -0.38357657 0.023384808
000270 c4 4f 62 be bc ae dc be 6e cf c0 be ea 20 64 bd
       -0.2210074 -0.43102062 -0.37658256 -0.05569545
000280 e2 60 e5 be 5e eb 02 bf e5 5a d6 bd 19 95 d3 bc
       -0.44800478 -0.5114039 -0.104665555 -0.025827931
000290 29 75 fa 3d 66 80 2b bf 25 f5 63 bf 0b f4 a4 bd
       0.12229378 -0.66992795 -0.89045936 -0.0805436
0002a0 81 7f 8c 3d 3e 48 70 be 28 31 08 bf 82 1c 88 bf
       0.06860257 -0.23465058 -0.53200006 -1.06337
0002b0 5c e9 87 bd 82 10 89 bf 38 b7 ca be 1b b5 69 bd
       -0.06636307 -1.0708163 -0.3959291 -0.05705748
0002c0 6e 77 bf be 4f 6f d1 be fa 5a d0 be 63 ab d0 bd
       -0.37395805 -0.40905234 -0.4069441 -0.101889394
0002d0 9e 03 1e bf 25 06 ab bd bc bb a1 be 83 25 24 bd
       -0.6172427 -0.08350781 -0.31588542 -0.040074836
0002e0 1a 2e 42 bf 77 18 7e be 29 dc 10 3d 2a 2d 70 bf
       -0.75851595 -0.2481402 0.03536621 -0.93818915
0002f0 21 69 94 3c a1 db df 3d 57 f9 d3 3c d8 4a 88 bf
       0.018116536 0.10930563 0.02587573 -1.064784
000300 5d 9e 86 be 67 0a bd bd 55 f7 a7 be 91 56 c3 bd
       -0.26292697 -0.092305 -0.32805887 -0.095379956
000310 5e 6e 03 bf 65 0b 9d 3d e3 fb e5 bd 98 43 36 bf
       -0.5134028 0.07668189 -0.11229684 -0.7119689
000320 4b 6e a9 be f5 36 f9 bc 9a 17 a8 bd 35 ed bd be
       -0.3309196 -0.030421713 -0.08207627 -0.37095037
000330 2a 81 42 bd 7e 21 74 be 74 ac 84 be 92 b9 50 bf
       -0.04748646 -0.23840901 -0.2591282 -0.8153316
000340 ad 89 8e be 16 9d d3 3c 8d 16 e8 be 20 6a db be
       -0.27839413 0.02583174 -0.45329705 -0.42854404
000350 58 aa da be 0f 2b 5c be e2 79 f0 bc b2 9c 23 bf
       -0.42708087 -0.215008 -0.029354993 -0.63910973
000360 f6 41 aa bf e9 d4 af bd 63 9a 0b be b8 63 8d be
       -1.330138 -0.08585531 -0.13633113 -0.27615142
000370 a5 e1 0e bf a2 b9 92 bf 43 17 14 3e fa d5 8d bf
       -0.55813056 -1.1462901 0.14461999 -1.1080925
000380 94 3a 3a 3d 65 67 38 bd 34 2a 7d be 27 d5 3f bc
       0.04546602 -0.04502048 -0.2472313 -0.011708534
000390 5f 58 eb be 15 86 00 be f9 61 66 bf af 4b d1 be
       -0.4596586 -0.12551148 -0.89993244 -0.40878054
0003a0 2f 25 15 bf e4 ec b9 3d f7 a2 32 bf bd b3 e5 3d
       -0.5825986 0.090783864 -0.69779915 0.11215923
0003b0 24 9e 79 3d ef c2 4a bf dc b6 50 3d 9c 75 46 be
       0.06094183 -0.79203695 0.05095564 -0.19380802
0003c0 7c 7a 7d 3c 59 fa 4a bf 1d 4a 02 bd 10 94 b3 3c
       0.015471097 -0.7928825 -0.03180896 0.021921188
0003d0 6c 8c c4 be 74 1c c1 be 2c 6b 0d bf a8 08 57 bd
       -0.38388383 -0.3771702 -0.55241656 -0.05249849
0003e0 7b 5f fa be 88 39 3e bf e9 c3 20 bf 8d ad 7b 3c
       -0.4890097 -0.74306536 -0.62798935 0.015361202
0003f0 b0 60 b6 bd 2f a7 33 3c f9 a6 ce be d2 43 9b be
       -0.089051604 0.010965153 -0.40361765 -0.3032518

fc2.bias f4 [7]
000000 6e 4a c4 be 72 45 9a 3f 83 45 6f be f5 63 99 3e
       -0.38338035 1.2052443 -0.2336636 0.29959074
000010 49 38 c3 3d 22 cc 15 bf ad 08 23 3e
       0.0953222 -0.58514607 0.15921278

localization.0.weight f4 [8, 1, 7, 7]
000000 72 e0 55 3e d9 12 af 3e a4 9c a7 3e 72 f8 58 3e
       0.208864 0.34194067 0.32736695 0.21188524
000010 01 a3 8c 3e c6 26 41 3e c5 32 74 3e 92 af a0 3e
       0.27468112 0.18862447 0.23847492 0.3138395
000020 91 d7 b4 3e e9 2d 9f 3e 8c eb 99 3e 4b 11 1b 3e
       0.35320714 0.31089714 0.3006252 0.15143315
000030 3d fe 4a 3e 18 aa 66 3e 80 75 29 3e fe 9b ae 3e
       0.19823547 0.22525823 0.16548729 0.34103388
000040 b5 ac 7c 3e f5 83 58 3e 63 86 5c 3e b5 0a a5 3e
       0.24675258 0.21144088 0.2153564 0.3223473
000050 cc 62 44 3e 43 64 37 3e 69 1a a5 3d 9f 97 90 3e
       0.19178313 0.1790934 0.08061678 0.28240678
000060 f1 90 97 3e 9b 2c 93 3e dc 31 8e 3e cb 4a a0 3e
       0.2960277 0.2874497 0.27772415 0.31307063
000070 91 7f 4c 3e 7a 0d c9 3e 90 fd 8a 3e 4e c2 7e 3e
       0.19970538 0.39268094 0.27146578 0.24878809
000080 a6 37 10 3e d4 c1 69 3e e2 2a 86 3e 16 e2 ab 3e
       0.14083728 0.22827846 0.26204592 0.33570927
000090 19 62 40 3e 97 86 a8 3e 69 44 aa 3e e6 51 43 3e
       0.18787421 0.32915184 0.33255318 0.1907421
0000a0 50 85 52 3e 96 25 c3 3e ed 1c af 3e 40 e8 64 3e
       0.20558667 0.38114613 0.34201756 0.22354221
0000b0 0f a2 d4 3e 4c 20 a4 3e 12 8c c8 3e b6 a7 51 3e
       0.4152989 0.3205589 0.39169365 0.20474133
0000c0 9e 84 91 3e 9d 65 7f 3a c7 cc 13 bc 2b 1e ba bc
       0.2842149 0.00097426196 -0.009020991 -0.022719463
0000d0 3f 9f 62 be 27 b8 77 be 99 e6 87 3d 49 82 19 3e
       -0.2213106 -0.24191342 0.0663578 0.14991106
0000e0 43 28 fc 3d b5 b9 00 be 3e 46 4c bc fa 0f 30 be
       0.12312367 -0.12570842 -0.012467919 -0.17193595
0000f0 1b 9e c6 3c ac ed 73 3d 2e 39 36 3e 1f 8e ca 3d
       0.024245312 0.059552833 0.1779525 0.09890389
000100 74 13 9a bb 93 37 3b be 3d 31 2c be c0 32 90 bb
       -0.004702026 -0.18282919 -0.16815658 -0.004400581
000110 75 1d 0e bd 8c cc 7b 3d c3 1f b0 bc 8a 53 f7 bd
       -0.03469606 0.061474368 -0.02149952 -0.12076481
000120 f6 6d 54 be 00 90 ab bc fa 2d 89 bd 87 78 9d bd
       -0.20745072 -0.020942688 -0.066982225 -0.076890044
000130 64 55 70 3e 30 ef 6f 3d b1 59 9b bc 46 9d 05 be
       0.23470074 0.058577716 -0.018963667 -0.13048276
000140 05 18 7f be 11 05 81 bd 58 4a ef 3c 3f 5c 27 3e
       -0.24911506 -0.062997945 0.029210255 0.16343783
000150 5d 6c 3d be f9 cf 4a be da 73 90 be c6 f8 8e be
       -0.18498369 -0.19805898 -0.28213388 -0.27924174
000160 26 c3 7c be b6 9a 33 be 53 32 4b 3e 70 2e 2c be
       -0.24683818 -0.17539486 0.19843416 -0.1681459
000170 95 06 4a be d6 f3 9c be c7 76 6a be 61 74 bc be
       -0.19729073 -0.30654782 -0.22896872 -0.3680754
000180 e7 cd 36 bd 7b 4d ee 3d 75 40 92 be 7e 59 9d be
       -0.044629958 0.11635872 -0.28564802 -0.3073234
000190 83 ca c0 bd 90 51 36 bd f1 9c d6 bd 9c c0 96 bc
       -0.09413626 -0.044511378 -0.10479153 -0.01840239
0001a0 72 14 ae 3c ee 31 d9 bb 04 88 83 3d 6f fb 28 be
       0.021249983 -0.0066282665 0.06422427 -0.16502164
0001b0 57 d5 06 be 84 22 68 bd 5a c2 d2 3d c4 eb 49 3e
       -0.1316732 -0.05667354 0.10290976 0.19718844
0001c0 9f 16 4c bc 22 dc b6 3d 30 3f 01 bc 3a 28 ec bd
       -0.012456565 0.08928706 -0.0078886 -0.1153111
0001d0 54 f7 a8 3d 15 6b 07 3d 8f 52 5d 3e cd 62 10 3e
       0.08250299 0.033061106 0.21613525 0.1410019
0001e0 64 d6 01 bd 8c a8 a3 bb 17 f2 10 bd 0e ad f7 bd
       -0.0316986 -0.0049944576 -0.035387125 -0.120935544
0001f0 9c 95 3c 3e be 3c 18 3e c3 58 ee bb b8 0b 87 bc
       0.18416446 0.14866921 -0.007273765 -0.01648508
000200 4c f3 ca bd 41 e2 74 be d2 50 28 be 0b 7b 1c be
       -0.099096864 -0.23914434 -0.1643708 -0.15281312
000210 d7 f1 de 3d 6f 00 6b 3c 53 84 4b be 51 52 ed bc
       0.10885971 0.014343365 -0.19874696 -0.028969916
000220 8c bd e6 bd 5b ce aa be 5c 44 17 be 41 f4 13 3e
       -0.11266622 -0.33360562 -0.14772171 0.14448644
000230 d0 ad 87 3c 33 ca 86 be 3d 00 35 bd 97 62 55 be
       0.016562372 -0.2632614 -0.04418968 -0.2083839
000240 f4 bd a5 be 86 c8 5a be 8f f6 de 3d 99 10 4c 3c
       -0.32371485 -0.21365556 0.10886871 0.012455129
000250 f4 87 2d 3d b4 d2 be bd c0 17 da bd 70 2a 1e be
       0.042365983 -0.09317532 -0.10649061 -0.15445876
000260 fb 61 86 3d 12 55 4c 3d 3b 52 e1 3d d3 96 00 be
       0.06561657 0.049885817 0.11002012 -0.12557535
000270 b1 a9 59 bd bd 4c ea 3d e9 8f ca 3d 07 79 e4 3d
       -0.053140346 0.11440418 0.0989073 0.11155897
000280 cf 69 46 bd b7 c5 28 bc 7e 5e 1f 3e 60 d2 89 3d
       -0.04844075 -0.010301045 0.1556339 0.06729579
000290 9d 36 09 be af ba 03 3e f5 ca 9b 3d 7f 4d d8 bd
       -0.1339974 0.12864183 0.0760707 -0.10561656
0002a0 ee 62 4d 3d 55 4d d8 3d 7a e7 57 bd f8 bc a0 bd
       0.050143175 0.10561625 -0.052710988 -0.07848543
0002b0 9d ed a2 3d 55 be 72 3c cc 5b 9b 3c 09 be cc 3b
       0.079554774 0.0148158865 0.01896467 0.00624824
0002c0 3c f5 d6 3d 0d 03 62 3d a2 3d db bc 36 0d e8 bc
       0.104959935 0.05517869 -0.026762787 -0.028326612
0002d0 24 5b b6 3d de 49 d8 3c e2 de 38 bd d1 6e 0f 3e
       0.089041024 0.02640241 -0.045134433 0.14007117
0002e0 44 c5 20 bd a5 4d 95 3d a8 40 bb bb 79 1a 34 bd
       -0.039250627 0.072902 -0.0057144947 -0.04397056
0002f0 07 d4 01 3e 75 bd 09 3e c4 09 1b bd bb c3 db 3d
       0.12678538 0.13451178 -0.03785111 0.10730692
000300 ef 71 d7 3d 8d a2 26 bd 7d 16 b6 bc bf b7 e3 3c
       0.10519778 -0.040682364 -0.02222752 0.027797578
000310 e2 17 3d 3e 86 72 3c 3e 2c 2b 4d 3e 61 db 9c 3d
       0.18466142 0.18403062 0.20036 0.07659031
000320 63 67 01 3e 6c c2 68 3c ee 20 ad 3c 69 3a e8 3d
       0.12637095 0.01420651 0.021133866 0.11339266
000330 20 1d 42 3d 93 8a 05 3e 32 bb 42 3e 7f e9 89 3e
       0.047391057 0.13041143 0.19016722 0.26935956
000340 e1 a0 d5 3d 8c 08 4d 3d 6e de 1f 3e 45 eb 49 3c
       0.10431076 0.05005698 0.15612194 0.012324159
000350 b1 96 88 3e 19 ba 4e 3e ed 6d 49 3e 42 55 5d 3e
       0.26677468 0.20188178 0.1967084 0.21614555
000360 43 45 89 3d a7 a3 74 3e a6 ec 07 3e bf ce ba 3d
       0.06702664 0.23890553 0.13273868 0.09121465
000370 be 2f b9 3c 10 8b ba 3c a2 3f 06 3e 16 cb 86 3e
       0.022605773 0.022771388 0.13110211 0.26326817
000380 a4 77 9c 3c 9b ad 86 3e d7 3b db 3d dc a8 34 3e
       0.019100018 0.26304325 0.10704773 0.1764254
000390 11 0c 1c 3e 59 e9 38 3e 66 7b 66 3e db b3 6d 3e
       0.15238978 0.18057765 0.2250801 0.2321314
0003a0 47 a1 2b 3b f3 a1 0c 3e 3e 89 00 3d 85 e0 9b 3c
       0.0026188658 0.13733654 0.031380884 0.019027958
0003b0 b4 61 8a 3d 1e 4c 8e 3e aa 54 4b 3e 4e a8 89 3d
       0.06756917 0.27792448 0.19856516 0.06721555
0003c0 b2 14 d9 3d d4 b9 f4 3d bd 21 85 3e 63 17 91 3e
       0.105996504 0.119495064 0.26002303 0.28338155
0003d0 02 d0 5e 3e 8e fd c3 3d c3 11 67 3e 5b c4 25 3e
       0.21759036 0.09569846 0.2256537 0.16188185
0003e0 ed be 5c 3e 12 0c 66 3e 63 1a 9f 3e 90 71 b8 3d
       0.21557207 0.22465542 0.3107482 0.09006035
0003f0 c9 ab 43 3e 8e 89 71 3e c1 bd 4d 3e 62 f7 04 3e
       0.191085 0.23587629 0.20091917 0.12984994

localization.0.bias f4 [8]
000000 18 55 71 bd 4e fd c1 bd e9 5a 0c be 4a 07 8e be
       -0.058919042 -0.09472142 -0.13706554 -0.27739936
000010 35 b7 b1 bd 5f 97 3c be 76 79 0c be f2 7e 4f be
       -0.08677522 -0.18417118 -0.13718209 -0.2026327
