Speaktrum_by_SOVA_70.pt (torch, 274842 bytes, 24 tensors)

conv1.weight f4 [10, 1, 3, 3]
00000000: 751d d8be f04d 05bf 7c86 d63d 55c5 7abe
00000010: 5092 92bd fa5a bcbe 04c7 c6be 57af a73e
00000020: 6d2b 82be dd68 bc3e a4a7 5a3f 57f0 383f
00000030: f6c4 853d 837a 7abd c44c f13c ebd4 32bd
00000040: f35b 8d3e ef82 103f b1ec 4d3f b64e c83e
00000050: 9077 5b3c f86c 48be dd2f 393d 46e0 92be
00000060: fa18 24bf c4f6 05bf be85 f63e 0f2d e83e
00000070: b213 8cbe 9a56 4ebf b9dc 403f 6bbd b9be
00000080: 8040 f93e c61f 6c3f 1d72 04bf 66df 093f
00000090: 473f cebe bac4 0cbf 34aa aa3d cb26 d63d
000000a0: 6eaa e1be 57e9 fabe 42a9 043f b358 f13e
000000b0: 6f7c 003f c98f 073f 09e4 21bd 9d24 2ebf
000000c0: 1aff 65be 4938 2ebf 716b 27bf 256a 5b3f
000000d0: 06e7 0fbf 3115 07be fb0d b43e 48ea 8e3e
000000e0: f08e 303f 7ebe 48be c342 90be 56cf 643e
000000f0: 1fc0 d8be 758b 70bf 2a75 293f 23ba 6e3f
00000100: e2b0 003f 04cd e0bd 499b 6d3f 4a19 1f3e
00000110: a36f d6be 1bc4 d1be 5851 8b3e 726d 19bf
00000120: 8501 c83e 6e0f 8b3e 9d40 1dbf 7545 1b3f
00000130: 1f56 c43e 9694 c6be c422 8cbe 8cd1 23bf
00000140: 2d66 a5be 2c1e 66bf 7908 f43d 5df5 3cbd
00000150: d522 e9be a981 a73e 79f2 bdbd 4eed a53e
00000160: a6fb 4c3f 1e98 4bbe
-0.42209974 -0.5207205 0.104748696 -0.24489339 -0.07156813 -0.3678816 -0.38823712 0.3275096
-0.25423756 0.36798754 0.8541205 0.7224173 0.06531708 -0.061151993 0.02945555 -0.043660086
0.27609214 0.5644979 0.8043929 0.39122552 0.013395205 -0.19572818 0.04521166 -0.28686732
-0.6410061 -0.5232966 0.48148912 0.45346877 -0.27358776 -0.80600893 0.75336796 -0.36277327
0.48682022 0.9223598 -0.51736623 0.53856504 -0.40282652 -0.5498768 0.08333245 0.10456618
-0.4407534 -0.4900615 0.51820767 0.47137985 0.5018987 0.52953774 -0.039524112 -0.6802462
-0.22460595 -0.68054634 -0.6539832 0.8570884 -0.5621189 -0.13191678 0.35166916 0.27913117
0.68968105 -0.19603917 -0.28175935 0.22344717 -0.42334077 -0.93962795 0.66194403 0.9325277
0.502699 -0.109766036 0.9281507 0.15536991 -0.41882047 -0.4096993 0.27210498 -0.59932625
0.3906366 0.2716021 -0.6142672 0.6065286 0.38346955 -0.38785237 -0.27370274 -0.6399162
-0.32304516 -0.8988979 0.119156785 -0.046132434 -0.45534387 0.3271611 -0.092747636 0.32407612
0.80071485 -0.19882247

conv1.bias f4 [10]
00000000: 3652 c93e 6ba3 5cbe 3eba ab3d f356 f23c
00000010: e412 863e 5332 b4bc 411a b8bd 06a3 58be
00000020: ad8f c73e a77d 4b3d
0.39320534 -0.21546714 0.08385132 0.029582476 0.26186287 -0.021996653 -0.089893825 -0.21155939
0.38976803 0.04968038

conv2.weight f4 [10, 10, 3, 3]
00000000: 9c71 553e 0ae3 c6be 89e5 5bbf bfef 8bbf
00000010: 0a6d 0abc 46c5 403f 89a6 bbbf e8b9 c3be
00000020: 2351 f23e 80e0 dfbd eecf 443c 3109 e43e
00000030: 0982 febd 7754 1cbe ae83 cbbd 2033 ca3b
00000040: 172a 5f3e 3d8e 59bf 3d17 81bd e4c3 e33e
00000050: 43a9 523f 7f95 91bc 23cd 5a3e 592b bfbd
00000060: d4d2 c4be b798 a3be ca4a 4b3e 6564 883f
00000070: b41d 52be 5874 b3be 7310 79bd 0dab 8cbd
00000080: ce24 553e 1f69 adbe 2345 29bf bd4a b2be
00000090: 2c6a e43e f7a6 79be 1991 f5bd 1791 a2be
000000a0: b050 34be f1ee 40bf dbbf bf3e 8fed 413e
000000b0: 7c7c aebe 37fc 29bd d609 e63e 13a0 dc3e
000000c0: 2961 3bbf 1f08 dabe 3076 0fbf 8c9e 48bf
000000d0: e504 23bf 684e 98bf 26dd ddbd 15e2 053f
000000e0: 66ff da3e cd66 fc3e beb8 6b3e 9734 a6be
000000f0: af6e 2e3e ce73 76be 2557 95bf 1a0a 2dbe
00000100: c8ca 9f3e 9389 643f 46f2 8abe 85f4 6d3e
00000110: 2ce7 133f 943a c43e dcdb 24be 70cf 10be
00000120: 029d 813d 13c0 a83e eb3a debe 4907 143f
00000130: 0262 2e3e 0ec1 aabe 1647 a23e 83c9 2d3d
00000140: c6c4 e3bd 2ded cc3e 9b81 66be e0de dfbe
00000150: e379 63bf fb57 29be ab8d 6d3f 9557 51bf
00000160: 2d3f d33e 6a5e 523e 8bc6 52be 5f58 743e
00000170: 770e 02bf b744 1bbd db06 6cbe 4ffd 61c0
00000180: 6a97 653e c4da fb3e b3d8 fdbf 67ce f6bc
00000190: 7df2 053f e116 763e 4fb3 4a3d 9fab 493d
000001a0: 1055 95bd 1320 283e 0f5d 4f3e 3342 103e
000001b0: d86e 133f 821d a0be ac88 3cbf 997e 5ebf
000001c0: 9017 243f a69b f23d fda7 8c3d c892 a63e
000001d0: d20a 83be f88b 39bf f056 71bf 0a57 91bd
000001e0: 569e 923e 8e4e f23e d646 963e a3cc c3bd
000001f0: d39d 023f ea14 b43e 44cf 123f 7bf7 0ebf
00000200: d686 0ebf c536 f63e c0ee 183d a27f 073f
00000210: 3ee0 143e a541 783e c1e9 2f3f d7dd fcbf
00000220: 2b6c 11c0 8c17 38bd 5962 9fbf 1721 9cc0
00000230: 941d 22c0 94ea 98bf f5cc 213e 1760 a03f
00000240: 5b73 543e 4ca0 c7bd 035f 89bf 9086 fcbe
00000250: 3605 bb3e ac6e 073e 8eb5 a6bd ca22 b73e
00000260: c76c 453f aaa5 a3bf d4f2 e3be a39e 853e
00000270: 6a2a d83e 8dfc cdbd a2c4 29be f23d 4ebd
00000280: 130e 09bf 76d0 08bf e696 efbf 057a d1bf
00000290: b6d6 17be 08ac 123f 74a9 00bf 012d 88bf
000002a0: 057f a7be 6004 73bf 2797 2dbf def4 a63f
000002b0: 9df1 d7be a357 04bf 2f8b 3c3f 1a4d 3a3d
000002c0: 911c 8bbe 66ad 87be 35b1 763d c375 88bf
000002d0: d52b 5cbf 3959 38bf e05c a2bf 7348 a3bf
000002e0: 3c32 25bf dc14 d63e a2a1 08bf d3f2 00be
000002f0: 3af3 85bd 5ca8 3abe 8bd4 e93d f998 f0bb
00000300: ca67 afbd 7094 1a3e 9a21 e93d 8a53 83be
00000310: 0bfa c7bc 7070 813d 0176 063d d7fd 65be
00000320: b717 1ebf d7c3 963e 0b0d 023f 5740 253f
00000330: 96cb e2bd e4a8 ce3e f44a 27be 174b 0cbf
00000340: ac6c 023f 9ff2 023f c39b 82be cfb1 15be
00000350: db12 e83e b245 d1bf 89c8 1fbf c14e 5d3d
00000360: e865 573d 26eb 8d3e 73ac c93e d8ef 423d
00000370: d2dc 02bf cd88 0d3f d581 c6be aaef 3abf
00000380: 431b 103f e12c e7be 9d28 c13e 9e4f debe
00000390: 9084 473f 5a0e d13d 8d6f eebe 67d1 023f
000003a0: 4aeb 243e 8747 3dbf c2a2 a3bd 65be 0c3e
000003b0: 147c d8bd 5fb8 ba3d 6b75 a53e a634 8abe
000003c0: 53c8 6f3e 982b 5f3e 7945 55be 82ab dbbc
000003d0: 497b b83e 7976 f2be a243 04bf beed 893d
000003e0: 6ada 42be fdcd bbbe 3680 6ebe c548 083f
000003f0: da7c 52be 2085 a53b 72e4 e63e 35ca 67bf
0.2084412 -0.38845092 -0.8589712 -1.093254 -0.0084488485 0.75301015 -1.4660197 -0.38227773
0.47327527 -0.10931492 0.012012465 0.44538262 -0.12427146 -0.15266596 -0.09937225 0.0061706454
0.217934 -0.84982663 -0.063032605 0.4448539 0.8228952 -0.01777148 0.21367316 -0.0933444
-0.384421 -0.3195245 0.19852749 1.0655638 -0.20519143 -0.350497 -0.060806703 -0.06868563
0.20814821 -0.33869264 -0.6612112 -0.34822646 0.44612253 -0.24380098 -0.11990566 -0.3175132
-0.17608905 -0.75364596 0.37451062 0.18938278 -0.3407935 -0.041500296 0.4492938 0.43090877
-0.7319513 -0.4258432 -0.56039715 -0.78366923 -0.63679343 -1.1898928 -0.10833196 0.522981
0.4277298 0.4929718 0.23019692 -0.32461998 0.1703441 -0.24067613 -1.1667219 -0.16898385
0.31209397 0.8927242 -0.27137965 0.23237808 0.57774615 0.38325942 -0.16099495 -0.14141631
0.06328775 0.3295904 -0.43404326 0.57823616 0.17029575 -0.33350414 0.3169486 0.042428505
-0.11121516 0.400247 -0.22510378 -0.43724728 -0.8885786 -0.16537468 0.92794293 -0.81774265
0.41259137 0.20543829 -0.2058355 0.23861836 -0.5080332 -0.03790733 -0.2304949 -3.5310857
0.22421041 0.49190342 -1.9831756 -0.030127717 0.5232313 0.24032165 0.04948741 0.049235936
-0.07291615 0.16418485 0.20250343 0.14087753 0.5759101 -0.31272513 -0.73646045 -0.8691192
0.64098454 0.11846094 0.06867979 0.3253386 -0.25594193 -0.724792 -0.9427328 -0.070966795
0.28636426 0.47325557 0.2935092 -0.09560516 0.5102207 0.35172206 0.5734751 -0.55846375
-0.55674493 0.4808866 0.037337065 0.5292913 0.14538667 0.24243791 0.68716055 -1.97552
-2.272227 -0.04494433 -1.2451888 -4.8790393 -2.5330553 -1.1946588 0.15800841 1.2529324
0.2074713 -0.09747371 -1.073212 -0.49321413 0.36527413 0.13225812 -0.081400976 0.3576873
0.77119106 -1.2784932 -0.445212 0.26097593 0.4221986 -0.10057936 -0.16578916 -0.050352044
-0.535371 -0.53443086 -1.8717926 -1.6365362 -0.14828 0.5729375 -0.50258565 -1.0638734
-0.32714096 -0.9492855 -0.67808765 1.3043478 -0.42176524 -0.51696223 0.7364988 0.045483686
-0.27170232 -0.2649948 0.06022759 -1.0660938 -0.8600438 -0.7201114 -1.2684593 -1.2756485
-0.64529777 0.4181279 -0.5337163 -0.1259263 -0.065405324 -0.18228287 0.114174925 -0.0073424545
-0.08564718 0.15095687 0.11383362 -0.25649673 -0.024411222 0.06320274 0.03282738 -0.22460113
-0.61754936 0.2944629 0.5080115 0.645513 -0.11073987 0.40363228 -0.16337186 -0.5480208
0.5094707 0.5115146 -0.25509462 -0.1461861 0.45326886 -1.6349394 -0.6241537 0.054030184
0.05258742 0.27718467 0.3938938 0.047592014 -0.51118195 0.55286866 -0.3877093 -0.7302195
0.562916 -0.45151427 0.37726298 -0.43420118 0.7793665 0.102078155 -0.46569481 0.5110077
0.1610538 -0.7393727 -0.07990028 0.13744505 -0.10570541 0.09117197 0.32316145 -0.26993293
0.23416261 0.21793973 -0.20827283 -0.02681518 0.3603156 -0.47356012 -0.516657 0.06734799
-0.19028631 -0.36680594 -0.23291096 0.5323604 -0.2055544 0.00505127 0.45096165 -0.9054292

conv2.bias f4 [10]
00000000: efcc 943f 2804 6fbe f743 713f 82b8 bdbf
00000010: 4c75 c2bd 76b8 fe3e 585c 083e f85b 323f
00000020: 3b1e 23bf c848 243f
1.1625041 -0.23341429 0.9424433 -1.4821932 -0.09495029 0.49750108 0.13316476 0.69671583
-0.63718003 0.64173555

conv3.weight f4 [10, 10, 3, 3]
00000000: a0fa d4bb 42e3 223e 5abf f2be f809 8e3d
00000010: 261b e7be 55c4 ab3e 7b47 a93e 7db8 5cbf
00000020: d039 6e3e 364e e6be 3509 a0bf 8f04 b5be
00000030: 5a67 a2be b703 d23e 202d 9c3f 1506 8c3e
00000040: bd59 373f 1ef8 fcbd 759d 8cbe 0cdc e5be
00000050: d838 ea3d 6a54 15bf c3f2 a7be 125e d73e
00000060: a229 6fbf 6702 1a3e 6226 d23e 5ff6 063f
00000070: 0a97 9dbf 7cf3 d43e 0917 16bf 12d8 35bd
00000080: c609 a0bd a39f bbbe 4d38 7e3f 7f6e a63d
00000090: b371 163e 5ad0 0ebd 01eb f83c ca08 933d
000000a0: c783 a6bd 5dfb d13c cb35 553d 8817 3ebd
000000b0: dc32 d43d 9450 ed3d 4ade ed3e bb4d a8be
000000c0: b53a 99be d471 e7bc 2758 dd3c a729 fdbe
000000d0: 831d 5fbf e401 2abf 379e f2be f41f 1cbf
000000e0: 475b 8c3e ee60 e0be fac9 033e 8cc4 7b3e
000000f0: e18f 30bf f87c 583f b070 e23e ef7b 67be
00000100: fc52 753f f084 483f bb50 0f3e 1198 e4bc
00000110: 148e 1bbf e069 96bd a787 16bf 7c3a 84bf
00000120: 8b6d bc3e 60f6 303d e4d0 03bf 3dc6 7c3e
00000130: 8232 fbbc 32fb f53d 9449 89be 6b34 49bf
00000140: 88cb 9bbf 305a 04bf 58fb 04bc 5343 5bbd
00000150: cb46 9f3d c493 cf3d 5a9f 033d fb7f dabe
00000160: 7afc d7be e8be 6e3e 70b6 8b3c 109f 003f
00000170: 1028 813e e6fe 4d3e bb9b 933c 61c9 fcbe
00000180: 48c5 65be 87f0 c63c 1871 fd3d 70a2 1dbf
00000190: f362 b53e bb21 43bc a1a3 3bbf 73ee 22bf
000001a0: 5221 b2bd 28ba 073d 67c3 88be 5f49 513e
000001b0: facb a43d ed7c 483e 5818 dbbe 56aa 183e
000001c0: ef9b fc3d 3ae1 81be 2d7e 063f a7d0 f9bd
000001d0: c4df a4be 1654 073f ab6b 5f3f 7654 903f
000001e0: f681 23be 9a2d e0be 9b6c 903e b2e1 083e
000001f0: 6228 6e3e be90 29be 0810 4dbd 29ec d43c
00000200: 6d03 743d d31f 3ebd 3200 9ebd 5c12 4f3d
00000210: 60ba bc3d 6103 ad3d 4f81 303c a985 2a3f
00000220: 2b69 313f 9760 c73e 3548 c9bd 9430 30be
00000230: 6e98 f83e dc78 1fbf c7da c03c 1c8f 19bf
00000240: c472 7e3f 360b 96bd 28a5 f7be 6131 4f3e
00000250: adab 343d 042d 1cbf b485 e13e 0c86 303d
00000260: eac8 b1be e573 2c3f a459 9f3e 6052 6b3f
00000270: 95d5 a43e daa5 403e 2c9e 163e f8a0 033e
00000280: f311 023f 95fe 953e 6d0d 03bf 580e cfbc
00000290: 254a 303e d430 56be 3c5b c33e cd09 8ebe
000002a0: 2b1b adbe a5e0 9bbe 0233 8bbe 634b 663d
000002b0: e46f 583e c61d 1ebd de79 513e 0be6 7c3e
000002c0: 5854 183d 23c1 6f3e f874 2a3d 55a8 05be
000002d0: fe0a 2abf 76b9 4bbf 7cf7 46bf 5773 f23d
000002e0: bf6d 8cbe e781 d63e e480 3d3e 93a1 323f
000002f0: 7ca1 893f 5d5e b13e 1f14 fb3d 5c90 1c3f
00000300: 71fd 98be c986 bb3e 3dd1 00bf 3815 27be
00000310: b0df a1be e702 2b3e f797 f73e 5d27 96be
00000320: bbc5 3f3e 96a4 89bd b531 b93e ea01 8bbe
00000330: ac2c 503f 3c53 e83d 7dd7 b33e ea88 c1bd
00000340: bba6 85be ce04 0d3f 869f 5dbc 43c1 113e
00000350: c26e 37bd 316d d4bf 19bc 6cbf 7a17 1ebe
00000360: 293c b8bd e7e6 2bbd 6ffd cdbc 0deb 9bbd
00000370: 5bc9 08bd d246 ab3d e9f7 793d b827 3fbd
00000380: e30a 82bd 1e8c ee3e ea2d 1f3f f270 8a3e
00000390: a8a0 093f 94f0 18bf be88 d03e 9576 52bf
000003a0: 76d3 1cbf 8f28 78be 5970 3fbd 54c3 c4be
000003b0: ed28 aabe 5444 ab3e c58d e13e 719e 873e
000003c0: ae59 0abd 31c0 343f 0a4b 983d 8cfb 03be
000003d0: fb28 953e bb64 1f3e bee6 1f3c 734f 1c3f
000003e0: c72a cdbe 57d2 883e 9d98 5a3c 6754 3a3e
000003f0: 2332 5dbd 7107 0a3e fbad 8cbe 7251 003f
-0.0064996034 0.15907004 -0.47411615 0.06935495 -0.451379 0.33548227 0.33062348 -0.86219007
0.23264241 -0.44981545 -1.250281 -0.3535504 -0.31719476 0.4101846 1.2201271 0.2734839
0.71621305 -0.12352012 -0.2746388 -0.44894445 0.11436623 -0.5833193 -0.328024 0.42063957
-0.934229 0.15039979 0.4104491 0.5271968 -1.2311718 0.41592014 -0.586289 -0.044395514
-0.07814364 -0.3664523 0.9930466 0.08126544 0.1469181 -0.03486667 0.030385496 0.07179411
-0.08130603 0.025632555 0.052053254 -0.04640916 0.10361263 0.11587635 0.46458656 -0.32871804
-0.29927602 -0.02825252 0.027019573 -0.4944584 -0.87154406 -0.66409135 -0.47386333 -0.60986257
0.2741339 -0.4382395 0.12870017 0.24586695 -0.6896954 0.8456569 0.442266 -0.2260587
0.9582975 0.78327847 0.1399564 -0.027904542 -0.6076367 -0.07344413 -0.5880074 -1.0330348
0.36802325 0.04320371 -0.51490617 0.24684997 -0.030663732 0.12010802 -0.26813948 -0.7859561
-1.2171488 -0.51700115 -0.008116566 -0.053531002 0.077771746 0.10135606 0.03213439 -0.42675766
-0.42184812 0.23315012 0.017054766 0.5024271 0.25225878 0.20116767 0.018018594 -0.4937239
-0.22438538 0.024284614 0.123750865 -0.61575985 0.35427055 -0.011909897 -0.7329655 -0.63645095
-0.086977616 0.033136517 -0.2671158 0.20438145 0.08046718 0.19578905 -0.4279201 0.14908728
0.123344295 -0.25367147 0.5253628 -0.121980004 -0.3220197 0.5286268 0.87273663 1.1275775
-0.15967545 -0.4378479 0.2820786 0.13367346 0.23257592 -0.16559121 -0.050064117 0.025991516
0.05957358 -0.04641707 -0.07714881 0.05055462 0.09215236 0.0844791 0.010773017 0.666102
0.693011 0.3894088 -0.098282255 -0.17206031 0.48553795 -0.6229379 0.023541821 -0.5998399
0.9939387 -0.07326357 -0.48368192 0.2023368 0.044109035 -0.6100619 0.4404732 0.043096587
-0.34723598 0.6736434 0.31123078 0.9192257 0.321942 0.18813267 0.14708775 0.12854373
0.5080864 0.29295793 -0.5119236 -0.025275394 0.17215784 -0.20917064 0.38155544 -0.27741852
-0.3380979 -0.30444828 -0.27187353 0.056224238 0.21136433 -0.038602613 0.20456645 0.2469713
0.03718981 0.2341352 0.041615456 -0.13052495 -0.6642302 -0.79579866 -0.7772138 0.118384056
-0.2742748 0.41895983 0.18506199 0.6977779 1.0752406 0.34642306 0.12259697 0.61157775
-0.2988086 0.3662627 -0.5031927 -0.16316688 -0.31615973 0.16700326 0.48358127 -0.29326907
0.18727772 -0.067208454 0.36170736 -0.27149898 0.81318164 0.11344001 0.35125342 -0.094499424
-0.26103768 0.55085456 -0.013526803 0.1423388 -0.04478336 -1.6595823 -0.92474514 -0.15438643
-0.0899585 -0.041968253 -0.02514526 -0.07613192 -0.033395153 0.08363117 0.06102744 -0.046668738
-0.06349733 0.46591276 0.62179434 0.27039295 0.53760767 -0.59742093 0.40729326 -0.8221219
-0.61260164 -0.24234222 -0.046738002 -0.38430274 -0.3323435 0.33450568 0.44053474 0.2648807
-0.03377693 0.7060576 0.074361876 -0.12888926 0.29132828 0.1556577 0.009759603 0.6105873
-0.400717 0.26722977 0.01334205 0.1819626 -0.054002892 0.13479401 -0.27476487 0.50124276

conv3.bias f4 [10]
00000000: ed39 113f eeea 2a40 4701 fb3f 87d8 1ec0
00000010: 4d5d 203f 9ce5 2abe ecf7 283e 77cd 163e
00000020: ecc3 1b40 c27f 95bc
0.5672901 2.670589 1.9609765 -2.4819658 0.62642366 -0.16689152 0.16500825 0.14726816
2.4338331 -0.018249396

conv4.weight f4 [10, 10, 3, 3]
00000000: be3b 483f 3b7f c9be 8200 25bf 809d 053e
00000010: 6d5a 20be d0e1 9fbe df17 4dbf 9598 9bbe
00000020: f2af 993e 42c8 683d daab a73e 0ac7 ec3e
00000030: 7b71 07be 20df 143e e458 2dbf 2895 4abf
00000040: de49 aabe fe31 43bf 4f7b 28bf 69c8 ec3d
00000050: 75b6 83bc c78a 04bf 270f e23e 3325 303d
00000060: d1bf 523b 8f94 03bf 678b 61be 4233 8cbe
00000070: 2fc4 343e 1fd4 f03e 79f5 07bf 5ee0 043f
00000080: 16c9 99bd 96b0 cdbe 26d3 03bf adda 2bbf
00000090: 0ab3 40be 1335 903e d25a 69bd 2c7d 85be
000000a0: f1a3 7bbe a0f3 10be 08ad 9b3d 2ef3 4abe
000000b0: 6751 e33e faef 063c 604d eabc 5e58 cf3c
000000c0: d983 2bbc dd87 c9bc b2c9 8a3d 97b5 aebd
000000d0: 90d9 dfbc 30e6 2b3c 24cc 9ebf 135b 07bf
000000e0: b188 523f 543d a7bf f075 bb3e 3668 04bf
000000f0: d22e 13be a3cc 9b3f f976 43be a46d 78bf
00000100: 238d fbbd 422d 4c3f f892 2bbf c96a 143c
00000110: ee76 4d3f 0fbc 7cbe 4425 18be c295 67bd
00000120: fd52 3bbe 06e0 78bd c169 24bf 85f6 02bc
00000130: f1f6 023e 6e75 31bf c7e8 523f 9f71 213f
00000140: 5274 4fbe 25e7 91bd afb6 b33d a18c b5bc
00000150: 61ef b3bc 32bc 5cbc 031e b9bb 9ed4 c4bd
00000160: 3713 983c 086f b9bd 78df c9bf 9575 dcbe
00000170: f972 303e 8781 d2bd d60b 303f badc 92bd
00000180: 78c2 c8be 602a b33e 6961 b4be 97be 1f3f
00000190: 5c12 aabe af07 b9be a135 c9be fafc 1c3f
000001a0: 4ed5 323f af82 06bf 392a 74be 74bf 2dbe
000001b0: 69a1 253e b931 853d 8de5 16bf 3280 ef3d
000001c0: 8786 623c afbe dbbd c10e ba3e 6fac c53d
000001d0: 7444 14bf e735 ebbe 3d33 4e3e 1092 86bf
000001e0: 3671 883e 3f9b 323f 38e9 59be 1565 043e
000001f0: fded 23bf 2ae8 8dbf 8172 4e3f f34e 9a3f
00000200: 19a8 f2be 98c1 73be 8fa4 b43e 072c 12bf
00000210: 9433 bbbe d6e4 93bd 5af5 05bf 43a5 843c
00000220: 57e1 383d 709e d03d 48b8 48bd e951 523d
00000230: 2160 583d 4abc 70bd 0754 a23d 6eec 7abd
00000240: 31bf 563e ba1a b6be e4c3 d6bf 6cdd 6dbe
00000250: dd27 db3d 762b f13e c4a0 1c3f 1be5 923f
00000260: e8d8 2ebd 8672 df3d 744d babe 68cc 4bbe
00000270: deae 0dbf d65d 67bf a160 18bf ec38 a43e
00000280: d0e6 61bc ebc2 c5bd 095c b7bd fd89 c7be
00000290: 352d c0be 518b be3e cc4c 94bd 8531 b93c
000002a0: c802 c9be 530b 47bf 9c3b 1abf 388f 85bd
000002b0: 2603 acbd 8277 42bd 34e7 11bd 33d9 9bbb
000002c0: 6bb6 833d 4fbc 393c 1a12 933d 287a 96bd
000002d0: 8030 88bf f79d 19bf e365 f53e 96d9 11be
000002e0: 279e 153f 2ad4 713f 216e ffbe f78b b03e
000002f0: 2f19 2e3e 4125 243f 2fd7 88be 0902 23bf
00000300: 804f 253e 0bde cdbd 1a67 083f 823d 44bf
00000310: dc56 2bbd 585d d43e 2b48 c9be 3dd9 c3be
00000320: d60b e8be bf05 fabd a91b 743e 152d 943e
00000330: 6713 ff3e ef2d 57bd 1056 edbe 4f62 4cbe
00000340: 1a57 2dbe de90 f4bd 4a1b 86be 1628 993f
00000350: 0c38 973e 87b3 aaba f5a5 afbe adf1 8ebf
00000360: 62f6 2a3f 1f0e 003f 149c 77bb 398e 4abf
00000370: 6754 f5be 4359 72be 7333 bbbe 9fa2 b5be
00000380: f251 03bf 0506 413d dc0c d3bc ca06 a2bb
00000390: 929b bcbd 1385 203e 1987 f4bc c58c 0b3d
000003a0: a391 d03d a980 71bc 7ded 3ebf b8f2 5fbf
000003b0: 2b22 393d 169f 0dbf f7b1 62bf fdda 813f
000003c0: 3cf6 d43e 4969 77bf ed0b 62bf 0559 fcbd
000003d0: c65d ce3e 6235 ae3b f142 04bf 577b a5be
000003e0: 2e56 94bf 3d6e f43c 69eb 7cbc 26d6 a3be
000003f0: f580 193f 9dc9 f23e fe6c aabe 8fec 7a3e
0.7821616 -0.39354882 -0.644539 0.13048363 -0.15659495 -0.3122697 -0.8011455 -0.30389848
0.30017048 0.056831606 0.327483 0.46245605 -0.13226883 0.1453824 -0.6771376 -0.79133844
-0.3325948 -0.7624816 -0.65813154 0.11561663 -0.016078213 -0.5177426 0.44152185 0.043004226
0.0032157789 -0.5139856 -0.22025834 -0.27382857 0.17652963 0.47036836 -0.53108937 0.5190486
-0.07509057 -0.40173787 -0.5149406 -0.6713055 -0.18818298 0.28165492 -0.05697138 -0.2607206
-0.24574257 -0.14155436 0.076013625 -0.19819328 0.44398043 0.008235926 -0.028601348 0.025310691
-0.010468447 -0.024600917 0.067767516 -0.08530729 -0.027325422 0.010491893 -1.2406049 -0.52873343
0.82239825 -1.3065591 0.36613417 -0.51721513 -0.1437333 1.2171825 -0.19088353 -0.970423
-0.12282779 0.7975656 -0.6702113 0.009058663 0.802596 -0.24681114 -0.14857966 -0.056539305
-0.18293376 -0.06076052 -0.6422387 -0.007993345 0.12789513 -0.6931981 0.8238644 0.63064
-0.20259216 -0.071241654 0.087750785 -0.022161784 -0.02196473 -0.013472604 -0.0056493296 -0.09610866
0.01856385 -0.09054381 -1.5771322 -0.43058458 0.17231359 -0.10278612 0.6876806 -0.071710065
-0.39210868 0.34993267 -0.35230568 0.6240019 -0.33217132 -0.36138675 -0.39298728 0.6132351
0.6985673 -0.5254316 -0.23844232 -0.16967565 0.16174854 0.065036245 -0.58944017 0.11694373
0.013826019 -0.107297294 0.3633938 0.0965203 -0.5791695 -0.45939562 0.20136733 -1.0513325
0.26648873 0.69768137 -0.21280372 0.12929185 -0.64035016 -1.1086476 0.8064347 1.2055343
-0.47393873 -0.23804319 0.35281798 -0.5709843 -0.36562788 -0.07221381 -0.523275 0.016192084
0.045136776 0.101864696 -0.04900387 0.051347647 0.05282605 -0.058773316 0.07926183 -0.061260633
0.20971371 -0.35567266 -1.6778531 -0.23228997 0.10700963 0.4710347 0.6118281 1.1476167
-0.042687327 0.109105155 -0.36387217 -0.19902194 -0.5534495 -0.9037756 -0.59522444 0.32074678
-0.01378794 -0.09656318 -0.08953101 -0.38972464 -0.3753449 0.37215665 -0.0724121 0.02260662
-0.39259934 -0.77751654 -0.60247207 -0.065214574 -0.08399038 -0.047477253 -0.035620883 -0.004756117
0.06431278 0.0113364 0.07181187 -0.07347518 -1.0639801 -0.6000666 0.47929296 -0.14243159
0.58444446 0.9446436 -0.4988871 0.34481785 0.17001794 0.64119345 -0.26726672 -0.6367498
0.16143608 -0.10052117 0.5328232 -0.76656353 -0.041830882 0.41477466 -0.39312872 -0.38251677
-0.4532153 -0.12208127 0.23838677 0.28940645 0.4981949 -0.05253404 -0.46354723 -0.19959377
-0.16927758 -0.11941694 -0.26192695 1.1965358 0.29534948 -0.0013023474 -0.34306303 -1.1167504
0.667822 0.5002155 -0.0037782239 -0.79123265 -0.47915956 -0.23666863 -0.3656269 -0.35475633
-0.51296914 0.04712488 -0.025762968 -0.004944657 -0.0920936 0.15675764 -0.029849576 0.034069795
0.10184028 -0.014740148 -0.7458113 -0.87479734 0.0451986 -0.5532087 -0.885528 1.0144955
0.41594112 -0.9664503 -0.8829945 -0.12321667 0.40305918 0.0053164223 -0.51664644 -0.32320663
-1.15888 0.029837722 -0.0154369855 -0.3199932 0.599624 0.47419444 -0.3328628 0.24504302

conv4.bias f4 [10]
00000000: 1e82 ee3c 85cd 9dbd d30b 5cb9 53a6 24be
00000010: 22a6 933d 43e4 7e3d 9450 543e f306 e33e
00000020: e105 203d 2e5c 983e
0.02911478 -0.07705215 -0.0002098524 -0.16079073 0.07209422 0.062229406 0.20733863 0.4434124
0.039068107 0.29757828

norm.weight f4 [10]
00000000: d601 023f d0f2 b43e 02e5 9f3e 1c44 0a3f
00000010: 1e2f d83e 28ac 9c3e 0f58 af3e 0cee 033f
00000020: 6058 a53e e163 b53e
0.5078405 0.353415 0.31229407 0.54010177 0.42223448 0.30600095 0.3424687 0.51535106
0.32293987 0.35427764

norm.bias f4 [10]
00000000: afe0 1abf fdca c9be 86e4 b6be d2ca 1cbf
00000010: 1c4b 0cbf 2698 c3be 61da e1be 9f47 1abf
00000020: 12e3 c5be 5b5f cebe
-0.6049909 -0.3941268 -0.35721225 -0.6124698 -0.5480211 -0.38202018 -0.44111922 -0.60265535
-0.38649803 -0.40307125

norm.running_mean f4 [10]
00000000: 870e f5c1 aa47 9bc1 cd84 8ec1 ab45 0ec2
00000010: cd7f dec1 7c15 92c1 93b3 27c1 bbcc 98c0
00000020: 7289 cdc1 e7b6 3bc1
-30.632093 -19.409992 -17.814844 -35.568035 -27.812403 -18.26049 -10.481341 -4.7749915
-25.692112 -11.732154

norm.running_var f4 [10]
00000000: d9e4 8043 ddb7 5b43 2927 8243 7f46 9443
00000010: e5a1 5943 7239 7c43 781f 5443 7e6e 9543
00000020: 02cf 8843 7b8d 5f43
257.78787 219.71822 260.30594 296.55075 217.6324 252.2244 212.12292 298.86322
273.61725 223.55266

fc1.weight f4 [50, 810]
00000000: 62e1 3d3e d190 7ebe eac6 513e 5c4a 2f3e
00000010: ae39 babc 2a32 3ebf 742c 48be 555e 1f3e
00000020: 3d6f e83d 3d20 a03d bf31 563e f210 903e
00000030: 5acb 133f eac6 dcbd 7beb c3be c493 b53e
00000040: 9a28 f5bd 20bd 93bd 72b8 023e 0c84 90be
00000050: 4b45 4fbf 3a3a ba3e b65a 963e cdc5 15bf
00000060: 9c42 b2be a9dc dbbd 1292 06bf c2a7 87bd
00000070: 0f0d 9b3d b1c6 34bd bedc d0bc bdce 0fbe
00000080: c0a9 b03c 86a1 d3be ffd8 853e 197c a13d
00000090: ab7f 67be ef60 79bd 8bcf a43d eb01 11bf
000000a0: ecb2 853d 20e3 11bf 01e3 833e 7ba8 c23e
000000b0: a10b aa3e af94 09bf 0d6b 623d 4add 453f
000000c0: 89c7 34be 846a 943e 60cd 9abe 282e a5be
000000d0: e7ed 2c3f 28a1 d93e 736e 4dbe 7721 02bf
000000e0: 8d01 fe3d aba7 553d 8bc2 d63e 4aab 993d
000000f0: 9b64 37bf ee32 853d a59e fcbe a94d 3c3d
00000100: fe70 85be ad24 fabe 34dc 7ebe f21c 76bd
00000110: 5e3a 8cbe a4ea 543e 5b9d 00bf a87f 593d
00000120: 45d3 22be 72f5 52bf 8f98 933d 87cc 9bbe
00000130: 4982 fc3e 805a f33d b830 913e 53be d33e
00000140: cc09 253e b42d b2be 8044 8f3d 521f 293e
00000150: 4bf0 debf 4eb1 1cc0 9d4b 563e 529e b53e
00000160: aa87 30bf fda3 82be 6f0f b83e fac1 7a3e
00000170: 1c1c 90bf 6359 21c0 0f43 3abf 1d2a b9be
00000180: 0b10 fabe 7d78 a93e 628d 083f c724 ce3c
00000190: 96e4 c2be 8e56 1cbf 4393 63be 51c5 d63e
000001a0: bad8 9fbd dcdb 2f3e e099 373e bed3 d23e
000001b0: 8361 a2bd 75b5 a5bd 52cb 16bf 1d57 81bf
000001c0: af3f e9be 4562 b0bb 9ae2 85be 25c6 0fbe
000001d0: 8a5d 1fbf 8532 efbe 1ad0 8abf 0ab4 88be
000001e0: 8685 54be 2f02 1d3f 7901 153f 01ab 99be
000001f0: 0842 cabe 46c1 e23d 26fe cb3e 2f91 823d
00000200: 5c21 1dbf f6d1 82bd 103b e4bc e93d 57be
00000210: e6f6 99bc b7b3 60bf 0896 81be 1abf ffbe
00000220: a72a a13e 55bb 5cbe 1fa2 a33d 8109 2dbf
00000230: eb9f bb3e 5f13 b1bf 147e 85be 9e06 0d3e
00000240: fd75 c7bf 4713 fdbc a138 02bf 75d4 0d3f
00000250: 2266 fb3d 1c6f 2ebf e4a8 bbbf cd06 e8bd
00000260: 226d 683e fa88 dfbf 1090 84be 990b 29bf
00000270: ac3a 21bf 880d 38be 7585 da3d 5250 f8bd
00000280: 0e7f 63bc 0f2c a23c 4da5 d6bd 54c6 ce3d
00000290: 1b22 013f 582d 0bc0 6673 b8bf db70 163e
000002a0: 846b 8e3e 6851 1fbf 3558 e2be 3b9a 923e
000002b0: ccb3 e03d e813 16bf 16c8 b0bf 48c3 23bf
000002c0: b998 adbe 717a a63e b0bb 203e 4dec 113f
000002d0: 4530 54bd 7020 33bf 41fc 893d 51b7 373e
000002e0: e33b cd3e 9f5a 59be 469b 1c3c 505a 573e
000002f0: 755c da3e 6c5b c3bd 8167 12bd d54a 44bf
00000300: d2e1 f8be b1e5 87be 03d8 30be 11c0 70be
00000310: 13ec ccbc f2fb 28be 5e65 b0bf 61e2 babf
00000320: 834a 73bf 44c8 473e 6eea 203f 8feb 813e
00000330: 80d3 88be 170e 07bd 2ad8 8abe cd86 563f
00000340: 0bee 133f 4607 58bf 36b7 83bc 22bc 283d
00000350: 27f7 0bbf 941f 1d3e 63cb e3be 40aa 0ebe
00000360: afca 003d 1096 433f 7b0b 993e b1bd d53d
00000370: 03a9 b7be 5aee 91be 34ac acbf b02a 36bd
00000380: 667c 023f 61a0 13c0 3cfd 7d3d 06e5 0ebe
00000390: 0a96 063f 71dd babd 050a 81bf 9791 53bf
000003a0: 7132 373e d21e da3e 9fb5 7fbc 0fdc 833f
000003b0: ff35 dbbe 96aa 1fbe 1a1b bcbc 3c20 543e
000003c0: 0d5c a13e 90e9 46bc 1fcc d3be 3eb5 f63e
000003d0: 51a1 0f3e 5700 8d3e 9ff0 bc3d 90f5 483e
000003e0: 9d43 0b3d 607d 963e 51e1 14bd 7fde 853e
000003f0: 61a0 1b3d 3fb3 c23e 5206 d83e 4e86 813e
0.18543008 -0.2485993 0.20486036 0.1711821 -0.022732582 -0.74295294 -0.19548208 0.15563329
0.11349342 0.07818649 0.20917414 0.28137928 0.57732165 -0.10780127 -0.38265595 0.354643
-0.11970635 -0.07213807 0.12765673 -0.28225744 -0.8096511 0.36372548 0.29366082 -0.58504945
-0.34816444 -0.10735447 -0.52566636 -0.06623794 0.0757085 -0.0441348 -0.025495883 -0.14043708
0.021565318 -0.4133417 0.26142117 0.07884998 -0.22607295 -0.06088346 0.08047398 -0.5664355
0.06528267 -0.5698719 0.25759128 0.38019165 0.33211997 -0.537425 0.055277873 0.77290785
-0.17654242 0.28987515 -0.30234814 -0.32261777 0.6755051 0.42505765 -0.20061664 -0.50832313
0.124026395 0.052161854 0.419453 0.07503374 -0.71637887 0.06503855 -0.49339786 0.0459725
-0.2606277 -0.48856106 -0.24888688 -0.0600862 -0.2738828 0.20792633 -0.50240105 0.053100258
-0.15900905 -0.8240577 0.072068326 -0.3042948 0.4931815 0.11882496 0.28357482 0.41356143
0.16117018 -0.34800494 0.06995487 0.16515854 -1.7417082 -2.4483218 0.20927282 0.3547235
-0.68957007 -0.25515738 0.35949275 0.24488059 -1.1258578 -2.5210807 -0.72758573 -0.36164942
-0.48840365 0.33099738 0.53340733 0.025164021 -0.38065022 -0.6106957 -0.22224145 0.41947415
-0.07805009 0.17173713 0.17929792 0.4117717 -0.07928755 -0.08091251 -0.5890399 -1.010471
-0.455564 -0.0053828084 -0.26149446 -0.1404043 -0.62252104 -0.4671823 -1.0844758 -0.2669986
-0.2075406 0.61331457 0.5820537 -0.30013278 -0.39503503 0.1107202 0.39842337 0.06375348
-0.6137903 -0.06387703 -0.027860194 -0.2101971 -0.018794488 -0.87774223 -0.25309777 -0.49950486
0.31477854 -0.21555836 0.079899065 -0.67592627 0.36645445 -1.3834037 -0.26072752 0.13772056
-1.5582882 -0.030892981 -0.5086766 0.5540231 0.1227534 -0.6813829 -1.4660916 -0.11329422
0.22697881 -1.7463677 -0.2589116 -0.6603332 -0.6298015 -0.17973912 0.10669986 -0.12124695
-0.013885273 0.0197964 -0.10480747 0.10096422 0.50442666 -2.1746426 -1.4410217 0.14691488
0.27816403 -0.6223359 -0.44207922 0.28633294 0.109717935 -0.58624125 -1.3811061 -0.6396985
-0.3390558 0.3251529 0.15696597 0.5700119 -0.051803846 -0.6997137 0.06737567 0.17941023
0.40084752 -0.21225975 0.009558504 0.21030545 0.42648664 -0.09538922 -0.03574324 -0.76676685
-0.48609787 -0.26542428 -0.17269902 -0.23510768 -0.025014913 -0.1650236 -1.3780935 -1.4600335
-0.9503557 0.19509989 0.6285771 0.2537503 -0.26723862 -0.03297242 -0.27118045 0.8379944
0.577851 -0.843861 -0.016078573 0.041195042 -0.54674 0.15344077 -0.4449111 -0.13932133
0.031443294 0.7640085 0.2989157 0.104365714 -0.35871133 -0.2850216 -1.3490052 -0.044474304
0.50971067 -2.3066638 0.06200908 -0.13954553 0.5257269 -0.09124268 -1.0081183 -0.8264403
0.17890336 0.4260164 -0.015607267 1.0301532 -0.42814633 -0.15592417 -0.022962142 0.20715421
0.31515542 -0.012140647 -0.4136667 0.48185152 0.14026381 0.27539322 0.09225582 0.19624925
0.034000028 0.2939253 -0.03634769 0.26146314 0.037994746 0.3802738 0.42192322 0.2529778

fc1.bias f4 [50]
00000000: 6736 f73d a0fe 943f c304 ee3f 3aa6 80bf
00000010: 5cb1 893c 44c2 863f bd80 d73d 15f6 b5be
00000020: a339 54bf f7a2 af3f 39b4 973f 6d26 5cbf
00000030: 83a5 793f 2b16 153e a987 f8bd 47b8 0040
00000040: 79c5 b63f 7d1d 933e e377 c93f 2f6f 2abd
00000050: e7c7 0f3f d171 0040 71de 5c3e 1357 ab3e
00000060: 7dee 673f 7357 663f e49b 323f ce2e a63f
00000070: 00dd 7f3f e270 333f 83f3 bf3f e22e 983f
00000080: 56c3 663f d6b2 a63f 0817 3f3f a0ad 9f3f
00000090: 0ed4 2d3d a795 9d3f 9c6e 1d3f c1c7 0e40
000000a0: b5af 313f f604 733f 01f3 17be 6fe0 413f
000000b0: aece b83a 0c87 983f 46bc d83f f039 a93f
000000c0: 5309 f03e 6bd3 9c3e
0.12070923 1.1640205 1.8595203 -1.0050728 0.016808204 1.0528035 0.10522602 -0.35539308
-0.82900447 1.3721608 1.1851875 -0.85996133 0.97518176 0.14559238 -0.1213525 2.0112474
1.4279014 0.28733435 1.5739712 -0.04160994 0.561644 2.0069468 0.2156923 0.3346487
0.9059828 0.89977187 0.6976912 1.2983034 0.99946594 0.7009412 1.4996189 1.1889307
0.9014181 1.3023326 0.7464452 1.2474861 0.04243856 1.2311295 0.614969 2.230942
0.6940873 0.94929445 -0.14838792 0.75733083 0.0014099681 1.1916213 1.6932456 1.3220806
0.46882114 0.3063005

fc2.weight f4 [7, 50]
00000000: 8ecd bdbe 6e45 5dbe 7b2d 263f 8d61 093e
00000010: 85bd 9abe 147b ad3e 9d39 16bf d0a6 3b3a
00000020: 1070 8ebe ade3 e4be 30f1 ddbe 9352 793e
00000030: e0d0 2dbe 73c5 94bd 7ef3 8abd 4d24 75be
00000040: 39a4 70be f68b 51bd 17f8 e63e 8a0b 773d
00000050: 9740 33bf 7081 d6be 3fad abbe 918a 133f
00000060: 248d c7be 61b3 78be 585e 31be 6d5c 2bbe
00000070: c292 bfbe 0cd4 23be 3694 fcbe 2005 2abf
00000080: 5978 d1be 42a7 5bbe 2a94 8c3e 0549 493f
00000090: 8654 fd3e 8af3 063d cfe6 37bf a6c6 403e
000000a0: 1f5b 2ebf 40de 233f 19b7 043c 1800 57be
000000b0: 869f 8dbe b431 c4be c932 95be 0d62 92be
000000c0: b524 a3be 692d 83be 68d6 493d 73b4 05be
000000d0: 84ef 96bc 432d 423f d2ff 833e 3d27 89be
000000e0: ad8a 6b3f e6e8 e43e 7639 4dbe 9e80 3c3f
000000f0: ca58 1bbe f615 b0be 02cd 53be 543b 08bf
00000100: e948 2a3d 8c30 03bf d137 4cbf 626e fb3e
00000110: d394 43be 6599 3dbe 7eba e23f 3355 07bf
00000120: cfe8 0d3e 07c5 913e c1cf 62bf 9bcd a7be
00000130: 2c5b 04bf 21d7 12bf 522a 33be 032e 00be
00000140: ad32 74be a3e4 38bf 89da c5be d897 97be
00000150: 2622 97be b45f 09be 3a8c c1be 9bcc c1be
00000160: 1512 77be efb8 05bf ce12 483f 8bd9 12be
00000170: f1e1 fbbc ce4d acbe cbb1 bfbe 5710 0bbf
00000180: 5438 c2be 177e d4be 8957 ebbe e1f2 1b3f
00000190: f343 c9be 2710 98be 7361 86be a4d7 76be
000001a0: 11c0 adbd a678 41bd b68e 85be 1ab6 cdbe
000001b0: ebba 733e fe2e 6e3e 0e9b cfbe b279 4abe
000001c0: 4df5 a2be 2d94 a6be 0712 fe3c b042 7d3f
000001d0: 066d 55be c04b 9fbe 50e3 0ebe 006e 9ebe
000001e0: 4cac d1be 2277 aabe efd9 65be 3c08 bbbe
000001f0: 79bf 29bf 15f1 d43e 3cc5 613e 14da 063f
00000200: e3d6 79be 0679 c63d 6ae5 8abe 059a b3bc
00000210: 361c 3dbe 7ae4 72be aaa9 8cbd fdd2 d1be
00000220: 7a33 81be 50dc d63e 5404 95bf 3d2e 8dbe
00000230: 0a18 6abf f0cc e0be 43e8 173d efc0 3c3d
00000240: 45f5 f0bb 3468 02bf 077e 82be a254 c2be
00000250: 5ff4 84be 41d0 afbe e291 17bf 8d64 20be
00000260: da68 39be 8f7a edbc 0f37 a73e 8545 88be
00000270: 3e6c 06bf caa1 99be 042f 983e 7606 f6be
00000280: 963a c6be 159b 91be 4a3c c43e 273d b23e
00000290: a356 a4bd 1e5b 8dbd 236c 60be ac2e aa3e
000002a0: 3247 a4be 7dfd 96bc c0f7 1140 cfec a9be
000002b0: 6dfb b43e 6df4 8b3d abed bfbe 43d6 b3bd
000002c0: 0e11 8abe 1a24 b1be e7a9 a73e 4735 cd3e
000002d0: dfdc 4f3f f8d5 16bf de26 9abf 6f1a 473e
000002e0: 5147 7a3e d4df afbd a7e2 05be 4f7a 01bd
000002f0: 3b10 863f b96a 88be 1b5a 4a3f 8e4c 07bf
00000300: 84f8 5abd 6c75 cfbd 3f3d febd 1b83 3cbf
00000310: 71af 73be dd4e 72be 5922 fb3e dab0 6dbe
00000320: 6604 ffbe b18d 063f 783c 90bd 4016 f6bd
00000330: 6296 b9bd ab2e 54be 493a 90be 7952 be3e
00000340: 7388 94be 5371 523f a9b3 de3d b9d6 643e
00000350: e4fd aabe 40fb 87bd cfaf 09be 8bf1 d7be
00000360: bb27 743f b833 d8be 2315 60bd af71 70bc
00000370: a726 d5bf a2f3 ae3d 2cd8 08bf 40ed dabe
00000380: c3e6 25bf aae7 ddbc 26d1 be3e 4440 bfbd
00000390: ea23 75be d943 a0be 1d9f efbe 42ce 2a3f
000003a0: 1913 a5bf 6579 de3c cf8e 813d 5047 35be
000003b0: e5fe 4abe 59c1 c3be e3ce c53e 5cbd bdbe
000003c0: da48 01bf 2a78 c9be a54c e3bd 09f3 8d3e
000003d0: 353b 37bd b7fe 0bbf 7ece 0fbf 045a b1be
000003e0: 09c4 a3bd 4e5b 303e 14e4 153f e8c8 6ebe
000003f0: c77f aabe 8e48 1a3e 6325 a2be cf55 91be
-0.37070888 -0.21608517 0.6491315 0.13416119 -0.30222717 0.33882964 -0.5868166 0.0007158341
-0.27819872 -0.44704953 -0.43348074 0.24347906 -0.1697421 -0.07264223 -0.06784724 -0.23939629
-0.23500146 -0.051158868 0.45111153 0.06031374 -0.7002043 -0.41895628 -0.33530614 0.5763331
-0.3897487 -0.24287178 -0.17321146 -0.16734476 -0.37416655 -0.15998858 -0.49331826 -0.6641407
-0.4091213 -0.21450523 0.2745679 0.78627044 0.4947855 0.0329471 -0.7183656 0.18825778
-0.6810779 0.64011 0.0081002945 -0.2099613 -0.2766077 -0.3831917 -0.29140308 -0.28590432
-0.31863943 -0.25620583 0.04927674 -0.13057117 -0.018424757 0.75850314 0.25781113 -0.2678775
0.9200848 0.44708937 -0.20041451 0.73633754 -0.15170589 -0.34391755 -0.20683673 -0.5321553
0.04157344 -0.5124595 -0.7977267 0.49107653 -0.1909974 -0.18515547 1.7713163 -0.5286438
0.1385834 0.28470632 -0.8859826 -0.32774052 -0.5170162 -0.5735951 -0.17496613 -0.12517552
-0.23847456 -0.7222387 -0.38643292 -0.29608035 -0.2951824 -0.13415414 -0.37802297 -0.37851414
-0.24127991 -0.5223531 0.78153694 -0.14340799 -0.030747386 -0.3365311 -0.37440333 -0.5432181
-0.379336 -0.4150245 -0.45965222 0.6091748 -0.39309654 -0.29699823 -0.26246223 -0.24105698
-0.084838994 -0.0472342 -0.26085442 -0.40177995 0.23801772 0.23260114 -0.40547985 -0.19772986
-0.31827775 -0.32534924 0.031014455 0.9892988 -0.2084237 -0.3111248 -0.139539 -0.30943298
-0.40951765 -0.33294016 -0.22446416 -0.3652972 -0.6630779 0.4159018 0.22047895 0.5267651
-0.24398379 0.09691052 -0.27128154 -0.021924028 -0.18467793 -0.2371997 -0.06868298 -0.40981284
-0.25234586 0.4196496 -1.1641946 -0.2757434 -0.9144293 -0.43906355 0.037086736 0.046082433
-0.007353457 -0.5094025 -0.25486776 -0.37955195 -0.2596769 -0.34338573 -0.59206975 -0.15663357
-0.18106404 -0.028989105 0.32659194 -0.2661554 -0.52508914 -0.30006248 0.2972337 -0.48051804
-0.38716573 -0.2843863 0.38327247 0.3481228 -0.08024337 -0.06902145 -0.21916251 0.33238733
-0.32085568 -0.01843142 2.2807465 -0.33188483 0.35348073 0.0683373 -0.37486014 -0.087811016
-0.26966137 -0.34597856 0.32746813 0.4007971 0.811964 -0.5892024 -1.2043111 0.19443677
0.24441268 -0.08587614 -0.13074742 -0.031610783 1.0473703 -0.26643923 0.7904374 -0.5285119
-0.05345966 -0.10129818 -0.124140255 -0.7363755 -0.23797394 -0.23662896 0.49049643 -0.23211995
-0.49808043 0.52559954 -0.070427835 -0.120159626 -0.09061886 -0.20720927 -0.28169468 0.37172297
-0.29010352 0.8220417 0.10874111 0.22347535 -0.33396828 -0.06639719 -0.13445972 -0.4217647
0.95373124 -0.42226958 -0.054707658 -0.014675542 -1.6652421 0.08542563 -0.5345485 -0.42759132
-0.6480524 -0.027088005 0.37268943 -0.093384296 -0.23939481 -0.31301764 -0.4680108 0.66720974
-1.2896453 0.027157495 0.06326067 -0.17702985 -0.19823797 -0.3823345 0.38634405 -0.37058532
-0.5050179 -0.3934949 -0.11098603 0.27724484 -0.0447342 -0.5468554 -0.5617446 -0.3463899
-0.07996375 0.1722233 0.58551145 -0.23318827 -0.3330061 0.1506674 -0.3166915 -0.2838578

fc2.bias f4 [7]
00000000: d81a 723e 63a4 c23f beb0 ec3d 3f2c d2be
00000010: 3103 9f3e f01c e6be ef17 c6be
0.23643053 1.5206417 0.115571484 -0.41049382 0.31057122 -0.44943953 -0.38690135

localization.0.weight f4 [8, 1, 7, 7]
00000000: aa7f 3b3e 9fed f23c 53f3 7cbd 3303 09be
00000010: a298 e1bc 6e70 3f3d ef44 7fbd 0801 553d
00000020: 70be 363e fbca 6fbe e88a 00be 6fea 473d
00000030: c389 453e a894 0b3e b9fc 4ebd 4800 a1bd
00000040: 7085 2ebc 770e 103d 4af8 e3bd 8284 1cbe
00000050: 904e 1b3d cffb 1fbe 5b44 09be 2a27 9f3c
00000060: 30e0 8abe ac4a abbe fd59 51bd 95ca 3bbe
00000070: cdaa 09be 7e49 343d aa35 8a3e b2a3 c13d
00000080: a118 d33c db6c 6e3c 8ea0 29bc 7ebd 4ebc
00000090: af29 4f3e a148 2f3e 4ba3 8cbd 521b 9e3c
000000a0: 0ad1 0b3e 1ef2 283d 6225 893d f15e 113e
000000b0: bc81 1ebe 30b7 9cbd 5edb b9bd ee03 85bb
000000c0: 07f9 6f3e f0c5 c33d ae20 8e3d ad76 1dbd
000000d0: cc9c 29be d695 d83d ff21 fc3d 5c0d 35bc
000000e0: 6cb0 efbd 7022 4dbc e235 293e cb5e 6b3e
000000f0: d99f 403d 8efa 763d aaac ea3b d4b3 46bd
00000100: e36e c6bc fe5f 4a3c 21a3 bb3c 0067 9fbd
00000110: 1e30 b93c 3223 a43e 053c 83be 30ae 05be
00000120: b284 e0bd 364a 3cbc 036f 9cbe ab1e a0bd
00000130: 4bbc 12bd db89 8dbd 38af acbd 1870 3a3e
00000140: ffc9 173e 192a 64bd e580 ebbd 34a9 1dbe
00000150: 2dc4 c83c 6db7 453e 5ccc 6b3d 3d1e 793e
00000160: f64a 923e c79b 85ba 224c 1b3e 2dbb bbbd
00000170: db19 cabe 7fa3 efbd f4cf 4ebe 599c ecbb
00000180: f9b5 aebd 98b6 123b 70c0 90be 72ad babd
00000190: dabc 273e 6c43 99bc 4c0d dbbd c78b 163e
000001a0: 3517 50be 914d 06be 0564 53be 8398 d6bd
000001b0: 8f56 23be d7aa 1bbe c4ee 9c3d 563c 1dbe
000001c0: cc37 143e 83ec 39be 024f a9bd e86a 3a3e
000001d0: 684c dcbd fc3b ed3d 0eeb edbc b84b 81bd
000001e0: 3312 993d f6cd 05be 83c4 0bbe 2b8e 22be
000001f0: fe20 713d 95e9 bb3d eaee 813d 9191 793e
00000200: 7477 25bb f13d cabc fb42 043e 29e8 693d
00000210: 6c93 4e3e f378 ce3d b7c9 14be 5047 193e
00000220: 727f a63c 8543 2b3e 5151 883d 0b4a ce3d
00000230: d314 5fbe 5b84 1fbd d6c8 54be 22c7 9fbe
00000240: 01aa 543e d412 a73d 04e6 6abd b998 0fbe
00000250: 1cbc 2cbe 9d89 09be 0b3d d3bc fb8d 41be
00000260: 8d2b df3d 3425 ab3d f9b5 423d bf22 8dbe
00000270: 94f4 91ba 9b92 e73c e338 dabd 83be 493e
00000280: efaa aebc 4e7c 3cbd f97c 023d b6d5 84be
00000290: 633e 06be 6a22 e83d 62c8 0c3c 8fa4 81bd
000002a0: cf1f d9bd c93c d83d dad1 0c3d 82fe c7bc
000002b0: 8841 00be 570b edbd cc1f a7bd d661 613e
000002c0: effb 103d f80c 9fbd d63d 00bd a221 8fbc
000002d0: 306f 1dbe 1692 2dbd 7496 163e c66e 743e
000002e0: 0882 0e3d 3c67 823e 5abe 96bd d953 b1bd
000002f0: 4890 123e f271 0dbc b54e 3d3d 8517 5b3c
00000300: 53bf 353e 58f0 133e 0a22 14bd dadc 9e3a
00000310: 4c41 edbc 4171 813d 8879 e93c 7f5d 043e
00000320: e13d 703d 7b8f 79bd 2241 fbbd ef1a af3d
00000330: 84af 893c 4c03 18be ba50 223e a0a0 23be
00000340: d742 c1bd ddff ebbd 5be4 59be 007d 32be
00000350: 33e9 2bbe 80ce 03bd acff 26bd 1a64 2e3d
00000360: 956d 0f3e c6fe 52be 7d73 39be cf86 813c
00000370: 79cf ae3d d8b9 c1bd bac3 8fbc 7225 303e
00000380: a83e 94be 4d5a 22be 3fd7 d33d 1cea 52be
00000390: 454c 94be 61bc f13a 9536 633e dba6 0e3e
000003a0: 1aae 20be 7820 0bbd a653 57be b4b4 0ebd
000003b0: 12be b6be 9a0d c23d 0725 443e a733 c43c
000003c0: d267 adbd 2b1d cfbd b9cb 50bd 1b99 ab3d
000003d0: 3ab0 d33b 4ace 773d 1954 8f3d 9f96 693d
000003e0: 969e 7bbe a4b0 e6bd b5a9 b2bc 07c9 4dbd
000003f0: e646 f63c 4fe8 ac3d bff8 34be 683e 283c
0.18310419 0.029654322 -0.06175549 -0.13380127 -0.027538601 0.04673808 -0.0623216 0.052002937
0.17846084 -0.23417275 -0.12552989 0.048807558 0.19290833 0.13630927 -0.050533984 -0.07861382
-0.010651931 0.035170045 -0.11131342 -0.15284923 0.03791672 -0.15623401 -0.13404982 0.019427855
-0.27124166 -0.33455408 -0.05111121 -0.18338998 -0.13444062 0.0440154 0.26994067 0.094550505
0.02576858 0.01455232 -0.010353221 -0.012618421 0.20230745 0.1711755 -0.06867083 0.019300137
0.13653961 0.041246526 0.06696583 0.14196374 -0.15479177 -0.07652128 -0.09075044 -0.0040593063
0.2343484 0.09559238 0.06939827 -0.038443256 -0.1656372 0.10575454 0.12311172 -0.011050548
-0.11703572 -0.012520418 0.16524461 0.2298538 0.047027443 0.06029754 0.0071616964 -0.04851134
-0.024222797 0.012351988 0.022904934 -0.077833176 0.022605952 0.32058102 -0.2563173 -0.13054729
-0.109628096 -0.011492303 -0.30553445 -0.078183495 -0.0358241 -0.069110595 -0.08431858 0.18206823
0.14823149 -0.05570421 -0.11499194 -0.15396577 0.024507606 0.19308253 0.05756794 0.24327941
0.28572816 -0.001019352 0.15165761 -0.0916656 -0.3947285 -0.11701106 -0.20196515 -0.0072207865
-0.08530802 0.0022386666 -0.28271818 -0.09115113 0.16380635 -0.018708907 -0.106958956 0.14701758
-0.20321353 -0.13115527 -0.20643623 -0.10478308 -0.15950988 -0.15201889 0.076627284 -0.15355048
0.1447441 -0.18156628 -0.08267023 0.18204844 -0.10756761 0.11583707 -0.029042747 -0.0631327
0.07474174 -0.13066849 -0.13649182 -0.15874545 0.058869354 0.091754116 0.06344397 0.24371935
-0.0025248202 -0.02468774 0.12916176 0.05710617 0.20173424 0.10081663 -0.14530073 0.1496861
0.020324443 0.16724975 0.06656135 0.10072716 -0.21785288 -0.038944583 -0.20779738 -0.31206614
0.20767976 0.08157888 -0.057348266 -0.14023103 -0.16868633 -0.13431402 -0.025785943 -0.18901818
0.108969785 0.08356705 0.047536824 -0.27565572 -0.0011135512 0.02826815 -0.106553815 0.1970158
-0.021321742 -0.046016984 0.031857464 -0.25944299 -0.13109736 0.11334689 0.008592697 -0.06330215
-0.1060177 0.10558469 0.034379818 -0.024413351 -0.12524998 -0.115744285 -0.08160362 0.22009978
0.035396513 -0.077661455 -0.03130897 -0.017472092 -0.15374446 -0.042375647 0.14705831 0.23870382
0.034791976 0.25469387 -0.073605254 -0.08658571 0.14312851 -0.008633124 0.04621764 0.013372307
0.17748766 0.14447153 -0.036165275 0.0012120262 -0.0289618 0.063204296 0.028500333 0.12926291
0.058652762 -0.06092785 -0.122682825 0.08550059 0.016807325 -0.14845008 0.15851107 -0.15979242
-0.09436577 -0.115234114 -0.21278517 -0.17430496 -0.16788177 -0.032179356 -0.04077117 0.042575933
0.14006646 -0.20605001 -0.18110462 0.015811352 0.08535666 -0.09459275 -0.017549384 0.17201784
-0.28954053 -0.1585476 0.10343789 -0.20597118 -0.2896444 0.0018442982 0.2218879 0.13930838
-0.15691414 -0.03396651 -0.21028003 -0.0348403 -0.35691887 0.094752505 0.1915475 0.023950411
-0.08467068 -0.10112985 -0.050975535 0.08378812 0.006460217 0.060499467 0.06998462 0.05702841
-0.24572214 -0.1126416 -0.021809438 -0.050240543 0.030063104 0.08442747 -0.17673014 0.010268785

localization.0.bias f4 [8]
00000000: 839b a2bd a4e6 a1be fa3c 38bd c1ce f9bc
00000010: 0ab1 a4be 954b 94be 7fec a9be 0a8c 093c
-0.07939818 -0.31621277 -0.044980027 -0.030494096 -0.3216632 -0.28963915 -0.33188245 0.008395204

localization.3.weight f4 [10, 8, 5, 5]
00000000: c665 0b3e af97 543e 6801 85be d973 8a3e
00000010: cac6 b03d 69b7 6dbe d48e 703e 2e16 1abd
00000020: a008 a7be 7f9c 113e 39e2 1cbf 2f87 aabe
00000030: 9455 d33d ca8d 4d3d 9911 0e3e bc5b efbd
00000040: bc16 b4bd b580 0fbe e104 efbe 030a aa3c
00000050: bce7 2b3e 8859 e73d 0a49 1fbe 9d75 de3e
00000060: 64ba 6cbe a842 66bc 822e 843e 6213 4cbe
00000070: 06de ce3e 7667 82be 314b a33d b346 033e
00000080: 8fa2 213e 80d9 ee3d 91f8 a63e fb35 68be
00000090: cc22 08be aa2b 4bbe 8b9d 8bbe 8866 68be
000000a0: 3fc3 963d d557 acbc 4938 6e3e af41 11be
000000b0: 698b 4ebe d318 083d 7389 80bd 516d b23d
000000c0: 7b0d cd3d aa0a b2bc b878 aebe 3ef4 72be
000000d0: 794f 71bf a83c 0abe 4084 bdbe d585 72be
000000e0: e2ac 963e 6da0 2bbe c099 c9bd e1f4 023d
000000f0: bac7 993e c61f b1be 1540 67be e708 fcbd
00000100: de0c df3e 62b7 7abe 5a0e e0bc 51e5 04be
00000110: 7b54 56ba 387d 63bc 435e 3fbe 60db 153e
00000120: 3dd6 b7bd fff4 883e 23cd c5bd 21c1 e63c
00000130: 7dd7 553d dd8b 7cbe 5d2f edbe cd81 323e
00000140: 36ee 93be 420b cf3c 7ca6 1ebe 1884 9ebe
00000150: e3b1 18be a5f0 3dbf e753 f0be 3867 de3c
00000160: a522 f03c 103c 0cbd 59d8 d4be c688 c1be
00000170: 7fce 373e 2c58 4b3e f526 3bbe a419 bebb
00000180: 8b19 143c 5c3c 46be 390b 0abe 6a55 fabc
00000190: b6de c1bd 8fa3 3fbf 2f35 d2bc c2f9 f9be
000001a0: 2068 38be 69eb 12bd 9d61 80bd a4e1 a0bf
000001b0: 0e67 bdbe 7906 1f3c d53a a33d 4d49 b43e
000001c0: ebad 03bf cd02 10be fbc5 79bd b5aa 153e
000001d0: 8c84 e83c 9cdb d03d be6d cbbe 254b 03bf
000001e0: 9a40 d03e 73e3 9e3e c9ef 423e 27c6 1a3d
000001f0: 3083 b6bd 1f99 8cbf dd84 ebbf be8e 3fbe
00000200: 506b 96be 669e a3be df22 3bbf 08ff f9be
00000210: d420 babf 3b7b 883e f996 7ebe 7f47 b2be
00000220: 35e1 733e f825 a63d 0bce 9cbe ae67 003e
00000230: b397 5d3e c9b4 ec3c 7a6c a3bc 18ca 64be
00000240: f09d 00bf b293 383e d901 633e 4386 023e
00000250: 145b d93d a28a 59be be90 b5be a407 b8bd
00000260: 9466 ba3e 8207 b0be 8942 5fbe 6ed3 c9bd
00000270: 9c90 6abe fbe6 353e 0079 123f 93c6 6cbe
00000280: fa78 853e ea1d 08be 7d48 6cbe 64f6 5bbe
00000290: 741b a4be d663 093e bca2 233d 41ee 2bbd
000002a0: 4284 ec3d e6bf 5abe 525c 823d 97d9 3b3d
000002b0: 875d 6d3e c393 f93d fe23 363d f1a6 87bc
000002c0: 874b 77be aac4 c2be a8eb 1abf 4eab 86be
000002d0: bbf7 953d 63ed 9a3d a091 fdbe ac3e b7be
000002e0: 7df5 d8bd 02bf 9a3e dff6 b5bd e9b3 6ebe
000002f0: 4251 cabd 6992 853e cd9c 75be 19f8 6bbd
00000300: ceec da3c 3219 813e cbe9 d0bd 3e8b f3bd
00000310: 476b adbe 34f2 aa3d f9df 9b3d b01f 773e
00000320: ed6b 9cbe ee87 ae3d a1cc b4be 6121 a1be
00000330: 4241 0f3e bf72 143e 2038 1abe 381b 6c3e
00000340: 14c2 cc3d 4437 19be 3645 11be 7ecc 9bbc
00000350: d9e1 073e a797 453d 584f 5b3e c728 d2ba
00000360: 70fe 073e 6c32 9cbd 8c1f 53be d7be cebd
00000370: 39f2 a83e 33fe 85bd 084a 08be 3ff6 903e
00000380: b403 b03d 6ccf 053d 503d 6d3c e610 01be
00000390: ec50 7cbe 6ca7 033e fc92 143d 9906 2abe
000003a0: b7b1 cf3d e86c 49bc 793d ae3d 6dae dfbc
000003b0: d5ca 703d 66a7 90bd 077d cdbc 2991 823d
000003c0: 21b5 a5bd d36d 36bd 678e 4cbd 5874 e5bd
000003d0: bbe3 f7bd cc15 ef3b e656 363e 4149 183d
000003e0: fd39 17be 9af4 7f3c 574f 8cbd 1d49 4abe
000003f0: d867 813d 2ef3 c4bd c367 9bbd b107 47bd
0.13613042 0.20760988 -0.25977635 0.2704151 0.08631666 -0.23214497 0.23491985 -0.03761881
-0.32623768 0.14219855 -0.6128269 -0.33306262 0.10319057 0.05018405 0.138739 -0.11687419
-0.08793399 -0.14013942 -0.4668341 0.020756727 0.16787618 0.112963736 -0.15555206 0.43449107
-0.23117977 -0.014053978 0.25816733 -0.19929269 0.40403765 -0.2546956 0.07973326 0.12819938
0.15784667 0.116625786 0.32611516 -0.22676842 -0.13294524 -0.19840875 -0.27268633 -0.22695363
0.07361459 -0.021037975 0.23263659 -0.14185213 -0.20170368 0.0332268 -0.06276216 0.08712257
0.10012337 -0.0217336 -0.34076476 -0.23725984 -0.9426189 -0.13499701 -0.3701496 -0.23683865
0.29428774 -0.16760416 -0.098437786 0.031971816 0.30035192 -0.34594554 -0.22583039 -0.123063855
0.43564504 -0.24484017 -0.027350593 -0.12978102 -0.0008176041 -0.013884835 -0.18688302 0.14634466
-0.089764096 0.26749417 -0.09658267 0.028168263 0.05220746 -0.24662729 -0.46325198 0.17432328
-0.28892678 0.025273923 -0.15493196 -0.30960155 -0.14911608 -0.7419532 -0.46939012 0.027148828
0.029313395 -0.034236968 -0.4157131 -0.37799662 0.17949866 0.19857854 -0.1827658 -0.0058013964
0.009039293 -0.19358963 -0.13480844 -0.030558307 -0.09466307 -0.74858946 -0.025660126 -0.48823363
-0.1800847 -0.035869036 -0.06268618 -1.256886 -0.36992687 0.009706133 0.07970206 0.35212174
-0.5143725 -0.14063568 -0.060979825 0.14615901 0.028383516 0.10198137 -0.39732164 -0.51286536
0.40674287 0.31032905 0.19036783 0.03778663 -0.08911741 -1.0984229 -1.8399922 -0.18706796
-0.29378748 -0.31956786 -0.73100084 -0.48827386 -1.4541268 0.26656517 -0.24862279 -0.34820172
0.23816378 0.08112711 -0.30625948 0.1253955 0.216399 0.028894799 -0.019949187 -0.22342718
-0.50240993 0.18025091 0.22168674 0.1274653 0.10613075 -0.2124429 -0.35461992 -0.08985832
0.36406386 -0.34380728 -0.21802725 -0.0985478 -0.22906727 0.17763893 0.5721588 -0.23122625
0.2606886 -0.13292661 -0.23074527 -0.2148071 -0.32052195 0.1341699 0.039950117 -0.041975264
0.11548664 -0.21362266 0.06365265 0.045861807 0.23180209 0.121863864 0.04446792 -0.016559096
-0.24149905 -0.38040668 -0.6051583 -0.2630257 0.073226415 0.07564809 -0.49525166 -0.35790002
-0.10593698 0.30223852 -0.088849775 -0.23310818 -0.0987878 0.26088265 -0.23985596 -0.05760965
0.026724245 0.25214535 -0.102008425 -0.11891793 -0.3387091 0.08346978 0.07611079 0.24133182
-0.3055109 0.0852202 -0.3531237 -0.3147078 0.13989738 0.14496897 -0.15060472 0.23057258
0.09997955 -0.14962488 -0.14186558 -0.019018408 0.13269748 0.04824033 0.21416986 -0.0016033881
0.13280654 -0.07626805 -0.20617503 -0.100949936 0.329973 -0.06542625 -0.1330949 0.2831287
0.08594456 0.032668516 0.01447995 -0.12604102 -0.24640244 0.12856835 0.036272988 -0.1660408
0.10141318 -0.012294032 0.08507819 -0.027304852 0.058787186 -0.07063179 -0.025084032 0.06375343
-0.08091188 -0.04453833 -0.049940493 -0.112038314 -0.12103983 0.0072962996 0.17806587 0.037179235
-0.14768215 0.015622282 -0.068510704 -0.19754453 0.06318635 -0.09616695 -0.0758815 -0.04859132

localization.3.bias f4 [10]
00000000: 6b3c 20be da5f 6fbe a813 303d de01 093d
00000010: 2c7a d6be c83d 0ebe 9d6f 09bc 7f4b a43c
00000020: 3a6d 4d3d 4af0 89bd
-0.15648048 -0.23376408 0.042987496 0.033449046 -0.41890085 -0.13890755 -0.008388427 0.02005553
0.050152995 -0.067352846
